UQ_assessment_1D/models/FCNN/i1_nn64_nl4_o1_tr1_ep400_b50000_s36/model.pth (torch, 80520 bytes, 13 tensors)

weight f4 [32, 1]
000000 0c 10 4a be 29 18 ce be f8 f5 32 c0 3c ce 1d be
       -0.19732684 -0.40252808 -2.7962627 -0.15410703
000010 22 04 89 3e 22 db ee bf 22 25 06 3f c1 98 82 3f
       0.26760966 -1.8660624 0.5240041 1.0202867
000020 2c 04 be 3e 6c 7b 94 be 5c 59 70 3f 0c 6f 4d 3f
       0.37112558 -0.29000413 0.9388635 0.8024757
000030 bf 52 10 3f bb 9c 4c bf 4a b7 de be 81 23 4a be
       0.5637626 -0.7992665 -0.43499213 -0.19740106
000040 a8 99 3f bf 93 cd 5b bf 56 f9 08 bf 3b 29 3b bf
       -0.74843836 -0.85860556 -0.53505456 -0.7310979
000050 c0 bf 8c bc 07 c4 1c c0 00 4b 33 3c 60 a7 63 bf
       -0.017181277 -2.4494646 0.010943174 -0.8892727
000060 ba de fa 3e 00 a9 d9 3c a2 33 dd be 8c 0e 08 3f
       0.48998052 0.026569843 -0.43203455 0.53147197
000070 68 f8 4b be 8f 6d a1 bf c8 73 58 3e 00 0f 84 be
       -0.19918978 -1.261156 0.21137917 -0.25792694

bias f4 [32]
000000 8c 59 18 3f 11 7e 35 3f 7c 18 f6 bf f6 1b 41 bd
       0.5951164 0.7089549 -1.9226222 -0.047145806
000010 f5 a5 13 3f 5a 15 9d bf 8a 17 60 3f a9 18 c7 3e
       0.57675105 -1.2272141 0.8753592 0.38886002
000020 a6 76 02 3f 10 72 15 bf 29 43 2b 3f d0 4f 4f bf
       0.50962293 -0.5837717 0.66899353 -0.8098116
000030 8f 3c bd 3e 88 d0 0d 3f 86 a2 99 3e 4d 22 8e be
       0.36960265 0.5539632 0.30006808 -0.27760544
000040 9f f0 08 3f 38 71 22 3f b7 b6 ee 3e 12 41 49 bf
       0.5349216 0.6345401 0.46623775 -0.78614914
000050 04 3e a2 be f9 5e fc bf 5c 83 1a bf 3b d0 49 3f
       -0.3168794 -1.9716483 -0.6035669 0.7883336
000060 db 57 4f 3f b8 a7 18 bf 35 18 f3 3e 78 43 cd 3e
       0.8099343 -0.5963092 0.47479406 0.40090537
000070 0e ac 6a bf 44 df b2 bd 1a 9e 6a bf 98 22 e1 3e
       -0.91668785 -0.08733991 -0.91647494 0.43971705

weight f4 [64, 32]
000000 09 09 04 be e6 34 01 be 4a 8b 50 bd f0 dc 4f bc
       -0.12894072 -0.12617835 -0.050914086 -0.012686953
000010 d4 3f cd bc 1c 8e 8a bd ad 30 47 bd 6d af ab 3d
       -0.02505485 -0.067653865 -0.048630405 0.08383069
000020 c6 08 4a bd ac 57 c3 bd 0a 22 75 bd e1 a3 ab bd
       -0.049324773 -0.095382065 -0.059846915 -0.08380867
000030 ae e5 70 bd e3 a4 c8 bc d9 b9 f1 bc f7 ef ce bd
       -0.05881279 -0.024492687 -0.029507564 -0.101043634
000040 50 aa 14 3c 91 47 d1 bd 2c ea 1d bd 85 59 c1 bd
       0.009073809 -0.10218728 -0.0385534 -0.094409026
000050 d0 68 cb 3d c0 fc 5a 3d b2 a0 3c bd 03 73 dd bd
       0.09932101 0.053463697 -0.04605169 -0.10812952
000060 7a c9 91 3d 0b ea 91 3d 88 d8 60 be 92 f1 79 bd
       0.07118507 0.07124718 -0.219576 -0.061021395
000070 73 a5 85 bc e7 6e ea bd db 66 86 bd a2 eb 3d be
       -0.016314244 -0.11446934 -0.06562587 -0.18546918
000080 62 04 46 be da 91 d7 bc 62 e8 2b be a1 3f 24 be
       -0.1933761 -0.026314665 -0.16787866 -0.16039898
000090 28 e1 77 bd 15 2f 0f be ab ef 09 be 22 b9 37 be
       -0.06051746 -0.13982804 -0.13470332 -0.17941716
0000a0 10 cf 01 3d d0 94 f8 bd b6 a5 46 be 81 a1 94 3d
       0.03169161 -0.12137759 -0.19399151 0.07257367
0000b0 fc 98 eb bc 22 6a 59 3d 3b 89 17 be 03 4d 90 bd
       -0.028759472 0.05307973 -0.14798443 -0.07045939
0000c0 43 32 59 be 42 ea 43 be c4 ea b1 bd 21 45 1e 3e
       -0.2121058 -0.19132331 -0.08687356 0.15456058
0000d0 81 d8 64 3c a0 5f 79 3d 1b 4c 16 3e 46 0f da 3d
       0.013967634 0.06088221 0.1467747 0.106474444
0000e0 eb b4 8f bd 0c 8d d6 bc b7 bc 2d 3d 1d a3 30 be
       -0.07016929 -0.026190303 0.0424163 -0.17249723
0000f0 e9 a8 0c be f2 33 68 be c1 53 f7 3b 01 df 8e 3d
       -0.13736309 -0.22676066 0.007547826 0.06976128
000100 a2 08 2e bd d2 46 8b bd c4 4a 97 bd 35 ff 15 be
       -0.0424887 -0.06800617 -0.07387307 -0.14648135
000110 b3 bd 25 be e3 26 48 bd d2 5a 32 be 71 b2 d6 bd
       -0.16185646 -0.04886521 -0.17417458 -0.10483254
000120 b8 38 a5 bd f7 ce bd bc 73 a1 ec ba 5a 7e 97 bd
       -0.08067459 -0.023169978 -0.0018053487 -0.073971465
000130 d4 26 97 bd 5e de 03 3e 33 b1 13 be 92 7a 48 be
       -0.07380453 0.12877795 -0.14423065 -0.19578007
000140 dd 59 d9 3d af 06 2a be 84 db 99 3d 31 83 65 3c
       0.10612843 -0.16604112 0.075125724 0.014008329
000150 53 b9 53 bc ea 60 4a be c6 4a 29 bd 4a c8 05 bd
       -0.012922603 -0.19763532 -0.041331075 -0.032661714
000160 25 76 83 bd c2 ec 0e 3e 92 26 48 bd 3b f5 b3 bd
       -0.06419019 0.13957503 -0.04886491 -0.087870084
000170 54 f2 5d bd a6 9f 06 3e 5f 53 34 3e a2 ac 91 bd
       -0.05418618 0.13146839 0.17609929 -0.07113005
000180 2e 18 0e 3d de 3e e3 bc 88 2f 5f 3d 45 5b 27 3d
       0.03469103 -0.027739938 0.05448869 0.040858526
000190 de 2f 0b be 45 1b 28 3d 2e 64 fa 3d 6d 7f 14 be
       -0.13592479 0.04104163 0.12226139 -0.14501734
0001a0 21 1b a1 bd d1 65 43 bd 46 4e 11 3e 73 d4 98 bd
       -0.078665026 -0.04770452 0.14190015 -0.074623965
0001b0 4e 6e 23 3e 37 ad c2 bd 3a 14 87 3d 9b 95 7f bd
       0.15960047 -0.09505694 0.06595655 -0.062398534
0001c0 ec 75 48 3c 82 7d af 3d 06 30 d1 3a f6 d1 ba 3c
       0.012235146 0.085688606 0.0015959747 0.022805195
0001d0 bf ab fd 3d b2 76 0e 3e b4 2a 91 3c e8 ed c8 bc
       0.123862736 0.13912466 0.017720558 -0.024527505
0001e0 67 40 33 b7 7c e2 34 3e d9 62 04 be cf 23 0a be
       -1.0684226e-05 0.17664522 -0.12928332 -0.13490222
0001f0 f9 16 17 3e 9b e5 32 3d 65 00 13 be bf 2d e2 bc
       0.14754857 0.043676 -0.14355619 -0.027609704
000200 55 a7 7e 3d e6 26 a3 bc 32 3a c7 3c dc 11 a1 3d
       0.0621713 -0.01991601 0.024319742 0.078647345
000210 8e 83 25 be 08 43 7a 3d 34 e2 20 be ba a9 ad bd
       -0.16163465 0.061099082 -0.1571129 -0.084796384
000220 5b d4 26 3e ac 6e 7f bc 16 73 41 3d 24 64 c2 bc
       0.16291945 -0.015590351 0.047228895 -0.023729391
000230 0c 0b 98 bc b9 54 6f bd 01 22 19 3e 5c 85 0a bd
       -0.018559955 -0.058430407 0.14954378 -0.033818588
000240 4b c5 1e bc 8f 4a 93 bc 0e 16 1a 3e d7 f1 09 bd
       -0.009690593 -0.017979888 0.15047476 -0.033677902
000250 5c 84 31 3e e8 98 5c bc 80 65 13 be b8 9d e9 bc
       0.17335647 -0.01346419 -0.14394188 -0.028517589
000260 35 72 1c be 9f 30 a9 3d b0 23 8f 3c b3 25 17 3e
       -0.15277942 0.08261227 0.017473072 0.14760475
000270 00 7b b8 3d b9 b1 cb bd 79 a6 f5 bd 8b a1 07 be
       0.090078354 -0.09946007 -0.11994643 -0.13245218
000280 07 f2 e1 3d e8 21 2e bd 1a ac 30 be 00 25 8a bd
       0.11032491 -0.042512804 -0.17253152 -0.067453384
000290 ff 99 d3 bd c2 69 7a bd 47 16 17 bd 79 dc f9 bd
       -0.10332107 -0.061136015 -0.03688648 -0.12200255
0002a0 f4 cc a9 3c 02 28 fa bb 78 3a 46 be 55 de 26 3d
       0.020727612 -0.007634164 -0.19358242 0.040739376
0002b0 46 3b 1c be b5 a0 2a be 0d dd 8e bb 97 4e de bd
       -0.15256986 -0.16662867 -0.0043598474 -0.108548336
0002c0 7f 02 6c 3c 5e e5 b9 3d 91 0f 04 be 53 fc 02 be
       0.014404892 0.090769514 -0.12896563 -0.12791567
0002d0 d6 5b 80 bd 0e 8a 35 bd 83 ef 02 bd 88 37 a2 3d
       -0.06267516 -0.044321112 -0.031966697 0.07920748
0002e0 62 9c ed 3d 92 21 a5 3d 40 9c 3d bd b8 dd ec bc
       0.11602093 0.08063044 -0.04629159 -0.028914317
0002f0 58 b3 d6 bd b9 93 f6 bd 07 0f d4 3d 3c ad 20 be
       -0.10483426 -0.120398946 0.10354429 -0.15691084
000300 14 58 2d be e4 f6 31 bc 6c 15 ee 3d b4 70 d7 bd
       -0.1692813 -0.010862086 0.1162518 -0.10519543
000310 88 9f 23 be 26 d0 da bd 00 c7 36 bd 19 ed 2d bc
       -0.15978825 -0.106842324 -0.044623375 -0.0106156105
000320 05 e6 9c 3d 1d 2f 2f be 66 1a 6d 3d ee 86 f5 bd
       0.0766106 -0.17107816 0.057886504 -0.119886264
000330 62 44 17 be 77 9a 40 bd 5f 63 4e 3d b7 24 e1 bd
       -0.1477218 -0.04702231 0.050387736 -0.10993331
000340 5c 2a a6 3d 32 27 b8 bd d1 d2 11 3c 40 e9 6d 3d
       0.08113548 -0.08991851 0.00890036 0.058083773
000350 02 e0 ee bc 8c 5e a5 3d 3c d7 48 bc 30 01 75 3d
       -0.02915955 0.08074674 -0.012258347 0.059815586
000360 35 41 df bd b4 98 91 3c 52 54 1b 3e 23 10 27 bd
       -0.10901109 0.01777301 0.15168884 -0.040786874
000370 2a 6e 1c be 33 c8 c4 bd e2 2b 1b be 5c b3 db 3c
       -0.15276399 -0.096084975 -0.15153459 0.026818924
000380 46 be a8 bd e3 eb 1d 3d 7e 5f 0d 3b ef b1 e9 bc
       -0.08239417 0.038555037 0.002157181 -0.028527228
000390 49 f0 ee bc 2d 30 9d bd a3 6a 20 be 9d a8 d4 bc
       -0.029167311 -0.076752044 -0.15665679 -0.025959307
0003a0 e3 7e 43 be 5c 05 11 3e 57 0b 18 3d 5a d7 ac 3d
       -0.19091372 0.141622 0.03712019 0.084395126
0003b0 88 7a 0c 3d e7 6f ba 3d f6 2b 93 3d 63 8f 32 be
       0.034296542 0.09103375 0.07186119 -0.1743751
0003c0 a0 26 f9 bd 5e fb 8a bd dc 91 cf bd c3 02 a8 bd
       -0.1216557 -0.06786226 -0.10135242 -0.08203652
0003d0 be 78 09 be 2d df ba 3d 5e fe 02 3e 79 9e bd 3d
       -0.13424966 0.09124599 0.12792346 0.09258742
0003e0 bd 4e 36 bd 69 a1 2a be 63 35 fc bd 91 10 ee bd
       -0.044508684 -0.16663136 -0.1231487 -0.116242535
0003f0 41 9e c7 bb 02 aa 0c be 3c 86 cd 3d 7a 60 35 3d
       -0.0060918634 -0.13736728 0.10035369 0.04428146

bias f4 [64]
000000 2d 05 e0 bd fd 1c 04 bb e9 1e d1 bd 61 66 9d bd
       -0.10938487 -0.002015888 -0.10210974 -0.07685543
000010 c3 2a ae 3d b7 e3 d7 bd 36 d2 24 bd 90 d1 57 be
       0.0850425 -0.1054148 -0.040239535 -0.21076035
000020 e6 de 77 3c 23 f5 4a bc 55 0a eb ba 5d 11 83 be
       0.015128827 -0.012387547 -0.0017932156 -0.25599185
000030 31 c4 f2 bc 9d 10 3a be 78 8b 99 bd f6 60 ee bd
       -0.029634567 -0.181704 -0.07497305 -0.116395876
000040 dd af 81 3e 76 5e e0 3d a8 19 46 be 08 a0 41 3d
       0.25329486 0.10955517 -0.19345725 0.04727176
000050 fa a0 24 be 1a 47 87 bd b1 0f c1 bd 44 d9 a4 bd
       -0.16077033 -0.066053584 -0.09426821 -0.08049253
000060 ea 48 06 be 58 92 fa bd bf f3 3c 3d 04 f6 2e 3d
       -0.13113752 -0.12234944 0.046130892 0.042715088
000070 a8 0a 35 3e 83 e3 34 3e bf ae df 3d 16 48 18 bc
       0.17679846 0.17664914 0.10922002 -0.00929453
000080 9c 8d 48 bc 4b b4 67 bd bf 2b 1b 3d 34 ce 1b be
       -0.012240794 -0.056568425 0.037883516 -0.15215379
000090 9a 1a f2 3d e8 aa 34 be e8 2d ae bd 3e b1 2a 3d
       0.1182148 -0.1764332 -0.0850485 0.041672938
0000a0 bd da 19 be 69 fe 56 be 42 ba 6e 3d 02 86 48 bc
       -0.15024848 -0.20995487 0.058283098 -0.012238981
0000b0 5d 95 7a be 7d 91 98 3b 01 ac 51 be c0 d9 81 bd
       -0.2447104 0.0046560154 -0.2047577 -0.06340361
0000c0 be 68 df 3d 70 93 f6 bd c4 b9 4e bd 55 26 f0 3d
       0.1090865 -0.1203984 -0.05047013 0.11726061
0000d0 da 0f 9a bc 52 4c b9 3d 31 bc 93 bc e0 03 cb bd
       -0.018806387 0.0904776 -0.018034073 -0.099128485
0000e0 4b 47 86 bd df 6f ac bc 52 e5 9d 3d ff ab 86 bd
       -0.06556567 -0.021049438 0.07709755 -0.065757744
0000f0 9c 14 a6 bd dd e2 4e be 54 e9 cc 3c a4 2b 0a 3e
       -0.081094 -0.20203729 0.025013603 0.1349321

weight f4 [64, 64]
000000 98 78 0a 3e f9 f5 1e bc 37 f3 62 3d 08 e5 a4 3d
       0.13522565 -0.009702199 0.05540773 0.08051497
000010 e0 67 f5 bc 68 13 c6 bd e8 48 8d bd 4e 2f 04 3b
       -0.029956758 -0.0967167 -0.068986714 0.0020169797
000020 22 94 16 3e 03 a8 10 3d 65 08 37 be 7b 66 01 3e
       0.14704946 0.03531648 -0.17874296 0.1263675
000030 6c a5 a7 3d 69 b1 6f 3d 20 7c ec 3d 70 9f 11 3d
       0.081858486 0.0585188 0.115471125 0.035552442
000040 7c f6 00 3c b8 48 eb 3d 75 75 92 bb 00 2d 50 ba
       0.007871266 0.114884794 -0.0044695684 -0.0007941276
000050 21 81 78 bd 8d 0a 32 3c f4 99 9c bd 0f c2 c8 3c
       -0.060670022 0.010866773 -0.07646552 0.024506597
000060 03 03 37 3d cf ae 72 be 0c 63 37 bd 04 c2 06 be
       0.044680607 -0.23699497 -0.044772193 -0.13159949
000070 90 3d 6f be ce 23 ab 3d fe fb 12 3d 3d e2 ed bc
       -0.23363328 0.083564386 0.03588485 -0.029038543
000080 64 42 4d 3d 1c 7d fd 3d 55 2f 91 be 28 9f 37 bd
       0.050112143 0.12377378 -0.28356424 -0.044829518
000090 d3 fa 0b be 3a 0f 50 bd dd d7 12 3e 5b b5 5f bd
       -0.136699 -0.05079577 0.14340158 -0.054616313
0000a0 5a 25 bc bd 1e ec e8 3d 2d ed e8 3d 70 72 b4 bd
       -0.09186812 0.11373161 0.11373363 -0.0881089
0000b0 e7 d0 8e bd 2f 8c b8 bc 1e 0f 4c bd 96 5d 45 be
       -0.06973439 -0.022527782 -0.049819104 -0.19273981
0000c0 8c dc 73 3d 55 4e 12 3d e0 18 36 be cd c9 05 be
       0.0595365 0.035719234 -0.17782927 -0.13065262
0000d0 c3 46 f6 bd f7 a6 50 3e 0e 7b a8 3d 4c 42 cf 3d
       -0.120252155 0.20376192 0.08226596 0.10120067
0000e0 47 81 0d bd 1c 4d 24 3d 05 65 e6 bc 4e 40 86 bd
       -0.034547117 0.0401126 -0.028124342 -0.06555234
0000f0 56 fc 9a 39 ec 30 82 3d 7b 94 12 3d 74 76 cc bd
       0.00029561174 0.06356987 0.035786133 -0.09983531
000100 06 a2 89 bc 11 99 01 be 48 ff 9e bd 52 3e f8 3d
       -0.016800892 -0.12656046 -0.07763535 0.12121262
000110 46 00 c1 3d 7e 1f 40 be 90 bf b7 bc e7 33 9f bd
       0.0942388 -0.18762013 -0.022430211 -0.077735715
000120 9d 6d 74 bc 18 d4 04 3d ed bb 08 be 15 89 0b bd
       -0.014918712 0.03242883 -0.13352938 -0.03406628
000130 16 9d 41 bc d7 21 2f be 24 e5 16 3d 80 a9 f8 ba
       -0.011817237 -0.17102753 0.03683962 -0.0018971413
000140 69 4b 28 be e0 4a d2 3c 3b 18 20 be 28 88 dd bc
       -0.16435017 0.025670469 -0.15634243 -0.027042463
000150 34 d3 1e bd 2c a6 f7 bd c0 a5 e4 bc 25 f3 f6 bd
       -0.038775638 -0.12092242 -0.027911067 -0.12058095
000160 ca 16 ed bd c8 17 54 bd f8 89 ad bc 72 67 91 3c
       -0.11576612 -0.051780492 -0.021183953 0.017749522
000170 48 a8 93 bc 02 6e d8 bd 62 50 eb bb 3e e4 08 bc
       -0.018024579 -0.10567857 -0.0071812132 -0.008355198
000180 0c 69 c0 3d c0 3a ed 3b 01 e5 9d bd 4b ed 17 3b
       0.09395036 0.0072396696 -0.07709695 0.002318221
000190 77 7c 08 bc fc 60 30 be 5d 85 49 3c 09 74 05 bd
       -0.008330456 -0.17224497 0.012299863 -0.032581363
0001a0 82 5d 96 3d 3e ce f1 3d 8e 44 cf ba f8 b9 53 3d
       0.07342054 0.11806916 -0.0015813278 0.051691025
0001b0 eb 91 48 be db b8 42 be bb ba 50 3d 1c b3 b2 bd
       -0.19586913 -0.1901583 0.05095933 -0.08725569
0001c0 79 cf e3 bd f4 4b c5 bd 3d 84 dc 3c 4d c3 64 bd
       -0.11123557 -0.096336275 0.026918525 -0.055850316
0001d0 51 70 f4 bd ad f1 1d be 61 44 07 be 86 8f 7a bd
       -0.11935485 -0.15424223 -0.13209678 -0.06117203
0001e0 6a 01 d5 bd e0 2e f0 bd bb 64 c4 3c 8c 76 f8 bd
       -0.1040066 -0.11727691 0.023973813 -0.12131986
0001f0 60 f1 8a bb 74 d5 68 bd 14 a6 04 3c 96 e6 e1 bd
       -0.0042402 -0.05684419 0.008096237 -0.11030309
000200 ef 6a e0 3d 78 d9 33 bc fa 66 79 3d e0 80 86 bd
       0.10957896 -0.010977142 0.06088922 -0.0656755
000210 74 44 9d 3d ed ab eb bd f8 15 d7 bd f9 f2 d2 3d
       0.07679072 -0.115074016 -0.10502237 0.103002496
000220 a5 54 0b bb 10 e8 db bd 01 77 bd 3d 4c 59 c1 3d
       -0.002126017 -0.10737622 0.09251214 0.0944086
000230 fb 18 0f 3c 80 f9 39 3e 40 b7 e3 bd 2a 71 ab bd
       0.008733983 0.18161583 -0.111189365 -0.08371194
000240 cb 5d 81 3e 40 f1 16 bb 3b a1 b2 3d 60 0e 9f bc
       0.2526687 -0.002303198 0.087221585 -0.019416034
000250 16 1a 6c 3d 3c 75 ac bc c0 0d ea bc 32 24 72 3d
       0.057642065 -0.021051995 -0.02857101 0.05911655
000260 a9 e6 7e 3b 7e f3 1c be ec b3 09 3e 93 8d fa 3c
       0.0038894808 -0.1532726 0.13447541 0.030585086
000270 bb f5 f6 be 40 9d 6f 3d b3 cb e3 3d 74 f4 c8 3d
       -0.48234352 0.058499575 0.11122837 0.09812251
000280 c0 7d 61 3d 10 b1 0c 3c 50 27 8b be 7e 2b 2a 3d
       0.055051565 0.008587137 -0.2717843 0.041545384
000290 4c 1c 15 be 7a f9 82 be b0 e2 fa bc 85 20 fe 3e
       -0.14561576 -0.2558096 -0.030625671 0.49634185
0002a0 74 4f 4f bd ec 7e 26 bd f3 71 0b 3e c0 ca 53 bb
       -0.05061288 -0.040648386 0.13617687 -0.0032316893
0002b0 c4 66 93 bd c1 2e 86 be 82 8b d9 3d 80 ac 62 3c
       -0.07197335 -0.26207545 0.10622312 0.0138350725
0002c0 e2 2c 36 3e 61 63 ce ba c5 b1 2f 3d 02 38 78 3e
       0.17790559 -0.001574617 0.042894144 0.24240115
0002d0 a1 60 ef bc a3 d9 13 3e f1 07 aa bb d4 ac 21 be
       -0.029220881 0.1443849 -0.005188935 -0.15788585
0002e0 01 3c ae bc de af 5d 3d d3 86 b6 3d 20 8c cf bb
       -0.021268846 0.0541228 0.089124344 -0.006333843
0002f0 aa 68 08 3d 80 56 9e 3d d5 2e c1 3c c8 ed 99 3c
       0.03330294 0.07731342 0.023581902 0.01879014
000300 88 93 c8 3d ee 02 cd bd a2 d3 41 3d b8 28 88 3d
       0.09793764 -0.100103244 0.04732097 0.066483915
000310 60 df 5b bc 27 fd 26 be 28 78 dc bc ba 82 bd 3d
       -0.013419956 -0.16307507 -0.026912764 0.0925345
000320 8d 6c a1 bd 09 9c 61 bd 3d 44 95 bd ea ea 29 bd
       -0.078820325 -0.055080447 -0.07288406 -0.041483797
000330 d9 5f ff 3c 89 ce b8 bb 64 a8 be bd 72 fd 92 bd
       0.031173633 -0.0056398553 -0.09309462 -0.07177247
000340 9c 3f 2f bd da 55 9a 3d f9 7a 90 bd 84 bf aa 3d
       -0.042785272 0.07535906 -0.07054705 0.0833731
000350 70 f5 b0 bd 58 cd d0 3d 22 14 da bd 4d 23 56 3b
       -0.086405635 0.10195416 -0.10648371 0.003267485
000360 ce 5f ae bd 4c 39 a7 bd a0 6f 97 3b 0d 1c cc bd
       -0.08514367 -0.081652254 0.004621461 -0.09966288
000370 a8 a8 19 be 00 66 0b ba 58 94 ca 3d be 24 0e bc
       -0.15005744 -0.00053176284 0.098915756 -0.008675752
000380 94 8c 72 bd 58 2a 9b bc 32 67 60 3d f5 78 b1 bd
       -0.059216097 -0.01894109 0.054785915 -0.08665649
000390 f8 11 fa bd f3 4b 85 3c e7 7f cb 3d 40 cf f0 3b
       -0.122104585 0.016271567 0.09936505 0.007348925
0003a0 98 97 f7 bc 60 46 df bc ce 70 37 bd 74 5e c0 bd
       -0.030223653 -0.027255237 -0.044785313 -0.093930155
0003b0 0e c5 c8 ba e5 c5 2f 3d f4 3d 04 3d 69 4c ab bd
       -0.0015317516 0.042913336 0.032285646 -0.083641835
0003c0 14 92 5b bd fd ff 12 be e7 d6 3c bd 50 10 9c bd
       -0.053606108 -0.14355464 -0.046103384 -0.07620299
0003d0 85 b0 35 be 68 ea 51 3d ee ad 98 3d 7c 07 37 bb
       -0.17743118 0.051248938 0.074550495 -0.0027928045
0003e0 d6 54 91 3b e6 74 5c bd f0 0e 47 bd 68 c4 fd bc
       0.004435162 -0.05382242 -0.04859823 -0.030977443
0003f0 34 5e f6 3d 00 44 63 3d 37 5d 9c 3c 70 87 51 bc
       0.120296866 0.05548477 0.019087417 -0.0127886385

bias f4 [64]
000000 5d db 01 be bb c2 0f 3d 0b ab 27 bc 9e 0f 0f be
       -0.12681337 0.03509782 -0.010233651 -0.13970801
000010 d6 95 13 be 00 59 25 be 3e 0e 9c bc a9 4c e8 bb
       -0.14412627 -0.16147232 -0.01904976 -0.0070892167
000020 2d dd 3a 3d a7 4b 16 be bb ca 56 be 45 1e 8a bd
       0.045621086 -0.14677297 -0.20975773 -0.06744055
000030 d2 bc d0 3b c9 1b df bb af 00 a7 3d a0 7b 9c 3d
       0.0063701654 -0.006808732 0.08154427 0.07640767
000040 18 88 18 3d cc c8 2c bd fa 6a 4c 3d 91 9e 36 bc
       0.037239164 -0.042183682 0.04990671 -0.011146204
000050 42 30 b7 3d 6e 43 b5 3d 7e 0d 36 bd 71 68 57 bd
       0.08944751 0.08850752 -0.04444646 -0.052589837
000060 31 be df 3d 72 d1 db bc 0c 7e fa bd 6d a5 46 be
       0.10924948 -0.02683327 -0.12231073 -0.19399042
000070 b5 fe 39 bd 75 b9 8d 3d 0f 3e c2 bd 2a 72 e8 bd
       -0.045408923 0.06920139 -0.09484493 -0.113499
000080 0e 32 40 be da 94 b9 bd 17 2b 30 bd f8 a9 0f 3e
       -0.18769094 -0.09061594 -0.043009844 0.14029682
000090 78 32 a2 bd d3 84 57 3e d3 97 11 bc 70 d4 49 3c
       -0.079197824 0.21046762 -0.008886295 0.012318715
0000a0 bb 73 8c 3d 30 98 01 3e e1 4d 46 be ae 06 92 bd
       0.06858011 0.12655711 -0.19365646 -0.0713018
0000b0 3e eb eb bb 12 4b 7e be 19 28 50 3b 7d 78 02 be
       -0.007199674 -0.24833325 0.0031762181 -0.12741275
0000c0 7a 8d a1 3c 41 6e bf bd 09 46 0a be 7f fb 2a be
       0.019720782 -0.09347201 -0.13503279 -0.166975
0000d0 82 d3 2a be 94 75 51 3c 65 e9 b6 bd 00 78 34 b9
       -0.16682246 0.0127843805 -0.08931235 -0.00017210841
0000e0 5b 21 87 3d c8 90 32 3e 60 b1 a7 3d e0 63 28 3d
       0.06598159 0.17438042 0.081881285 0.041110873
0000f0 79 a6 3e bc 95 a4 05 be 25 a2 f5 bd 01 82 57 bd
       -0.01163637 -0.13051064 -0.11993817 -0.052614216

weight f4 [64, 64]
000000 fa 73 89 bd 7a 8f ce 3d 8d a1 e6 3d 96 26 83 bd
       -0.06711574 0.1008596 0.11261282 -0.06403844
000010 44 d1 8a 3d 16 0a 72 3c f4 05 f6 3c a9 a0 f7 bd
       0.067781955 0.0147729125 0.030032136 -0.1209119
000020 76 d0 d7 bd de 59 0e 3e 26 02 58 bb 2b 65 86 be
       -0.10537808 0.13901469 -0.0032960265 -0.2624906
000030 83 e1 c2 3d 37 91 d0 3d a9 8d 75 3e 02 58 eb bd
       0.09515669 0.101839475 0.2397982 -0.114913955
000040 e4 41 5f 3e 6f 2f 7f bd 6d a8 c8 3d 54 b3 5b bd
       0.21802479 -0.062301096 0.0979775 -0.053637818
000050 a9 cc 86 3e 76 55 a8 bc 71 30 4e bc ae f9 04 bd
       0.26328018 -0.020548563 -0.0125847915 -0.032464676
000060 ea 62 13 3d af 13 45 3e dc b5 79 bc 80 b9 8a be
       0.035983004 0.1924579 -0.015241113 -0.2709465
000070 2c 04 0e be 3d 6a 84 be a2 ab d6 3d 90 eb 23 bd
       -0.13868779 -0.25862303 0.10481955 -0.04001957
000080 27 39 6a bc 47 2e a1 bc e7 37 91 3c 2d 20 65 3e
       -0.014295853 -0.019675387 0.017726852 0.22375555
000090 30 21 2d 3c e0 6c 28 3e e4 85 ea 3c 3c b0 79 bd
       0.010566995 0.16447783 0.028628297 -0.060959086
0000a0 06 4c c1 3c 5b 03 78 3e 15 0c 31 3d 8c 87 d7 bd
       0.023595821 0.2422003 0.043224413 -0.105239004
0000b0 08 27 14 3e 7e ab 10 3e f3 4c 29 3e ee aa 18 3e
       0.14468014 0.14127919 0.1653326 0.14908955
0000c0 d9 41 33 3e 54 f3 fe 3d 72 28 02 3e 81 c7 19 3e
       0.17505588 0.12448755 0.12710741 0.15017511
0000d0 c9 98 b2 be 92 53 1d 3e c5 a4 87 3d a0 f4 bb bb
       -0.3488219 0.15363911 0.06623224 -0.0057359487
0000e0 4b 4a 58 3e 3f b4 83 be b2 bd 06 3e 95 c2 ae bb
       0.2112209 -0.25723454 0.131583 -0.0053332546
0000f0 e6 8e 5e 3e 0e 31 1c 3c 2e 0f 39 be 9c 5f fd bb
       0.21734199 0.00953318 -0.18072197 -0.007732345
000100 4c 28 39 be 9e 61 cb bd 7c e0 1c be 4d 98 bb 3c
       -0.18081778 -0.099307284 -0.15320009 0.022899771
000110 24 b5 81 bd ea 53 99 3d 63 89 14 3e 6d 25 3f be
       -0.06333378 0.074867085 0.14505534 -0.1866662
000120 c4 b5 94 bc e5 69 99 3d ce bd f4 bc 40 f2 7d 3c
       -0.018153079 0.07490901 -0.029875662 0.015499651
000130 a4 a6 b5 3d 36 7a 64 3d 72 d5 dc 3d 8a 09 fc bd
       0.08869675 0.055780612 0.10782899 -0.12306507
000140 1a 7e 27 3e 93 0b b2 bd 28 c9 1c be 6d 5c 0a be
       0.16356698 -0.08693614 -0.1531111 -0.1351182
000150 f4 3b 1b 3d 60 f0 d8 bd 00 32 a0 b9 aa e1 d3 3d
       0.037898973 -0.10592723 -0.0003055483 0.103457764
000160 48 f5 1a 3d c1 3c 83 bd 28 c2 e8 bd c7 c0 63 bd
       0.037831575 -0.06408072 -0.11365157 -0.05560377
000170 c9 7b 57 3d 13 12 a1 3d 8d b2 1d be b3 e1 20 bd
       0.052608285 0.078647755 -0.15400143 -0.039277744
000180 a0 ac 12 be 53 64 33 3c 0f 2a 0a bd 92 81 49 be
       -0.14323664 0.010949212 -0.033731516 -0.19678333
000190 44 18 88 3d 26 3b b1 bd ba c6 10 3e 9c e5 35 be
       0.06645253 -0.0865386 0.14138308 -0.1776337
0001a0 6b 09 c4 bd e0 8d 65 bd 14 b1 9c 3c b8 58 17 bd
       -0.09572109 -0.056043506 0.019127406 -0.036949843
0001b0 47 80 46 bd ac 2b 09 bd a3 10 dc bb f9 e6 fc 3a
       -0.04846218 -0.033488914 -0.0067158504 0.001929491
0001c0 6b c9 6e 3a ca 14 e3 3d 41 15 d5 3c 28 b7 db bd
       0.0009108993 0.110879496 0.026011111 -0.10728294
0001d0 89 4a 43 bd 64 47 7b 3b ff 49 11 3e 50 db 42 bd
       -0.047678504 0.0038342113 0.14188384 -0.047572434
0001e0 de 6a e5 bd fe 23 d6 bd 7b 37 74 bd 4a 5c 11 bd
       -0.11202024 -0.10456084 -0.059623223 -0.035488404
0001f0 6a 61 98 3b c0 90 ca bb c5 fc 41 3d b8 0c 42 bd
       0.0046502845 -0.0061818063 0.0473602 -0.04737541
000200 95 ce c0 3d a5 f0 3f 3d f7 c9 3a 3e 22 e5 19 3e
       0.094144024 0.046860356 0.18241106 0.15028813
000210 59 2e 83 3d 7a 0f 27 3d e8 a1 f3 3d 78 9c 25 be
       0.064053245 0.040786244 0.118961155 -0.1617297
000220 3c 57 9d bd 18 58 16 bd ae 7d 77 3d 00 b2 a0 be
       -0.07682654 -0.036705106 0.060422592 -0.31385803
000230 5b c8 5f 3e c1 c1 d6 bb fa da 34 3e 80 ba 3e bd
       0.21853773 -0.006553859 0.17661658 -0.04656458
000240 1c b7 0b bc e1 d7 88 3d 2e 9f b9 bd c0 b5 80 bc
       -0.008527543 0.06681801 -0.09063564 -0.015711665
000250 50 3d 34 3e 7c 0a 80 3d 28 4d dd bd de f7 eb bc
       0.17601514 0.06252 -0.10805732 -0.028804716
000260 e0 ce 52 3e 8d d9 b9 bb be 10 1c 3e f6 50 22 be
       0.20586729 -0.005671686 0.15240762 -0.15851197
000270 4b 96 44 be 89 e9 c9 bc 63 c1 32 3e 8e 3a 7b 39
       -0.19197957 -0.024647491 0.17456584 0.00023959039
000280 ee a6 09 3c 77 73 91 bd 71 23 95 3d d4 62 2d 3e
       0.008401616 -0.07102101 0.072821505 0.16932231
000290 38 0e 33 3d 2e c5 47 3e f4 18 e1 3d 3f 1e 1e bd
       0.043714732 0.19508812 0.109910876 -0.038603064
0002a0 14 f3 2a 3e 4b ab 63 3e db fe 25 bc 06 75 86 bd
       0.1669429 0.22233312 -0.010131563 -0.06565289
0002b0 7f 9c fa 3d cc 71 81 3e 5f 01 77 3d d7 06 45 3e
       0.122368805 0.25282133 0.060304042 0.1924089
0002c0 34 09 d2 3d 08 88 3c 3e 2e 49 38 3b 86 e4 72 3d
       0.102556616 0.18411267 0.002811979 0.05929997
0002d0 de 48 41 be f1 96 bb 3d 6c d9 28 bd dc 49 7a bd
       -0.18875453 0.09159649 -0.041222975 -0.061105594
0002e0 ac 68 55 3e 50 e4 8c be 16 e9 8b 3d 79 09 06 3e
       0.2084071 -0.2751794 0.06831567 0.13089551
0002f0 33 a4 b8 3c 30 c9 86 bd e4 4c 73 be 6a 69 02 3d
       0.022539234 -0.06581342 -0.237598 0.031838812
000300 55 ba cb bd be 13 96 bd 2f 84 2e be f7 33 e8 3d
       -0.099476494 -0.07327984 -0.17042612 0.113380365
000310 16 17 76 bc 33 ff 1e 3d c2 ec fc 3b 88 0c 7f 3d
       -0.015020153 0.038817596 0.0077186534 0.06226781
000320 e0 ea 22 3d 37 ca b5 bd fb 9d cc bc c3 cd 72 be
       0.039774776 -0.0887646 -0.024977675 -0.23711304
000330 c2 83 af bd 1c 30 bb bd 82 9e 34 be 20 8c 2b 3d
       -0.08570053 -0.091400355 -0.17638591 0.04188168
000340 e4 53 3f bd f2 c6 31 3e 46 79 1b bc bc 25 af bd
       -0.046710864 0.17361048 -0.009489363 -0.08552119
000350 5c 12 93 be a5 49 5e 3e 68 9d 21 3e 23 20 87 3d
       -0.28724945 0.2170778 0.15782702 0.065979265
000360 b7 cc 4d be ac ab 9a 3c 1a c9 cc bd a5 f7 8d be
       -0.20097624 0.018880688 -0.099992946 -0.27728
000370 1f 31 71 be 54 97 c6 3d 31 9f 2b bd 33 e5 88 3d
       -0.23553894 0.09696832 -0.041899864 0.06684341
000380 68 07 a9 3d 3d 9d 16 3e 4a 2e 4f 3d 26 46 f0 bd
       0.08253366 0.14708419 0.050581254 -0.1173213
000390 92 b0 dc bd d1 5e 00 3b ab 82 69 3d ef cc 95 bb
       -0.107758656 0.0019587765 0.05700938 -0.004571549
0003a0 85 b0 e7 bd ea 8d 61 be 70 81 f8 bd 56 f9 df bd
       -0.11312965 -0.22026792 -0.12134063 -0.10936229
0003b0 3e 26 ca bd ad 92 49 3c bb 46 76 3d 2f 57 05 3d
       -0.09870575 0.012303037 0.060126048 0.032553848
0003c0 99 4f ce bd 7c 09 63 bd 64 64 02 3c 87 5c 27 be
       -0.10073776 -0.055428967 0.007958505 -0.1634389
0003d0 ab c4 ab be b1 03 72 be 28 85 be bd a8 5f 88 bd
       -0.33548483 -0.2363422 -0.09302741 -0.0665887
0003e0 43 1e 6c be 74 2e 12 3e d0 46 3a be 2f c2 80 bd
       -0.23058419 0.14275533 -0.18191075 -0.062870376
0003f0 de 4e 56 be 1c 1d 72 bd 87 b0 9c 3c 95 b4 4b 3d
       -0.20928523 -0.059109792 0.019127144 0.049732763

bias f4 [64]
000000 a5 9c 25 3e e4 f5 bb bc a5 c5 68 3d 3f 5a 57 3e
       0.16173036 -0.022944398 0.056829114 0.2103052
000010 ea 37 9b bc dd fb 27 ba 77 69 08 bd d2 7b a0 bd
       -0.01894756 -0.0006408075 -0.033303704 -0.07836117
000020 ac 2a a3 be 50 f5 3f bc e1 fe ed bc 75 79 ba bd
       -0.31868494 -0.011716202 -0.0290522 -0.09105197
000030 2c 2f b6 bd a1 ee 6e bd 48 9b ff bd d2 4e 86 3e
       -0.08895716 -0.058333043 -0.124807894 0.2623201
000040 32 93 6a 3c 99 48 b5 bd da fa b6 3d 99 da f6 3d
       0.014317321 -0.088517375 0.08934565 0.12053413
000050 4d 20 b3 3d 9e e3 f8 3d 42 e0 57 3e a9 3f f7 bd
       0.08746395 0.121527895 0.21081641 -0.12072689
000060 48 48 e2 bc f3 4b c6 be d1 dd 01 3f 9c 11 7c bb
       -0.027622357 -0.3872982 0.5072909 -0.0038462644
000070 af d9 78 bd d1 bd 19 39 13 c3 ce bd c3 d8 72 3e
       -0.060754474 0.00014661929 -0.10095801 0.237155
000080 f3 78 70 3d 0f 34 92 bd 04 06 cd bd c6 23 86 bb
       0.058709096 -0.07138836 -0.10010913 -0.00409362
000090 db ec 5c 3b df 14 67 3d c2 90 1e 3e 66 86 30 be
       0.0033710513 0.05641639 0.15484908 -0.17238769
0000a0 e3 9f 0b be f0 9b 8d bd 18 5a ae 3d 9e 40 1a be
       -0.1363521 -0.06914508 0.08513278 -0.15063712
0000b0 4a 29 18 be d6 06 05 bd 5d 94 a0 bd 32 e9 e3 bd
       -0.148595 -0.032477222 -0.07840798 -0.11128463
0000c0 fb 81 3f 3e 18 b0 99 bc 1e 46 3b 3e e3 e1 9e bc
       0.18701927 -0.018760726 0.18288466 -0.01939482
0000d0 f5 a2 b8 bd 15 74 90 bc c5 bb f4 bd 86 9c 2d bd
       -0.090154566 -0.017633477 -0.11949877 -0.0423856
0000e0 4c cf b6 bd 54 26 03 be dc 6a 61 3e ef 50 bf bd
       -0.089262575 -0.1280759 0.2201342 -0.09341609
0000f0 ff 94 f8 bd c5 83 6d 3d 30 96 86 3e 7c d1 db bd
       -0.12137794 0.057986993 0.2628646 -0.10733315

weight f4 [64, 64]
000000 9e 97 3a 3d 3c 78 9f 3d 14 4d 74 3d af b3 d8 3d
       0.04555475 0.07786605 0.05964382 0.10581147
000010 bf a1 9b 3d e6 9d b6 3d e4 5b aa bd d9 f7 12 3e
       0.0759921 0.089168355 -0.08318308 0.14352359
000020 fb c2 93 3e 4f 10 1e 3e 7e b8 ae ba 28 a1 31 be
       0.28859696 0.15435909 -0.001333013 -0.17346632
000030 d3 b0 54 bd bd 0e 86 b9 e8 a6 f0 bc ef db 1c bf
       -0.051926445 -0.00025569453 -0.029376462 -0.6127309
000040 a5 38 92 3d e8 ae f9 bd 95 87 23 3e 6b 33 00 3e
       0.0713971 -0.12191564 0.15969689 0.12519614
000050 f9 12 0d 3e e9 fb 9b 3d a8 d7 3d 3e 62 8a 81 bd
       0.13776769 0.076164074 0.18539298 -0.063252226
000060 90 61 56 bd 3d 5f 64 bd ff e7 55 be 4f 91 db bc
       -0.052339137 -0.05575489 -0.2088928 -0.026802687
000070 76 8f ef bc 77 6a b9 3d 87 05 f1 bc 27 a9 81 bc
       -0.029243212 0.0905351 -0.029421581 -0.015827728
000080 bc 35 fe 3d 95 15 2d bd 74 11 dd 3d 28 12 52 3c
       0.12412593 -0.04225691 0.107943445 0.012821712
000090 59 d5 11 3d 13 6e 2f 3e 1b eb 5e 3e 01 f7 d8 3d
       0.035603855 0.17131834 0.21769373 0.10593987
0000a0 dd 47 34 3d 8b 31 ca 3d 63 fd 81 3c 40 81 5d 3b
       0.044013847 0.09872731 0.015867895 0.0033798963
0000b0 72 9f 18 3e b9 d9 20 3e 85 f2 04 be 99 cb fb bd
       0.14904574 0.15708055 -0.12983139 -0.122946925
0000c0 6f bc ab bd 61 f5 32 3e 96 99 d7 3d 81 9f 69 bb
       -0.0838555 0.17476417 0.10527341 -0.003564805
0000d0 3a a2 8b 3c ba 7c 82 bd 82 8e f4 3d c5 25 3b 3d
       0.01704513 -0.06371446 0.11941244 0.045690317
0000e0 16 e5 ed 3d 4b 45 4e be b9 f2 3c bd 43 11 d0 bc
       0.1161596 -0.2014362 -0.046129916 -0.025398856
0000f0 87 22 c5 bc b4 fc b0 3c 7a c6 dc bc 4d f2 35 bb
       -0.024064315 0.021604873 -0.02695011 -0.002776283
000100 51 37 aa bd 10 50 93 bd 48 b8 09 3d cb 3a be 3c
       -0.08311332 -0.07193005 0.03362301 0.023221394
000110 98 03 b9 3c f0 94 26 3c d2 8a c9 3d 52 dd a2 3d
       0.022584721 0.010167345 0.09840931 0.0795237
000120 d4 d9 ab bd 50 f0 3e 3d ca a8 9b bd f0 a2 0e bd
       -0.08391157 0.0466159 -0.07600553 -0.034823358
000130 ba 41 df 3d ba f6 c1 bd ac ca 5b 3d 10 af 5d 3b
       0.10901208 -0.094708875 0.05366008 0.003382627
000140 ec 49 e0 3d d8 ab cd bd 40 03 0c bd a0 8f 73 bc
       0.109515995 -0.10042542 -0.034182787 -0.014865786
000150 bc 47 f3 bd 18 36 a4 bd cc 48 36 3d 20 ba 95 3b
       -0.118789166 -0.0801813 0.04450302 0.004569307
000160 1a 3b f4 bd 50 54 8e 3d 46 15 f4 bd 8c 3a 71 bd
       -0.11925335 0.06949675 -0.1191812 -0.058893725
000170 52 f7 ee 3d d4 34 3f bd f8 21 3e bd 60 df b3 bd
       0.11668266 -0.04668124 -0.046419114 -0.0878284
000180 fc 4c 33 3d 48 45 07 3d a2 f8 a1 3d e0 fd 4e bd
       0.04377459 0.033025056 0.07908751 -0.050535083
000190 e0 79 9b bc ed 05 a8 3c e4 24 9c 3d 26 de c7 bd
       -0.018979013 0.020510638 0.07624224 -0.09759168
0001a0 2c 6f 5a bd 34 56 33 3d e4 e0 95 3d 8a 1b cc 3d
       -0.053328678 0.04378338 0.07318285 0.0996619
0001b0 d0 b7 13 3c 94 3f f3 bd 80 4d 09 bd 80 b1 f0 ba
       0.009015992 -0.11877361 -0.033521175 -0.0018363446
0001c0 80 b9 92 bd 86 c8 97 bd b0 c9 54 bd 34 9b 2b bd
       -0.071642876 -0.07411294 -0.051950157 -0.04189606
0001d0 1c 0b 85 bd f6 f3 dc bd 08 9f 32 3d 9c e0 17 bd
       -0.064962596 -0.10788719 0.043608695 -0.03707944
0001e0 aa ec c9 bd 2c e1 b3 3d e2 59 10 3d 57 2e e6 bd
       -0.09859593 0.087831825 0.03524197 -0.112393074
0001f0 ea 43 af bd a3 0e 19 be 62 a6 40 bd 0a f8 cd bd
       -0.085578755 -0.1494699 -0.047033675 -0.10057075
000200 15 40 29 3e d7 ba 27 3e 0d 5f 3f 3e 87 33 dd bd
       0.16528352 0.16379867 0.18688603 -0.10800844
000210 8c a2 6d 3d 67 57 a0 3d 2f 63 0e bb 81 40 ac 3d
       0.058016345 0.07829171 -0.0021726598 0.08410741
000220 99 b7 4b 3e af d9 fa 3c 7f aa 29 bb 91 91 46 3d
       0.19894256 0.030621378 -0.0025888977 0.048478667
000230 2e a7 94 bb f7 d6 3a 3d 80 cb 3b 3d ff 8f 88 3d
       -0.004536531 0.045615163 0.04584837 0.0666809
000240 5e 60 fe bc 73 05 63 3e 30 a3 91 bc 34 69 0e bc
       -0.03105181 0.22170047 -0.01777801 -0.008692075
000250 76 eb 98 3d 07 d0 b5 3d ce 0e 17 3e 74 0d 2f 3d
       0.074667856 0.08877569 0.14751741 0.04273744
000260 f8 61 05 3d 1e 74 db 3d ab 7a eb 3d 46 af c3 bd
       0.032564133 0.10715507 0.114980064 -0.09554915
000270 9f 06 b3 3d 8f a4 c7 bc c2 b9 e5 3d 7b ab 5e 3e
       0.08741497 -0.02437046 0.11217071 0.21745102
000280 18 70 14 3d 19 4a 03 be ba ad b2 3d a0 ac b4 3d
       0.036239713 -0.12821235 0.08724542 0.08821988
000290 6d 7c a8 3d 73 6b 33 3e e3 56 0a 3e ac 61 48 3d
       0.08226857 0.17521457 0.13509707 0.048921272
0002a0 2d 83 4e bd 8e 89 b5 bd 9c 4c f8 3a e2 49 87 3d
       -0.050418068 -0.08864127 0.001894373 0.06605889
0002b0 fd 05 37 3e ce 84 e7 3c 90 61 04 3d e3 97 06 3e
       0.17873378 0.028261568 0.032319605 0.13143878
0002c0 64 2d d2 3d 97 c3 30 39 53 04 16 bd bd 67 c2 3d
       0.10262564 0.00016857531 -0.036625218 0.09492443
0002d0 79 0f d7 3d 06 a2 1f 3d 00 c6 06 bd 43 0b 09 3d
       0.10500998 0.038972877 -0.03290367 0.033458006
0002e0 b2 30 80 bc 5f 40 bd 3d bc 3d 87 be 23 88 0b bd
       -0.01564822 0.092407934 -0.26414287 -0.034065377
0002f0 ba 7a 03 3e 91 84 28 bd e9 81 36 3c 58 a3 e7 3d
       0.12839785 -0.04114205 0.011139371 0.11310452
000300 e0 a3 01 be be cf e9 bd 4a 8f 9f 3d 0f 48 ed bd
       -0.1266017 -0.11416577 0.07791002 -0.1158601
000310 14 87 f8 bd a8 8a 27 3d b0 5a a8 bc b2 7a 30 bd
       -0.12135139 0.040903717 -0.020551056 -0.04308576
000320 40 12 fe bd d8 95 98 3d 32 6b cc bd fb 9d 54 bd
       -0.12405825 0.074504554 -0.099813834 -0.051908474
000330 1e 72 ff 3d d0 fc a9 3d c8 68 8d 3c cb 1e 6c bd
       0.12472938 0.08300173 0.017261878 -0.057646554
000340 80 42 1c 3d 5c 57 39 3b 93 5c a0 bd 9d 3a 07 be
       0.038149357 0.002828083 -0.07830157 -0.13205953
000350 9c 89 e1 3d 5f a8 04 be 50 9e 90 3c 80 87 f2 3d
       0.11012575 -0.12954853 0.017653614 0.11842251
000360 b8 1f fe bd 6c 3a 6f 3d 4e 12 69 3d e4 f5 13 bd
       -0.124083936 0.058405325 0.056902222 -0.03612317
000370 8d be c3 bd a0 e8 ff bd 04 0f 86 3d 6c 84 b6 bd
       -0.09557829 -0.124955416 0.06545833 -0.08911976
000380 60 7d 01 3d 5c ba bc bd 68 bc b5 bc 34 18 44 bd
       0.031613708 -0.09215233 -0.022184566 -0.047874644
000390 c0 ce aa bd 70 e6 72 bc 48 a9 ef 3d fe 2e d2 3d
       -0.08340216 -0.014825448 0.1170221 0.10262869
0003a0 c4 06 d9 3d dd 94 b5 bc b0 60 49 bc 24 8d c3 bd
       0.105969936 -0.02216571 -0.0122911185 -0.09548405
0003b0 f0 85 b3 3d f6 80 bb bd f8 b3 85 3c 67 df 44 be
       0.08765781 -0.09155457 0.016321167 -0.19225846
0003c0 ef 06 0f bd e0 5a 92 bc 20 ee 18 bd 70 a9 f9 3d
       -0.03491872 -0.017865598 -0.03733647 0.12190521
0003d0 ae 77 15 bd 88 7f ae bd 30 ee d1 3c 72 63 f9 bd
       -0.03649109 -0.085204184 0.025626272 -0.12177171
0003e0 c2 62 b6 bd 79 cd e0 bb 9e 0f 53 3d 48 df 4d bd
       -0.08905555 -0.0068604317 0.051528566 -0.050261766
0003f0 7a 8c 83 bd 94 cc 33 3d 05 85 5c bc 84 a5 f3 bd
       -0.06423278 0.043896273 -0.013459449 -0.11896804

bias f4 [64]
000000 41 f2 1a 3e 77 a1 25 be e9 0a d8 3b db c5 d6 bd
       0.15131475 -0.16174875 0.0065930975 -0.10486957
000010 8f df c2 bc 88 d6 42 3e d2 46 8f bd 78 86 0f 3e
       -0.023788242 0.1902715 -0.0699593 0.1401614
000020 b9 03 16 bc 7e 35 3e 3d 6a 35 52 be ed 42 88 bd
       -0.009156161 0.046437733 -0.20528188 -0.0665339
000030 5e 01 d0 bd 63 9f 27 3c 21 2a 8b 3e 94 7a 10 be
       -0.10156511 0.010230872 0.2718058 -0.1410926
000040 58 7e 38 be 8f da 4c 3e b8 58 06 be a4 e3 4f 3e
       -0.18016946 0.20005248 -0.13119781 0.20301682
000050 4a 05 0d bd fb 3d 18 bd f0 71 2a 3e d2 a1 32 be
       -0.034428872 -0.037168484 0.16645026 -0.17444542
000060 9f 95 7f bd 63 e0 39 bd 8e d1 b7 bd 54 e5 54 be
       -0.06239855 -0.045380007 -0.08975516 -0.20790607
000070 72 09 28 be 0d 86 e9 3d b1 33 c6 3d a0 94 16 be
       -0.16409853 0.11402521 0.09677828 -0.14705133
000080 ff 11 db 3c af cd 31 be f2 03 f8 bd 63 eb 3d be
       0.02674198 -0.17363618 -0.121101275 -0.18546824
000090 74 27 aa 3e 77 6e 37 3d 33 86 a6 bd c9 c0 ac 3c
       0.33233225 0.04478308 -0.08131065 0.02108802
0000a0 92 18 08 be a4 50 6a bd cc be f4 bd c4 ac 04 be
       -0.13290623 -0.05720581 -0.11950454 -0.1295653
0000b0 29 4c 23 be 27 17 8e bd 96 dc d8 bd 1c 28 a3 bd
       -0.15947022 -0.0693801 -0.105889484 -0.07966635
0000c0 02 fa 55 bc 47 b4 16 be 34 dd 78 3e 8e e1 c0 bd
       -0.013060095 -0.14717208 0.24303132 -0.09418021
0000d0 0e 20 bb 3c ba 68 17 3d ae fa 06 bd c3 ef f7 be
       0.022842433 0.03696511 -0.03295391 -0.4842511
0000e0 0b c3 7b 3d 44 61 86 bd fb 6d 22 be 9c 0b 3f bd
       0.061465304 -0.06561521 -0.15862267 -0.04664193
0000f0 4a 90 a1 bd 91 0a 45 3e 41 e0 ad bd 3d b0 e6 bc
       -0.07888849 0.19242312 -0.08490039 -0.028160209

weight f4 [32, 64]
000000 9d de a6 bd 3c e1 10 3d 84 47 ce 3d 3a 7f 6f 3d
       -0.08147929 0.03537105 0.10072234 0.058470942
000010 69 94 3b b9 0f 4a 87 bd b0 0d e4 3d b1 1e 65 3d
       -0.00017888997 -0.066059224 0.11135423 0.055937473
000020 7d 5b 90 bc 23 ee 86 3d e3 c0 8e 3c 28 55 74 bd
       -0.01762175 0.0658839 0.01742596 -0.059651524
000030 dd 1b f7 bd 19 45 c5 3d c8 df 87 bd 5d a1 6c 3d
       -0.120658614 0.0963232 -0.0663448 0.057771076
000040 17 5e 0c be 5c 0a b7 3d 52 65 77 bc 48 87 5c be
       -0.13707767 0.08937523 -0.01509984 -0.2153598
000050 10 b1 a1 bd 53 ec f4 bc 8f 1d 15 be ed 1b 81 bd
       -0.078951 -0.029897844 -0.14562057 -0.063041545
000060 69 ac 8b 3d c6 28 ee bb c1 04 f2 3d 58 08 8e 3d
       0.06819994 -0.007268044 0.11817313 0.06935185
000070 35 db 62 bd e8 96 d0 bd c1 4d 03 3e 68 f3 f6 3d
       -0.055384833 -0.10185033 0.1282263 0.12058145
000080 be 7f 91 3c 8b ff 66 bd 1c f0 86 3c 40 3b 2b 3e
       0.017761108 -0.05639605 0.016471915 0.16721821
000090 53 d4 ab 3e c9 7d df bc 69 b2 36 be 80 71 38 bd
       0.33560428 -0.027281659 -0.17841496 -0.045030117
0000a0 e4 d5 aa bd 5e 1a e2 3d a8 54 82 3d b4 bc 05 bd
       -0.08341578 0.110401854 0.06363803 -0.032650664
0000b0 c9 54 1b bb 19 b8 2f 3e b0 62 72 be 25 09 1e bd
       -0.002370166 0.17160071 -0.23670459 -0.03858294
0000c0 85 39 e1 3d a1 1d 85 3d 1c 56 ed 3e 18 10 1b bd
       0.10997299 0.06499792 0.4635476 -0.037857145
0000d0 11 c0 ac bb d8 eb 15 3d 26 5e 5e 3c e3 ae 40 3e
       -0.0052719195 0.03660187 0.013572251 0.18816714
0000e0 93 39 2c be 5d e0 b1 3b db 15 c4 3c 98 99 b6 bc
       -0.16818838 0.0054283575 0.023936203 -0.022290036
0000f0 c4 a1 74 3d 18 1a 54 3d 1b 0f 6e bd e7 24 f4 3b
       0.059724584 0.051782697 -0.058119874 0.007450688
000100 94 aa 3b 3e bc 17 19 3d 9e 63 23 bd 99 90 b1 bd
       0.18326789 0.03737615 -0.039889924 -0.08670158
000110 4f da 9e 3d 45 79 9c bc d5 90 c8 3c 86 f4 73 bc
       0.07756483 -0.019100795 0.024483124 -0.014889842
000120 31 63 63 bd 06 99 ab 3b e7 84 6f bd 07 bc 1e 3e
       -0.05551452 0.0052367477 -0.058476355 0.15501414
000130 37 4d c8 3c 6f 7e 89 bd 0e a7 1f be a9 ad 3c bd
       0.024450881 -0.067135684 -0.1559107 -0.046064053
000140 08 9d a1 3b f6 28 37 3e a0 c4 02 bd 3b 9a fe be
       0.0049320497 0.17886719 -0.031925797 -0.49727044
000150 3c 26 03 bb 20 81 49 3c 30 ba ef be 7d 7d 97 3d
       -0.0020011803 0.012298852 -0.46821737 0.07396982
000160 a3 4b 89 3c 31 38 26 3c e1 2e e2 3d 63 2b 57 3d
       0.0167597 0.010145233 0.11044098 0.05253161
000170 80 fd 8d ba e6 6f 32 3e b5 86 77 3e 16 70 c3 bd
       -0.0010832995 0.17425498 0.2417248 -0.09542863
000180 92 b7 9e 3d d6 47 e2 bd cc 28 d3 3d a4 78 00 be
       0.07749857 -0.11048858 0.10310516 -0.12546021
000190 25 3b 53 3e 42 6a 7c 3c c0 15 49 bd a5 b0 20 bd
       0.2062803 0.015406193 -0.049093008 -0.03923096
0001a0 e6 01 bf 3c 80 6e b0 3c b6 77 e2 bc 13 c4 82 bb
       0.023316335 0.021537066 -0.027644973 -0.003990659
0001b0 38 3c f1 3d 93 1d b9 3d de 2d 52 bd d1 bc cd 3d
       0.11779064 0.09038844 -0.051313274 0.100457795
0001c0 fe b8 cb 3d 8b 01 9d bd 3b e3 d3 3e 01 9f bd bc
       0.09947394 -0.0766631 0.413843 -0.023147108
0001d0 0b d6 c8 3d 2f b8 f3 3d 7b a1 28 be fb af b3 be
       0.098064505 0.119003646 -0.1646785 -0.350952
0001e0 47 08 a7 be 39 da 92 3d 6b b5 61 3d 39 9d cf 3d
       -0.32623503 0.07170529 0.055104654 0.1013741
0001f0 e4 8b da bd ce 34 14 be 18 f7 88 3d 73 3f f4 3c
       -0.10671213 -0.14473268 0.066877544 0.029815411
000200 cb de 25 be 18 c1 bb bc 2d 9f 31 be 98 eb b2 bc
       -0.1619827 -0.022919223 -0.17345877 -0.021840855
000210 54 bb 23 3d 9d ac c1 3b 03 03 80 3b 82 fb 34 3d
       0.039973572 0.0059104697 0.003906609 0.04418517
000220 4d 52 2b 3d 90 f5 0b bd 66 14 b9 3d 24 8a 27 3d
       0.041826535 -0.034169734 0.09037094 0.040903226
000230 50 7e 56 bd 62 f5 11 3d 37 22 0a be a0 67 3e 3d
       -0.052366555 0.035634406 -0.13489614 0.046485543
000240 e8 b4 1c 3d 7d e1 4e 3c 80 f9 9d 3d 6e 6b c5 3d
       0.038258463 0.012627003 0.07713604 0.09639631
000250 82 c6 f8 bd b4 1a 3f 3d 20 f6 79 3d bc 61 5a bd
       -0.12147237 0.046656325 0.06102574 -0.053315863
000260 11 19 1e be 8c 84 36 be 83 4d f4 bc 6a 69 e9 3d
       -0.1543925 -0.17824 -0.029822117 0.11397059
000270 94 e0 e3 bd 03 3d 55 bc a1 01 21 be 3c 7f 03 bd
       -0.11126819 -0.013015035 -0.15723278 -0.032103762
000280 c8 03 4c 3d f4 c2 37 bd 4e a7 db bd 54 cf 90 3d
       0.049808294 -0.044863656 -0.1072527 0.07070795
000290 da 4a a0 bd 48 ce ff bd dc 78 a9 3d 39 50 e3 bd
       -0.07826777 -0.12490517 0.08275005 -0.11099286
0002a0 d0 ab 5a bd 9c 0f d3 bd 10 36 30 be f0 5a d0 bd
       -0.05338651 -0.103057116 -0.17208123 -0.10173595
0002b0 10 5d 3f 3c b8 9b d9 3d 30 db fe bc 7d cc ac bb
       0.011679903 0.10625404 -0.031110376 -0.0052734003
0002c0 7a 14 3c be 90 06 e2 3c 5f 2a b8 bd 30 3c ab bc
       -0.18367186 0.02759102 -0.08992457 -0.020902723
0002d0 8c 4c 58 3d cc ef e6 bd 8a d3 0d be 28 50 43 3d
       0.052807376 -0.112762064 -0.13850227 0.047683865
0002e0 28 dd 77 bd d0 f5 5e bc d6 3a d1 3d d0 17 10 bd
       -0.060513645 -0.013608411 0.102163 -0.03517896
0002f0 90 f4 1b 3c 31 15 21 be ee 1c d0 3d 46 b1 02 be
       0.009518757 -0.1573074 0.10161768 -0.12762937
000300 c0 67 46 bd ae 30 bc bd 29 d4 21 be 80 26 65 3c
       -0.048438787 -0.091889724 -0.15803589 0.01398623
000310 e4 7f 4e 3d a0 a9 d5 bc dc 24 a7 3d d5 96 05 3d
       0.050414935 -0.02608186 0.08161327 0.032614548
000320 7c 14 4e bd a0 48 91 bd 24 5a 0e bd 40 68 b7 3d
       -0.050312504 -0.0709393 -0.034753934 0.08955431
000330 70 34 a4 3c e5 b4 45 be cc 2f c9 bd a0 9a 57 bc
       0.020044535 -0.19307287 -0.0982357 -0.013159424
000340 dc 37 c2 bd 80 9d 59 bd fc 23 45 3c 32 04 b0 bd
       -0.094833106 -0.05312872 0.012032505 -0.0859455
000350 c1 7c d5 bc 8c 83 96 bd 1c 8a 5a 3d ac f0 94 3d
       -0.026060464 -0.07349309 0.053354368 0.07272467
000360 bc 51 0b 3d e4 3c 30 3d 14 42 83 bd 9e ac 9d bd
       0.034013495 0.04302682 -0.06409088 -0.0769894
000370 a0 b8 91 bb 0b b6 50 bd d0 b0 c6 3d f8 db 58 bd
       -0.004447058 -0.05095486 0.09701693 -0.052944154
000380 b4 16 53 bd 4c ea ea 3d 00 18 35 3c 4f 72 3c bd
       -0.051535323 0.1147047 0.011053085 -0.04600745
000390 60 eb 8f bc 44 5e 9b bd 4c e8 e0 bd ec 27 4a 3c
       -0.01756829 -0.07586339 -0.10981807 0.01233862
0003a0 08 e8 eb 3c 20 d2 74 3d 20 d8 a1 3b ac 6d 06 bd
       0.028797165 0.059770703 0.004939094 -0.032819435
0003b0 80 0e eb bb ba c1 fd bb 48 d0 8d 3c 78 42 cb 3d
       -0.0071733594 -0.0077440413 0.01731123 0.09924787
0003c0 b7 70 29 bc 00 15 5e bc d0 a7 9d bd c4 67 4d bd
       -0.010341815 -0.0135548115 -0.07698023 -0.050147787
0003d0 f0 28 28 bd d0 a6 d3 bd 2f d8 41 bc d2 ba 14 be
       -0.041054666 -0.10334551 -0.011831327 -0.14524391
0003e0 25 e0 00 3d 74 ce 25 3d 00 92 06 bd 06 48 a4 3d
       0.03146376 0.040480092 -0.03285408 0.0802155
0003f0 a6 ba 92 bd 38 7b a0 3c 14 83 3e be e8 12 ed bd
       -0.071645066 0.019590005 -0.1860469 -0.11575872

bias f4 [32]
000000 02 c8 90 3d 85 fd b5 3e ec 81 07 bd 50 fb 47 be
       0.070693985 0.35544983 -0.033082888 -0.19529462
000010 56 06 d0 3e 51 db 50 be d8 f3 2e 3e e9 ac e2 bc
       0.40629834 -0.20396163 0.17085207 -0.02767034
000020 9f d8 36 3e d9 7c 91 3b c6 d7 a3 bd 88 78 51 bd
       0.17856072 0.004439932 -0.0800014 -0.05114034
000030 bb 4b a0 bd 7a 40 8a 3e ea 3c a2 bd 1e 62 e5 3d
       -0.078269444 0.27002317 -0.07921775 0.11200355
000040 5d 27 5b bd 0d f0 f0 3c 1b 60 fa 3d 0f cc ed bc
       -0.053504337 0.02941134 0.12225362 -0.029027967
000050 ee 46 4a 3b 35 bd 9e be 19 da 84 bd a4 27 69 3c
       0.0030865031 -0.31003729 -0.06486911 0.0142306425
000060 72 1e f9 3c 8c 07 a1 3c 3a f5 c4 bd f9 91 5c 3d
       0.030410025 0.019656919 -0.09617086 0.053850148
000070 8f 86 a4 be 9a 73 63 bc 39 da e7 3d 94 93 23 be
       -0.3213391 -0.013882542 0.113209195 -0.15974265

weight f4 [1, 32]
000000 1c 01 8d 3d 0b 87 80 3e a2 68 2b bc 1e ef 01 3d
       0.06884977 0.2510303 -0.010461958 0.03172218
000010 35 aa bd be 88 24 35 bd f3 6b 4a 3e f8 ae 0a 3c
       -0.3704392 -0.044224292 0.19767742 0.008464567
000020 da f9 6f be a1 3f a3 bc 87 2b 00 be d1 c4 e8 bd
       -0.23435155 -0.019927802 -0.12516604 -0.11365665
000030 40 1c 84 3c 50 03 91 be 7f 2d 7d bc 38 86 31 3e
       0.016126752 -0.2832284 -0.015452742 0.17336357
000040 7b fe 4d bc ec 86 de 3d a2 9e 5f 3d 43 39 2d 3e
       -0.01257288 0.10865578 0.054594643 0.16916375
000050 dd a3 5b bc 45 46 ec bc d7 fa 6c bd bb 72 80 bd
       -0.013405767 -0.0288421 -0.057856407 -0.06271883
000060 e1 3f 88 3d 5b 00 73 ba 2c 19 7b 3d 85 75 e1 3c
       0.06652809 -0.00092697673 0.061303303 0.027521858
000070 ba 2b 2d be 7f b3 cf 3b 86 14 29 3e 0f 9b 84 3d
       -0.16911212 0.0063385363 0.16511735 0.064748876
