UQ_assessment_1D/models/MCD/i1_nn64_nl4_o1_tr1_ep400_b50000_dr0.01_s36/model.pth (torch, 80584 bytes, 13 tensors)

weight f4 [32, 1]
000000 33 c3 1a 3e fe ca 24 bf 32 99 62 bf 5e 42 65 be
       0.15113525 -0.6437224 -0.8851501 -0.22388598
000010 bb 4a 7c 3f 43 c1 a2 bf e6 a4 96 3f d1 51 9d 3f
       0.9855153 -1.2715229 1.1769073 1.2290593
000020 96 b8 62 3f 6c 7b 94 be 3b 7e 88 3f 0c 6f 4d 3f
       0.88562906 -0.29000413 1.0663522 0.8024757
000030 8e 64 4a 3f 4a 50 6e bf 67 0b 33 bf e9 ec 5b bf
       0.79059684 -0.9309126 -0.69939274 -0.8590837
000040 ae db 86 bf 9d 3d 65 bf ec 1b ea be 95 da 39 bf
       -1.0535791 -0.8954714 -0.45724428 -0.72599155
000050 c0 bf 8c bc 73 a0 76 bf 00 4b 33 3c 73 cd 54 bf
       -0.017181277 -0.96338576 0.010943174 -0.8312599
000060 30 f0 88 3f 00 a9 d9 3c f1 85 f1 be 23 dd 3c 3f
       1.06983 0.026569843 -0.47172502 0.7377493
000070 68 f8 4b be c9 49 8c bf c8 73 58 3e 80 95 68 be
       -0.19918978 -1.0960017 0.21137917 -0.2271328

bias f4 [32]
000000 00 b5 9a 3e 2b d2 0f 3f 4e 8e 69 bf 1b d3 47 3e
       0.30216217 0.56180066 -0.91232765 0.19514124
000010 72 52 c0 3e ee f5 64 bf d7 df 4a 3f 61 1d c4 3e
       0.375629 -0.8943776 0.792478 0.38303664
000020 96 8e a1 3e 10 72 15 bf 78 22 25 3f d0 4f 4f bf
       0.31554097 -0.5837717 0.6450572 -0.8098116
000030 a0 2d 90 3e da c5 28 3f f1 d4 63 bd d5 09 13 bf
       0.2815981 0.659269 -0.055623 -0.5743688
000040 d5 96 37 3e 31 20 20 3f 52 1c c3 3e d9 81 4a bf
       0.17928632 0.6254912 0.38107544 -0.7910438
000050 04 3e a2 be c9 49 e7 be 5c 83 1a bf 33 a6 2b 3f
       -0.3168794 -0.4517348 -0.6035669 0.67050475
000060 79 69 1f 3f b8 a7 18 bf 9f 26 cf 3e a4 da 7e 3e
       0.62270314 -0.5963092 0.40459153 0.24888092
000070 0e ac 6a bf fc b2 90 be 1a 9e 6a bf 0d 41 51 3e
       -0.91668785 -0.28261554 -0.91647494 0.20434971

weight f4 [64, 32]
000000 0e b3 bd be 53 ad b6 be 4a 8b 50 bd 11 94 7f be
       -0.3705067 -0.3567911 -0.050914086 -0.24958827
000010 23 a9 89 be 1c 8e 8a bd d3 ee 96 be 8f 21 21 be
       -0.26886854 -0.067653865 -0.29479083 -0.15735458
000020 b0 75 9a be ac 57 c3 bd 49 71 b0 be e1 a3 ab bd
       -0.30167913 -0.095382065 -0.3446143 -0.08380867
000030 12 00 9e be 37 02 45 be bb 8b bc bc f7 ef ce bd
       -0.3085943 -0.19239126 -0.023015847 -0.101043634
000040 b2 31 2d 3c c0 03 80 be fc 2c 96 be 85 59 c1 bd
       0.01057093 -0.2500286 -0.29331195 -0.094409026
000050 d0 68 cb 3d c0 fc 5a 3d b2 a0 3c bd 5d b5 b1 be
       0.09932101 0.053463697 -0.04605169 -0.34708682
000060 d6 40 2f be 0b ea 91 3d da 5d e6 be 66 2e 9a be
       -0.17114577 0.07124718 -0.44993478 -0.30113524
000070 73 a5 85 bc e7 6e ea bd db 66 86 bd 94 1d bf be
       -0.016314244 -0.11446934 -0.06562587 -0.37327254
000080 e5 10 48 be 8f 47 e8 bc 5a 92 2a be 45 2a 26 be
       -0.19537695 -0.028354434 -0.16657391 -0.16227062
000090 d0 52 7f bd b5 4a 19 be c8 ff 0b be 80 db 34 be
       -0.062334836 -0.14969905 -0.13671792 -0.17661858
0000a0 cc c9 f4 3c d0 94 f8 bd a2 42 47 be 81 a1 94 3d
       0.02988138 -0.12137759 -0.19459012 0.07257367
0000b0 6a ae f6 bc 2a 87 50 3d 04 7e 19 be bd 2f 95 bd
       -0.030112464 0.050910152 -0.14989477 -0.07284496
0000c0 26 83 5a be 54 3b 45 be b8 59 b6 bd 8a 2b 1f 3e
       -0.21339092 -0.19260913 -0.08903831 0.15543953
0000d0 81 d8 64 3c 08 2f 6e 3d 1b 4c 16 3e 2f a6 d5 3d
       0.013967634 0.05815032 0.1467747 0.10432088
0000e0 24 44 93 bd 0c 8d d6 bc 6f 55 25 3d c4 5a 32 be
       -0.07190731 -0.026190303 0.04036468 -0.17417437
0000f0 e9 a8 0c be 0f 30 6a be c1 53 f7 3b c8 b8 8a 3d
       -0.13736309 -0.22869895 0.007547826 0.067735255
000100 20 e2 3e bd 2c 65 d8 bd 42 aa 5a bd 42 90 28 be
       -0.04660237 -0.10566172 -0.053385027 -0.1646128
000110 c5 eb 1f be 16 d8 88 3d 52 d3 2f be 4a a3 be bd
       -0.15617283 0.0668184 -0.17170456 -0.09308489
000120 b5 b6 95 bd f7 ce bd bc 12 c3 9e ba 5a 7e 97 bd
       -0.07310239 -0.023169978 -0.0012112579 -0.073971465
000130 2b b9 8a bd e7 f4 d7 3d ed ea 46 be 37 b9 4c be
       -0.06773599 0.10544758 -0.19425555 -0.19992529
000140 d0 8c b0 3d fc e7 20 be 6c 93 5f 3d e0 66 8c 3c
       0.08620608 -0.15713495 0.05458395 0.017138898
000150 53 b9 53 bc 92 6a 1d be c6 4a 29 bd 28 7d 2b bd
       -0.012922603 -0.15372685 -0.041331075 -0.041867405
000160 40 d6 74 bd c2 ec 0e 3e 82 9b 4a bd 45 c6 a4 bd
       -0.059774637 0.13957503 -0.04946471 -0.080456294
000170 54 f2 5d bd 64 07 f8 3d 5f 53 34 3e 32 05 98 bd
       -0.05418618 0.12110785 0.17609929 -0.07422866
000180 5b 87 1d 3c ad fd c1 3d 89 a1 f8 3d e9 0d 12 3f
       0.009614791 0.09472213 0.121401854 0.57052475
000190 e2 b4 1b be a9 bd b8 bd 08 9a 9e 3d ef 78 ae bd
       -0.1520572 -0.0902055 0.07744223 -0.0851916
0001a0 6f 21 98 bc d1 65 43 bd b7 7c f0 3d 73 d4 98 bd
       -0.01857063 -0.04770452 0.117425375 -0.074623965
0001b0 e3 4d 08 3e dc 74 0c c0 e5 b7 31 bf d0 74 9c be
       0.13310961 -2.1946325 -0.69421226 -0.3055787
0001c0 21 d5 87 bf 05 90 1e c0 14 49 16 3f 52 7b 1c 3d
       -1.0611917 -2.4775403 0.5870526 0.038203545
0001d0 bf ab fd 3d 5f 1f e1 3e b4 2a 91 3c 14 27 b7 3e
       0.123862736 0.43969247 0.017720558 0.35772002
0001e0 0d 62 2d bd 7c e2 34 3e 71 ee 10 3e 3d e1 bb bd
       -0.042329837 0.17664522 0.14153458 -0.0917382
0001f0 f9 16 17 3e e6 4e 16 bf 65 00 13 be 43 1e 9b 3d
       0.14754857 -0.5871414 -0.14355619 0.07574131
000200 a2 d5 fa 3c fa 59 79 bb 85 1e 09 bc 42 63 6e bc
       0.030619446 -0.0038048015 -0.008369093 -0.014550032
000210 8d fe 21 be 41 b3 7a 40 03 63 53 be c5 0b f6 be
       -0.1581976 3.9171908 -0.20643239 -0.48055854
000220 7b 40 f0 bd ac 6e 7f bc 48 65 3f bc 24 64 c2 bc
       -0.11731049 -0.015590351 -0.011681862 -0.023729391
000230 d7 c8 bc be 8a 89 8d 3d 0e 22 17 3e 4a 66 99 40
       -0.3687198 0.06910999 0.14759085 4.7937365
000240 35 1f 43 be b4 c0 8d 3d 02 a2 27 3e e8 33 ff bc
       -0.19054873 0.06921521 0.16370395 -0.03115268
000250 5c 84 31 3e bf f0 09 bf 80 65 13 be 47 5c 41 3d
       0.17335647 -0.53882974 -0.14394188 0.047207143
000260 4d 63 b4 bd 9f 30 a9 3d 9c d4 85 bb 01 e4 51 be
       -0.088080026 0.08261227 -0.004084183 -0.20497133
000270 00 7b b8 3d 18 ef a4 3e 79 a6 f5 bd 52 44 f4 bd
       0.090078354 0.32213664 -0.11994643 -0.119270936
000280 13 e7 bc 3d 62 9c 9b bd 88 01 1b be 28 cd ad bd
       0.092237614 -0.07598187 -0.15137303 -0.08486396
000290 6d af e7 bd d5 9a b6 3d b8 a7 50 bd d9 c7 f4 bd
       -0.11312757 0.089162506 -0.0509412 -0.119521804
0002a0 bd 45 2d 3c 02 28 fa bb 4b 8b 45 be 55 de 26 3d
       0.010575709 -0.007634164 -0.19291417 0.040739376
0002b0 70 bc 20 be 78 81 5d be 39 f9 65 bd cc d7 66 bd
       -0.15696883 -0.2163142 -0.05614588 -0.056358144
0002c0 ac 05 16 bd 0c f1 23 3d 12 2f 2e be 50 fc 01 be
       -0.036626503 0.040024802 -0.17010143 -0.12693906
0002d0 d6 5b 80 bd 26 29 48 3c 83 ef 02 bd a7 25 05 3d
       -0.06267516 0.012216842 -0.031966697 0.03250661
0002e0 85 8c db 3d 92 21 a5 3d a4 11 6d bd bc 34 1b bd
       0.10720161 0.08063044 -0.05787815 -0.03789209
0002f0 58 b3 d6 bd 4c 20 dd bd 07 0f d4 3d 04 ab 32 be
       -0.10483426 -0.10797176 0.10354429 -0.1744805
000300 00 5e 63 be e1 9f 11 be 6c 15 ee 3d 39 08 10 be
       -0.22203827 -0.14221145 0.1162518 -0.14065637
000310 ba f4 58 be 87 4c 06 be 4b 2e 38 be 77 3f 8d bd
       -0.21187106 -0.1311513 -0.1798641 -0.068968706
000320 b1 22 08 bd 1d 2f 2f be 85 fb 09 ba ee 86 f5 bd
       -0.03323621 -0.17107816 -0.00052636146 -0.119886264
000330 7c 1d fd bd 00 db bd bd f1 c6 c8 3b 75 f6 e4 bd
       -0.12359139 -0.092702866 0.0061272313 -0.111798204
000340 3e fd 0f 3d 60 f6 05 be 08 bf 8a bd 40 e9 6d 3d
       0.03515362 -0.13082266 -0.067747176 0.058083773
000350 02 e0 ee bc ca 90 20 3d 3c d7 48 bc 0f 73 01 bc
       -0.02915955 0.03920058 -0.012258347 -0.007900967
000360 56 10 b6 bd b4 98 91 3c 7c f9 06 3d cc 3e 0a be
       -0.088898346 0.01777301 0.03295277 -0.13500518
000370 2a 6e 1c be 98 aa 10 be e2 2b 1b be c8 e1 cb bd
       -0.15276399 -0.14127576 -0.15153459 -0.09955174
000380 fd 4d a9 bd 26 d8 1c 3d 7e 5f 0d 3b cc bf eb bc
       -0.08266828 0.038292073 0.002157181 -0.02877798
000390 73 28 f1 bc 0a 8b b5 bd 86 a8 20 be 6e da d6 bc
       -0.029438233 -0.0886441 -0.15689287 -0.026227202
0003a0 34 92 43 be 5c 05 11 3e e7 f0 16 3d 5a d7 ac 3d
       -0.19098741 0.141622 0.036850836 0.084395126
0003b0 35 61 0b 3d ec 45 bd 3d 46 c8 92 3d 26 75 6d be
       0.03402825 0.09241852 0.071671054 -0.2318922
0003c0 a1 97 f9 bd e6 ad 85 bd 4f 0b d0 bd c3 02 a8 bd
       -0.12187124 -0.06527309 -0.10158407 -0.08203652
0003d0 be 78 09 be 6f 45 0a 3d 5e fe 02 3e 1b 0f bd 3d
       -0.13424966 0.033757623 0.12792346 0.09231397
0003e0 86 6f 37 bd 69 a1 2a be e7 bc fc bd 17 a3 ee bd
       -0.04478409 -0.16663136 -0.12340718 -0.11652201
0003f0 41 9e c7 bb 87 30 54 be 3c 86 cd 3d 7a 3f 34 3d
       -0.0060918634 -0.20721637 0.10035369 0.04400585

bias f4 [64]
000000 b7 bb b5 be 7e 24 84 bb 1d b1 f7 bd dd 9a 41 3d
       -0.35494778 -0.0040326705 -0.120943286 0.04726683
000010 ac f8 91 3d a4 d5 fd bd 2b 0d 36 be 07 18 58 be
       0.071275085 -0.12394264 -0.1777846 -0.21102916
000020 be 56 a4 3c b1 6d 36 bd fb 96 0d 3e d3 82 d9 be
       0.020060893 -0.044538204 0.13827126 -0.42482623
000030 80 63 11 bd 48 64 3b be 09 26 74 3d ea d9 2b be
       -0.03549528 -0.18299973 0.059606586 -0.16782346
000040 3d 78 8f 3e 46 a6 6e 3d 7d 97 44 be 7c c1 fe ba
       0.28021422 0.05826404 -0.19198413 -0.0019436325
000050 bd 1c 05 be 43 9d 93 bd da 60 96 bd b7 40 c8 bd
       -0.12999244 -0.0720773 -0.07342692 -0.097779684
000060 e9 b9 f5 bd 0b 6e e6 bd e9 d5 a3 3d 98 bf 77 3b
       -0.1199835 -0.11251458 0.079997845 0.0037803408
000070 64 6b ab 3d e9 b7 17 3e fc 01 ed bc 3e 72 05 bd
       0.083700925 0.1481625 -0.02893161 -0.032579653
000080 78 89 62 bd d0 49 5b be 5d 06 59 3c 52 4f 2d be
       -0.05530688 -0.21414876 0.013246146 -0.1692479
000090 83 f9 d3 3d d4 a5 10 be f5 64 82 bd d0 d1 05 be
       0.10350325 -0.14125758 -0.06366912 -0.13068318
0000a0 f8 9e 38 be 76 18 47 be 5b 57 86 3d f5 75 9e bd
       -0.18029392 -0.19442925 0.065596305 -0.07737342
0000b0 dd c4 05 be 6d 2e 61 3d e5 67 69 be 9a a5 14 be
       -0.13063379 0.054975916 -0.22793539 -0.14516297
0000c0 45 28 aa 3d cc 20 3c be 99 5c 00 be 1e 63 27 bc
       0.08308462 -0.18371886 -0.12535323 -0.0102165025
0000d0 36 f3 67 bd 84 79 38 be 1d d5 90 bc c5 3d ad 3c
       -0.05662843 -0.18015105 -0.017679745 0.021147618
0000e0 d2 bb ab bd 4d 07 13 3c c8 87 df 3d 19 7e 01 be
       -0.08385433 0.008973909 0.1091457 -0.12645759
0000f0 d6 44 3e bd c3 5f 51 be 02 37 15 3d 4c 41 a1 3e
       -0.046452366 -0.20446686 0.036429413 0.3149513

weight f4 [64, 64]
000000 2b 7e 0a 3e b3 fc 0d bc 94 3e 56 3d d6 89 3f 3e
       0.13524692 -0.008666205 0.052305773 0.18704924
000010 e1 71 50 be 24 66 1a bd e8 48 8d bd 41 df 21 3b
       -0.20355941 -0.037695065 -0.068986714 0.002469972
000020 1b f6 f5 3d 5e b9 1a 3d 84 c3 ab 3d 96 01 30 bd
       0.120098315 0.037774436 0.08386901 -0.042970262
000030 4a 92 06 3e 45 5f 81 3d 65 7e fd 3d 78 f3 9d 3c
       0.13141742 0.06316999 0.123776235 0.019281134
000040 c2 ff 35 3e 8d 2b 5c 3d b8 8b 89 bb 9b b1 67 bc
       0.17773345 0.05375247 -0.004197564 -0.014141466
000050 90 38 16 3c 2b cd 47 3c f4 99 9c bd a5 08 13 3c
       0.009168759 0.012194912 -0.07646552 0.008974229
000060 4d 05 3b 3d 85 f4 e7 bd 2f 0d ae 3c 28 ca 1a bd
       0.045659352 -0.11325935 0.02124652 -0.037790447
000070 60 8b 5a be b5 9c 92 3d 33 1a d9 3d ce f5 fe bc
       -0.2134223 0.07158796 0.106007 -0.031123068
000080 66 8f 50 3d 1c 7d fd 3d a8 9d 22 be 19 88 20 be
       0.050918005 0.12377378 -0.15880454 -0.15676917
000090 59 fb 29 be 56 f2 64 bd 97 34 dd 3d 50 54 af 3d
       -0.16599788 -0.055895172 0.10801046 0.08561003
0000a0 55 75 90 be 4b 3c 7a 3d b1 cb fa 3a f9 1b ed bd
       -0.28214517 0.061092656 0.0019134191 -0.11577601
0000b0 d4 11 bc 3c 0e 92 14 bd 77 e0 35 bd a2 5d c6 be
       0.02295772 -0.0362721 -0.04440352 -0.3874331
0000c0 e1 be 3f 3e fa fd 34 3d 84 7d e4 bd b6 04 0a bd
       0.18725158 0.044187523 -0.11156753 -0.0336959
0000d0 30 63 d8 bd f0 99 5f 3f 81 08 9a 3d f8 ca 9f bd
       -0.105657935 0.87344265 0.07521153 -0.07802385
0000e0 fe 8f 2c bd d8 53 14 3e 8f 0c 98 bd 5e 0b c2 bb
       -0.04212951 0.14485109 -0.0742427 -0.005921765
0000f0 e7 f8 bd bc 2f 16 6b 3d f5 8a 21 3d 17 d0 07 bf
       -0.023189975 0.057394203 0.03943916 -0.53051895
000100 d5 d2 57 bc 74 5d 02 be 6c bc 83 3c 06 05 09 3e
       -0.013172825 -0.12730962 0.016081057 0.13380823
000110 29 43 52 3e b2 ea c9 bd 90 bf b7 bc 36 03 9d bd
       0.20533432 -0.09859218 -0.022430211 -0.07666628
000120 3b 6b a7 bc 3f a1 ea 3c bd c8 c9 bd 51 8f ea bc
       -0.020436874 0.028641341 -0.09852741 -0.028632792
000130 de 71 b8 bb 62 1b 0f be 04 fb 4f bd 92 ed 83 3c
       -0.0056288084 -0.1397529 -0.050776497 0.016104493
000140 bf f6 48 bd 22 0c 16 bd d6 b6 1f be d7 89 ae bd
       -0.04906344 -0.036632665 -0.1559709 -0.085223846
000150 8b 29 b2 bd 4b 23 f3 bd d3 28 1c bd e6 e0 11 be
       -0.0869933 -0.11871966 -0.03812487 -0.14245948
000160 6b 89 e8 bd 54 e7 38 be 74 2f 58 3d d7 be 69 bb
       -0.113543354 -0.18056995 0.05277963 -0.0035666728
000170 9b d9 c6 3d 7e 8e c1 bd 9c 29 c1 3d 73 00 c9 3c
       0.09709474 -0.09451006 0.094317645 0.024536347
000180 43 23 bb 3d c0 3a ed 3b 92 77 72 be 81 44 fc bc
       0.09137585 0.0072396696 -0.23678425 -0.030794384
000190 01 90 19 bd d9 82 81 be 4b 7a 03 3c 40 34 21 3d
       -0.03749085 -0.2529514 0.008024762 0.03935647
0001a0 7e 39 86 3e d2 7c 38 3d 64 e4 b8 bb 7d cd 9f 3d
       0.26215738 0.045040913 -0.0056424607 0.07802866
0001b0 2d cb 66 be c0 bc 88 be 63 c8 8d 3d c3 25 d8 bd
       -0.22538443 -0.26706505 0.06922986 -0.105540775
0001c0 32 4d 1a bd ff 12 05 be e1 14 a8 3c ea c2 82 3c
       -0.037671275 -0.12995528 0.020517768 0.015962083
0001d0 e2 8c 06 be 80 ad c3 bd cc 1a f6 bd 39 fc 56 bc
       -0.1313968 -0.09554577 -0.1201683 -0.013121658
0001e0 0e 85 b6 bd 6c 51 f4 bd 21 9f a1 3d 1d b2 37 be
       -0.08912097 -0.119295925 0.078916796 -0.17939039
0001f0 9d 27 11 3d fb 82 9c bd a1 41 ca bb 71 28 ac 3d
       0.03543817 -0.0764217 -0.0061723744 0.08406151
000200 a3 3c cd 3d ec 4e 0c bc 90 f5 77 3d 83 32 e8 3d
       0.10021331 -0.008563738 0.06053692 0.11337759
000210 bf 7f e6 bc 47 5d 63 bd 56 ac b7 bd dd fe d4 3d
       -0.028137086 -0.055508878 -0.08968417 0.10400174
000220 0c a7 81 bd 2a c7 13 3b c7 68 8d 3e fb 9b 31 be
       -0.0633069 0.002254913 0.27619 -0.17344658
000230 23 4c 4d 3d ed 4a 3a 3e eb 5a 41 be e4 0c 88 bd
       0.050121438 0.18192644 -0.18882339 -0.06643084
000240 88 7b e7 3d f6 79 83 bd 43 44 b4 3d 3d 82 16 bd
       0.113028586 -0.064197466 0.088020824 -0.0367453
000250 73 34 fe 3d 03 96 98 bc c0 0d ea bc 4c 56 6c 3e
       0.12412348 -0.018626219 -0.02857101 0.23079795
000260 b3 be bd 3b f1 6e 81 3e 2a e2 ba 3e bc 5b 4e 3e
       0.0057905554 0.25279954 0.36500674 0.20152181
000270 42 01 9c be 60 da 8c 3d f9 9c 1c 3e ef 14 b6 3d
       -0.3046971 0.06877589 0.15294255 0.088907115
000280 d2 20 56 3d 10 b1 0c 3c 0e 38 11 be ac b4 95 bd
       0.052277394 0.008587137 -0.1418154 -0.07309851
000290 63 a6 4e be 33 c6 8b be 8c 88 d4 bd 8f f4 16 3d
       -0.20180659 -0.27299652 -0.10377607 0.036854323
0002a0 fb 92 01 3e 4d 43 c7 bd 9d 5f 02 3d 96 2a 96 bc
       0.12653725 -0.097296335 0.031829465 -0.018330853
0002b0 56 2e 25 3d 18 cc d1 3d 32 a0 ed 3d 51 ed 7d 3e
       0.040327393 0.10244006 0.116028205 0.2479756
0002c0 61 65 91 bd ef 6e 74 ba 9e cc 15 3e 52 8b d1 3d
       -0.070994146 -0.0009324392 0.14628837 0.10231651
0002d0 d9 b2 78 bc d4 c2 02 3e d1 eb 89 3b 78 35 81 bd
       -0.015179359 0.12769634 0.0042090197 -0.063090265
0002e0 f4 7e c4 3d 00 af 12 3d 3f 00 08 3e fc 84 59 3d
       0.09594527 0.035811424 0.13281344 0.05310534
0002f0 ea f6 06 3e d5 04 78 3d d0 1e f5 3c 43 a1 54 be
       0.13180128 0.060551483 0.02992192 -0.20764641
000300 fa 57 1d 3d 54 e3 cd bd 16 b0 52 3d 98 0d e7 3c
       0.03841398 -0.10053125 0.05143746 0.028204724
000310 86 12 72 bd 3f 04 27 be 28 78 dc bc 43 f2 14 3d
       -0.059099697 -0.16310214 -0.026912764 0.03636385
000320 82 4c a1 bd d4 ac 60 bd 6d e3 94 bd b9 f7 28 bd
       -0.07875921 -0.05485232 -0.072699405 -0.04125187
000330 ca d3 00 3d c8 5a b7 bb 64 a8 be bd 72 fd 92 bd
       0.031451978 -0.0055955388 -0.09309462 -0.07177247
000340 4b 91 cb bd ff 60 9b 3d 67 49 91 bd a0 17 2d 3d
       -0.09939822 0.0758686 -0.070940785 0.04225886
000350 db c3 b0 bd 81 ab 41 3d 22 14 da bd 6c 33 59 3b
       -0.086311065 0.0472827 -0.10648371 0.0033142222
000360 f5 22 13 be 5d 7c f9 bd bd 96 61 bd 96 54 cb bd
       -0.14368804 -0.121819235 -0.055075396 -0.09928243
000370 5c 89 19 be 00 66 0b ba 6b ad 20 3d ff e2 0c bc
       -0.14993805 -0.00053176284 0.039227884 -0.008599042
000380 94 8c 72 bd 58 2a 9b bc 5f 2e 62 3d 37 76 b1 bd
       -0.059216097 -0.01894109 0.055220004 -0.08665126
000390 63 5f f9 bd 18 81 87 3c ee 03 8a bb d2 7f 48 bd
       -0.12176397 0.016541049 -0.0042118942 -0.048950024
0003a0 98 97 f7 bc 99 10 54 bd 1d de 36 bd d4 b7 ec bd
       -0.030223653 -0.05177364 -0.044645417 -0.115585
0003b0 74 bc b0 ba 5d 70 30 3d b3 f6 04 3d 76 83 aa bd
       -0.0013483898 0.043075908 0.032461833 -0.083258554
0003c0 f0 26 e8 bd ed cc 12 be f4 0a 3c bd d3 b3 9b bd
       -0.11335552 -0.14335985 -0.045908883 -0.07602658
0003d0 ac 81 35 be dd f5 39 3b c4 9d 71 3c 58 b0 2c bb
       -0.17725247 0.0028375306 0.014747087 -0.0026350226
0003e0 7c 26 b5 3b 43 6f 31 be 99 84 27 be 16 e1 b6 bd
       0.0055282693 -0.17327599 -0.16359176 -0.089296505
0003f0 cf 34 79 3d dc 5f a4 3d 7b a5 9e 3c 70 87 51 bc
       0.060841378 0.08026096 0.019366017 -0.0127886385

bias f4 [64]
000000 7a 63 67 be b1 12 9c 3c 1a 1e 9b bd 75 de 0e be
       -0.22596541 0.019051882 -0.07574101 -0.13952048
000010 3c 09 81 be 2d 54 80 be 70 8c 7c bb 17 62 f2 3d
       -0.25202358 -0.2506422 -0.0038535856 0.118351154
000020 68 68 fb bd dc 39 0c be bd b6 b5 bd b4 31 34 bd
       -0.12275773 -0.13693947 -0.08872745 -0.043992713
000030 2e 95 5c 3b 74 0b 72 3c 4e b3 0c 3e 69 f2 47 be
       0.0033658254 0.014773238 0.13740274 -0.19526066
000040 7d c1 60 bc 8f cd 2d bd 32 17 fc 3d ba 19 37 bc
       -0.013718006 -0.042432364 0.12309112 -0.011175567
000050 05 89 f1 3c 5f 18 ac 3d 90 be 60 bd da 28 bb bd
       0.029484281 0.08403086 -0.054869235 -0.09138651
000060 04 62 23 bd 8e fd cf bd c3 fa 03 be a1 0d 66 be
       -0.039888397 -0.101557836 -0.12888627 -0.22466137
000070 32 67 89 bd d7 36 1d 3e ec b0 99 3d fe 05 e9 bd
       -0.06709136 0.15352951 0.07504448 -0.11378096
000080 a7 2c 3d be 46 2a 18 3e ce cf f7 bd 2c 11 00 3e
       -0.18474065 0.14859876 -0.121001825 0.1250655
000090 78 32 a2 bd 1c 23 9b bd b3 0c 14 be 86 10 b8 bc
       -0.079197824 -0.07575056 -0.1445797 -0.022468816
0000a0 aa 3a 6e bc 8a 38 9a 3d 62 c5 09 be da 6d 30 be
       -0.014540354 0.07530315 -0.13454202 -0.17229405
0000b0 d2 32 4a be ad a2 9b bd a5 71 04 be ae 52 79 be
       -0.19745949 -0.07599387 -0.12933977 -0.24347946
0000c0 82 91 4d bc 29 ca 1b 3e 9c 32 37 3d c2 b9 4d be
       -0.012546899 0.15213837 0.044726 -0.20090392
0000d0 ad c8 e6 bd f6 09 18 bc 62 55 26 be 2b f7 00 3e
       -0.112687446 -0.009279719 -0.16243508 0.12594287
0000e0 8c 47 6c 3d 2e ed 1c 3e a7 ca 27 3e d2 f7 d7 bc
       0.05768542 0.15324852 0.163859 -0.026363287
0000f0 4b 0e 50 bd f5 ec c8 3d 48 62 3e be 8a 56 80 bd
       -0.05079488 0.09810821 -0.18592179 -0.06266506

weight f4 [64, 64]
000000 7b 89 ce bd 9d fd ab 3d 7a ce 17 bd 08 1d 83 bd
       -0.10084816 0.08397982 -0.037062146 -0.06402022
000010 a9 8d 0c 3d 3a 65 46 bb d9 ce 63 3c ff 5c 8b be
       0.034314785 -0.0030272738 0.013904297 -0.27219388
000020 55 85 db 3d dc 2a ce 3d d8 f6 4c bd 2e f0 8e bb
       0.107187904 0.100667685 -0.050040096 -0.0043621277
000030 8c aa 70 3b 8a ae fc bc 11 5f 34 3e 57 96 ec bd
       0.0036722748 -0.030844945 0.1761439 -0.115521125
000040 9a 71 e3 3d fd 35 80 bd f2 28 a3 3e e6 bd 46 bd
       0.11105652 -0.062602974 0.31867176 -0.048520945
000050 57 e7 25 3e 0b 68 db bd cf 35 c7 3d 18 30 29 3d
       0.1620153 -0.10713204 0.0972706 0.04130563
000060 49 e1 74 bb fc e9 d0 3d 22 bd 0d bc d0 0b 1f be
       -0.0037365726 0.10200879 -0.00865105 -0.1553185
000070 f7 14 09 bd b6 8a d7 bd 84 f2 ae 3d f0 1a d9 3c
       -0.03346726 -0.10524504 0.0854235 0.026502103
000080 07 6b 39 bc d6 2b e4 3b 28 18 f0 3c 66 68 22 3e
       -0.011317021 0.0069632335 0.029308394 0.15860137
000090 30 21 2d 3c 53 2e b3 be 92 8f 76 bd 29 f4 24 bd
       0.010566995 -0.3499628 -0.060195513 -0.04027191
0000a0 26 f5 e1 bd da c6 ef 3d 18 70 73 3d 38 97 75 3d
       -0.110330865 0.1170785 0.059433073 0.059958667
0000b0 d3 1e 58 3c 7c b4 cc bc 1a 48 f7 3d 35 0d 06 3e
       0.013190943 -0.024988405 0.12074299 0.13090976
0000c0 0f 67 da 3d cd 83 a8 3c 3f 66 9c 3e 23 0f 39 3d
       0.10664188 0.02057066 0.30546758 0.04518045
0000d0 89 d6 f4 bd 5d e3 4b 3e 7b aa cd 3d 7c 07 be 3e
       -0.11954982 0.19910951 0.10042282 0.37115085
0000e0 0d 49 05 3e 28 b5 04 bc 16 bc 91 3c 4f 76 1e be
       0.13016148 -0.008099832 0.017789882 -0.15474819
0000f0 00 e1 8c 3d e2 b1 32 3b 7c 3f d9 bd 1f c2 de bc
       0.06878853 0.002726667 -0.10607812 -0.027192174
000100 eb 34 40 be b9 1a af 3c 4a cf c8 bd 3f e8 be 3c
       -0.18770187 0.021375047 -0.09805162 0.023304103
000110 eb a9 8f bd 93 aa bb 3d da b5 be 3d b0 bd 1b be
       -0.07014831 0.09163394 0.09312029 -0.15209079
000120 48 56 30 3d 11 97 25 bd f0 59 15 bd 56 1d ce bc
       0.043051034 -0.04042727 -0.036462724 -0.025160473
000130 3b 83 98 3d 60 98 50 3d 94 9a f8 3d 8a 09 fc bd
       0.07446905 0.050926566 0.121388584 -0.12306507
000140 48 48 01 3e f4 ab b2 bd 60 d6 80 3c e3 5a 14 be
       0.1262523 -0.08724204 0.015727222 -0.14487796
000150 34 91 f9 bc a9 c7 54 be 5e 7b 5f 3d bb 69 1c 3d
       -0.030464746 -0.2077929 0.05456101 0.03818677
000160 cc 82 b7 3d 39 b3 ce 3b b7 b4 00 be ec 2a 13 3f
       0.089604944 0.006307986 -0.12568937 0.5748737
000170 34 3a 7e 3f b8 3b 9c be fd 4d 9e bd d6 e4 e7 bd
       0.9930756 -0.30514312 -0.07729719 -0.11322944
000180 0c c8 d4 bd 6e 0f d2 3d fe 65 9a 3d e7 b1 7d bd
       -0.103897184 0.10256849 0.07538985 -0.06193724
000190 44 18 88 3d 0d f6 0e bd 8a 21 74 bc df aa 0f be
       0.06645253 -0.03490262 -0.014900574 -0.14030026
0001a0 d4 b2 fd bd 9e 34 3e 3c 3a 79 b5 3b da 71 07 3e
       -0.123876244 0.011609225 0.005538133 0.13227025
0001b0 6f db 56 be 79 6d d7 bc 8a fd 33 3d 8d a9 b3 bd
       -0.20982145 -0.026297318 0.043942966 -0.087725736
0001c0 68 5e 4b 3d 92 73 b2 3d c6 4c f4 be b0 92 c7 bd
       0.04965058 0.087134495 -0.47714823 -0.09744775
0001d0 a9 b6 ee bf 9e 97 f5 3d 39 52 a5 3d 9a 4c 78 3e
       -1.8649493 0.11991809 0.08072323 0.24247971
0001e0 d4 74 ac bd 4a c1 2f 3d 29 fe 68 bc 02 ca 47 b9
       -0.08420721 0.042908944 -0.014220753 -0.00019053373
0001f0 c8 ad cb bd 78 3b 8d bc ba f1 96 bd 17 65 96 bd
       -0.099452555 -0.017240271 -0.073703244 -0.073435
000200 2f f8 23 bd b4 31 ea 3c 0c 81 4e 3d bb f5 19 3e
       -0.04003161 0.028588153 0.050416037 0.15035145
000210 0c a7 ae 3d 08 7a 22 be 6e 63 e0 3d 81 b2 bc be
       0.085279554 -0.15866864 0.10956465 -0.36854938
000220 f2 4b f5 3c 08 18 82 bd f1 3c ec 3b 1d 22 e5 3c
       0.02994344 -0.0635224 0.007209413 0.027970368
000230 84 89 f3 3d 2f ac a6 bd 29 d2 28 3e 80 ba 3e bd
       0.118914634 -0.0813831 0.1648642 -0.04656458
000240 0c ec fd bd 0f d6 5a bd 52 70 2f 3d f5 cf 39 3d
       -0.12398538 -0.0534268 0.042831726 0.04536434
000250 e9 5c 96 3d e5 c4 0d be 74 45 82 3b b6 d3 b0 3c
       0.0734194 -0.1384464 0.0039755646 0.021585327
000260 77 a1 31 3e be 34 05 be 13 94 22 3e eb 45 ce 3c
       0.1734675 -0.13008401 0.15876798 0.025179824
000270 77 f1 f3 be e1 3b 09 3c a7 13 3f 3e 7e 02 9b 3d
       -0.4764516 0.008376093 0.1865984 0.07568835
000280 5e 03 9c 3c e7 14 d5 3b 9f ec 8c 3d e6 a2 40 3e
       0.019044574 0.006502736 0.068810694 0.18812141
000290 38 0e 33 3d 17 44 1e bc d9 4e fc 3c 20 b5 fc ba
       0.043714732 -0.009659789 0.030799316 -0.0019280054
0002a0 60 f0 a4 3d c7 22 1a 3e f6 f8 58 bc 5a b5 af 3d
       0.080536604 0.15052329 -0.013242951 0.08579512
0002b0 12 5f 80 3c 15 40 b3 3d 45 28 1c 39 d5 5b 2e 3e
       0.015670333 0.08752457 0.00014892321 0.17027219
0002c0 34 b2 cf 3c fd 71 4f 3d e4 44 dd be 0c d0 2a bd
       0.025353529 0.050645817 -0.43216622 -0.041702315
0002d0 20 60 ce be d0 70 26 3e 21 de be 3c 81 1c 83 bd
       -0.40307713 0.16253972 0.023299279 -0.06401921
0002e0 7d e3 49 3e b3 2c 82 bd a5 15 06 be c1 45 4b be
       0.19715686 -0.06356182 -0.13094194 -0.19850828
0002f0 7b e2 4c bd ca 89 51 bd 99 de 42 be 4e ec c9 3c
       -0.050020676 -0.051156797 -0.19030227 0.024648812
000300 a4 ca ff 3c c6 a2 86 bd a2 b2 89 bd 47 60 e4 bb
       0.031224556 -0.06574015 -0.06723525 -0.006969485
000310 7f 16 85 3c 79 d7 1a 3e 8f a2 b0 be 77 6b 7b 3e
       0.016246079 0.15121259 -0.34499022 0.24552713
000320 29 65 30 be 86 f3 ca bd 25 7d 18 3d 56 1d f8 bc
       -0.1722609 -0.0990973 0.037228722 -0.030287426
000330 0d 62 ec be 2b a9 0f 3f b6 6c 8e 3e 68 71 04 3d
       -0.46168557 0.56117505 0.27817315 0.032334715
000340 12 ff d5 bd fc eb 31 3e 7b 44 b1 bd 5c 84 20 be
       -0.104490414 0.17375177 -0.0865564 -0.15675491
000350 8d 81 be be 2a 9c 47 3e f4 fc 25 3e 61 5f 1b 3d
       -0.37208214 0.19493166 0.16209775 0.037932757
000360 1f 3a 6e bd b3 1f bc 3d 33 bb 1f be 2a 53 1a be
       -0.058160897 0.09185734 -0.15598755 -0.15070787
000370 a0 6d 27 be 57 c8 1c 3e 89 d9 a6 bc 66 3f 7b bc
       -0.16350412 0.15310799 -0.0203674 -0.01533494
000380 76 73 b3 3c 91 11 ae 3c f7 60 b6 3d d9 51 ee bc
       0.021905642 0.02124861 0.08905213 -0.029091762
000390 92 b0 dc bd 57 f6 35 be 9c de c6 3c fa 25 f3 bc
       -0.107758656 -0.17769752 0.02427607 -0.029681195
0003a0 92 f1 c5 bd 1a a4 a9 bd 4d 84 12 be db 32 70 be
       -0.096652165 -0.08283253 -0.14308281 -0.234569
0003b0 90 10 d3 bc 86 8b b5 3d 33 d2 b9 3d b0 db 7b 3e
       -0.025764734 0.088645026 0.090732954 0.24595523
0003c0 eb 89 9d be 93 c0 17 be 7d 80 01 c0 bd 8a 24 bd
       -0.30769286 -0.14819555 -2.0234673 -0.040171374
0003d0 6a 6a 9b be 2a 1d df be 95 50 6d b9 7c 67 e1 3d
       -0.30354625 -0.43576938 -0.000226321 0.11006066
0003e0 d0 96 bb 3d 88 3a 07 3e ec 72 35 be ad 05 05 be
       0.091596246 0.13205922 -0.1771962 -0.12990446
0003f0 6b fd f7 be 44 bd a8 bd 76 75 45 3d 4d bf 00 3e
       -0.4843553 -0.082392246 0.048207723 0.12572975

bias f4 [64]
000000 4f 3a 7f 3b f7 72 00 3e c2 20 3c 3c 8a fa 7d 3e
       0.0038944667 0.12543856 0.011482419 0.24802604
000010 66 21 14 bc 8d d7 5d bd d5 45 c3 bd 41 a2 a0 bc
       -0.009041166 -0.054160643 -0.09534804 -0.019608619
000020 d4 f0 a7 bd 7f 24 49 bc 08 43 eb bd 13 41 47 be
       -0.08200231 -0.012276768 -0.114873946 -0.19458418
000030 2e 2f b6 bd 15 08 17 3e 95 64 36 be c2 c3 b0 3e
       -0.088957176 0.14749177 -0.17811806 0.3452435
000040 ee 34 24 bd 32 f3 1b bf 48 8f cf bc 69 dc 1e 3e
       -0.04008954 -0.6091796 -0.025336877 0.15513767
000050 1b e1 ae 3c 1f 65 9b 3d 17 d2 10 3e a9 3f f7 bd
       0.021347573 0.07587647 0.14142643 -0.12072689
000060 a8 55 9d bd ba ec 5b be 72 2f a8 3e 83 ec d6 3d
       -0.07682353 -0.21477023 0.32848698 0.1049433
000070 21 d3 58 3e b4 9e 80 bc 1f 68 db bd d7 0e a6 3d
       0.2117429 -0.015700676 -0.10713219 0.08108299
000080 0b 18 b1 3e 3d 43 28 bd 49 4e 4c be f4 21 86 bb
       0.34588656 -0.04107975 -0.19951738 -0.004093403
000090 37 72 af 3d 72 0a 4b be 90 d4 53 3d 79 9b 29 be
       0.08566707 -0.19828203 0.051716387 -0.16563214
0000a0 df a4 b1 bd cf a2 37 3e e5 62 1e bd 19 3d 14 be
       -0.08674025 0.179332 -0.038668532 -0.14476432
0000b0 21 16 17 be 33 05 05 bd b8 e0 a2 bd de f2 88 bc
       -0.14754535 -0.03247566 -0.07953018 -0.01671737
0000c0 e6 00 9a 3c f7 55 00 3e 4a 11 e7 3d 17 c6 45 bd
       0.018799257 0.12532793 0.112825945 -0.048284616
0000d0 56 82 0c 3d dd bf 2b 3c 35 06 44 be 6c b8 ef 3d
       0.034303986 0.0104827555 -0.19142993 0.117050976
0000e0 4a cf b6 bd db f5 ca bd 7e ed c6 bd bd 12 ab bd
       -0.08926256 -0.099101745 -0.09713267 -0.083531834
0000f0 15 66 00 be 82 a2 43 3e 27 55 0d 3e e1 92 ec bd
       -0.12538941 0.1910496 0.13802014 -0.115514524

weight f4 [64, 64]
000000 d2 a6 57 bd b7 5f a2 3c f1 59 b9 3c bf 2f bd be
       -0.052649327 0.019821031 0.022625895 -0.3695049
000010 ec 38 ae 3d f5 87 06 bd 34 5f 8f bc 67 06 20 3d
       0.08506951 -0.032844502 -0.017501451 0.039068606
000020 74 46 e6 3c a1 10 1e 3e d5 25 3c be 47 48 72 3e
       0.028109767 0.15436031 -0.18373807 0.23660384
000030 e9 b9 54 bd 8e 5d a2 bc 83 33 5d bc 93 40 04 3d
       -0.05193511 -0.019820001 -0.013501051 0.032288145
000040 a2 c5 3d 3e 46 d2 87 3d 0d be 21 3e 11 2b 2f 3e
       0.18532422 0.06631903 0.15795155 0.17106272
000050 f9 0c 65 3c 8a 57 59 3d e4 db 3a 3e 92 8e 81 bd
       0.013980144 0.053062 0.18247944 -0.06326021
000060 90 61 56 bd a4 70 1d 3e 12 53 ab be 24 15 8d bd
       -0.052339137 0.15375 -0.33461815 -0.06888798
000070 ff 89 02 bd 1b 2c c7 3d c4 88 81 bc 27 1b 3f be
       -0.031869885 0.09725209 -0.015812285 -0.18662702
000080 7b d8 62 3e 76 2e e2 bb 9d 1c e3 3e 98 dc 50 3c
       0.22152893 -0.006902511 0.44357768 0.012747906
000090 ca 7f 1d be 64 7e 49 3e 3e 3b 09 3e 69 a1 d6 3d
       -0.15380779 0.1967712 0.13401505 0.10480005
0000a0 d8 a2 34 3d 34 70 04 3e 3d cc 02 bd bf 56 00 3e
       0.044100612 0.12933427 -0.031933058 0.12533091
0000b0 b2 02 de 3d 6c d8 20 3e 83 23 07 be 19 79 94 3d
       0.10840358 0.15707558 -0.1319714 0.0724966
0000c0 cd f3 c1 bd 7b 71 8f 3e 9f 68 93 3d 1a 1c 4d 3e
       -0.094703294 0.28016266 0.07197689 0.20030251
0000d0 d6 62 6b bb 4b 15 64 be dd a0 d8 3d 4c 44 60 3d
       -0.0035917065 -0.22273748 0.10577557 0.054752633
0000e0 13 e4 ed 3d f9 2b 31 be 4b e5 62 bc 9d ee 8e 3c
       0.11615767 -0.1730193 -0.013848613 0.017447764
0000f0 7e 71 47 3e 6c 11 25 3d c9 dd 8b bd 50 10 08 3d
       0.19476888 0.040299818 -0.068294115 0.03321868
000100 1a 3d aa bd 10 50 93 bd c5 ed 89 3d 65 49 30 3d
       -0.083124354 -0.07193005 0.06734804 0.043038744
000110 98 03 b9 3c f0 94 26 3c 82 90 22 3d 43 df ad 3d
       0.022584721 0.010167345 0.039688595 0.084898494
000120 df 77 13 be 50 f0 3e 3d ca a8 9b bd 07 1a ad bd
       -0.14401196 0.0466159 -0.07600553 -0.0845223
000130 ba 41 df 3d ba f6 c1 bd b2 82 c9 3d c1 f9 8b 3c
       0.10901208 -0.094708875 0.09839381 0.017086865
000140 79 30 4f 3d d8 ab cd bd 94 bf 71 bd fb a8 9d 3d
       0.050583337 -0.10042542 -0.059020594 0.07698246
000150 bc 47 f3 bd 18 36 a4 bd cc 48 36 3d 20 ba 95 3b
       -0.118789166 -0.0801813 0.04450302 0.004569307
000160 1a 3b f4 bd 50 54 8e 3d b0 0e a6 bc 34 9f c7 bd
       -0.11925335 0.06949675 -0.020270675 -0.097471625
000170 52 f7 ee 3d d5 00 3f bd f8 21 3e bd c7 37 00 be
       0.11668266 -0.046631653 -0.046419114 -0.12521277
000180 3d 62 3d 3d 48 45 07 3d dc bc a8 3c e0 fd 4e bd
       0.046236265 0.033025056 0.020597868 -0.050535083
000190 e4 77 85 3d 80 19 a0 3d e4 24 9c 3d 26 de c7 bd
       0.06517008 0.07817364 0.07624224 -0.09759168
0001a0 2c 6f 5a bd 34 56 33 3d 32 c3 5b 3d 35 9b 1a 3d
       -0.053328678 0.04378338 0.05365295 0.037745673
0001b0 d0 b7 13 3c 94 3f f3 bd 80 4d 09 bd e5 14 98 bd
       0.009015992 -0.11877361 -0.033521175 -0.0742586
0001c0 e1 90 06 be 81 99 1e 3c b0 c9 54 bd 9c ef d4 bd
       -0.13141204 0.009680153 -0.051950157 -0.10397264
0001d0 4a d8 82 bd 63 75 39 be 08 9f 32 3d 9c e0 17 bd
       -0.0638891 -0.18111186 0.043608695 -0.03707944
0001e0 aa ec c9 bd 2c e1 b3 3d be 80 d5 3d 35 f9 e2 bd
       -0.09859593 0.087831825 0.10424946 -0.11082689
0001f0 ea 43 af bd 58 03 84 bd f8 92 dd 3d 0a f8 cd bd
       -0.085578755 -0.0644595 0.10819048 -0.10057075
000200 27 be 10 3e 29 3c 33 3e 03 9c 30 3e 5a 47 55 be
       0.14135037 0.17503418 0.17247014 -0.20828
000210 00 fa f5 3d 49 f9 cf 3d bb 77 3b 3c bc 29 19 3d
       0.12010574 0.10154969 0.01144212 0.037393317
000220 fa 77 a4 bd 43 9f fb 3c 64 0f 2a be 2b d6 b8 3e
       -0.08030696 0.03071559 -0.16607434 0.36100897
000230 55 a7 94 bb 1f d5 74 3d 7f cc 88 bc ce dd 04 be
       -0.004536549 0.05977356 -0.016699074 -0.12975237
000240 16 dc 84 bc ff 08 3b 3e 0d 84 8b bd 4f 61 13 3d
       -0.016218226 0.1826515 -0.06812296 0.035981473
000250 16 d7 95 3c f2 f4 cc 3d 33 c9 46 3e 7d 0d 2f 3d
       0.018291038 0.10007657 0.19412689 0.042737473
000260 1c 0f da 3c 6c 40 0d 3e 19 83 ce bd ba 6c 0c bc
       0.026618533 0.13794106 -0.10083599 -0.008570844
000270 d3 30 04 3e 54 39 a9 bd 70 33 0a 3e 26 7f 92 bd
       0.1290925 -0.082628876 0.13496184 -0.07153158
000280 69 35 d8 3d 5f 83 be bd 3a 39 81 3e b1 ac b4 3d
       0.10557062 -0.09302401 0.25238973 0.08822001
000290 1b 30 4c be 22 10 25 3e 33 99 b2 3d 53 91 30 3d
       -0.19940226 0.16119435 0.08720627 0.043107342
0002a0 74 83 4c bd 29 4e bc bc d1 13 01 bd 91 3e 15 bd
       -0.04993005 -0.022986488 -0.03151304 -0.03643662
0002b0 2b 36 34 3e 86 86 e7 3c 27 ca 03 3d 50 4f 0a 3e
       0.17598788 0.028262388 0.03217521 0.13506818
0002c0 58 35 23 3e a9 32 82 bb d9 0f db bb e6 0e 7b 3d
       0.15938318 -0.0039733243 -0.006685239 0.061293505
0002d0 4f 12 d5 3d 17 a9 e5 bc a2 1d 30 bd f0 3b ed 3d
       0.10403883 -0.02803473 -0.04299701 0.11583698
0002e0 ae 30 80 bc 64 8e 04 be 17 c7 5a bd b5 8c 6d bc
       -0.015648212 -0.12944943 -0.053412523 -0.014498879
0002f0 fd 48 04 3f 88 98 33 3c 4f 14 85 3c ba 67 21 3e
       0.5167387 0.010961659 0.016245035 0.15762225
000300 da 34 b7 bd c6 26 06 be b7 1b 95 3d 3d 25 43 bd
       -0.089456275 -0.13100728 0.07280677 -0.047642935
000310 16 9d 08 be e2 3b ed 3c 9c 46 53 bd d0 cf bf 3a
       -0.13341174 0.028959218 -0.05158101 0.0014634077
000320 cb ce b5 be 46 9b 49 3d 32 6b cc bd fa ae fe bc
       -0.35509333 0.049220346 -0.099813834 -0.031089295
000330 1e 72 ff 3d 3b 6a 9b 3d c8 68 8d 3c ca 4d 1a be
       0.12472938 0.07588621 0.017261878 -0.15068737
000340 bb 94 10 be bf 05 98 3d 7a e1 1b bd b2 97 ee bd
       -0.14119236 0.07422971 -0.038056828 -0.11650027
000350 35 1e d0 3d 27 40 c1 bd 7a e3 dc 3a 80 87 f2 3d
       0.101620115 -0.09436064 0.0016852461 0.11842251
000360 b8 1f fe bd 6c 3a 6f 3d 39 af 08 3e 0d 60 4c bd
       -0.124083936 0.058405325 0.13348092 -0.04989629
000370 e2 18 55 bd 9a b4 5c be 04 0f 86 3d d4 58 21 bd
       -0.052025683 -0.21553269 0.06545833 -0.039391354
000380 1c f9 13 3b 5c ba bc bd 3d fd da bd 34 18 44 bd
       0.00225789 -0.09215233 -0.106928326 -0.047874644
000390 b8 d2 ac bd 77 a9 cb bc 12 7c e0 3d fe 2e d2 3d
       -0.08438629 -0.02486108 0.109611645 0.10262869
0003a0 8a b3 b5 3d db 69 81 3c df d2 98 bc 6e 23 4f be
       0.08872135 0.015797546 -0.018655239 -0.20228359
0003b0 f0 85 b3 3d f6 80 bb bd f8 b3 85 3c cb 0f b0 bd
       0.08765781 -0.09155457 0.016321167 -0.08596762
0003c0 c1 d1 15 3c 0a ea be bb dc 72 3c bd c7 15 0b 3d
       0.0091442475 -0.0058262395 -0.046007976 0.033956315
0003d0 89 aa 58 3c a9 80 2e be 66 7f 98 3c 76 3e 07 be
       0.0132242525 -0.17041267 0.018615436 -0.1320742
0003e0 c2 62 b6 bd fa dc b0 3d 9a 32 d2 3d c8 47 8e bd
       -0.08905555 0.08635898 0.10263558 -0.06947285
0003f0 7a 8c 83 bd 25 d4 bb 3d 66 10 06 3d 84 a5 f3 bd
       -0.06423278 0.09171323 0.032730483 -0.11896804

bias f4 [64]
000000 ac 73 3c bd 14 c7 19 be 72 f5 63 3c 58 4c 73 bd
       -0.04600875 -0.15017349 0.013913499 -0.05939898
000010 09 9a 4e 3e 9a de 5e 3e f2 47 8f bd fc 43 04 3d
       0.20175947 0.21764603 -0.06996144 0.032291397
000020 67 0d 16 bc c2 0a 28 3e b1 de 22 3e e1 8a 83 bd
       -0.009158469 0.16410354 0.15905263 -0.064229734
000030 9e 16 cc bd 82 f4 a7 3e eb a6 2f bd fa 6c 8d 3d
       -0.099652514 0.32803732 -0.042883795 0.06905551
000040 6e 20 2b be 19 c1 96 3e 84 7a ad bd f8 8a bd 3d
       -0.1671159 0.29444197 -0.084706336 0.09255022
000050 e1 86 bc 3e 07 f8 14 be 43 a9 5b 3e 01 cf c8 3d
       0.36821654 -0.1454774 0.21451287 0.09805108
000060 e2 e6 82 bd e6 6f 3c bd f9 f7 c6 bd f2 ed 02 be
       -0.06391694 -0.046005152 -0.09715266 -0.12786081
000070 29 c8 32 be 24 d2 39 3d dd 58 f2 bd d6 5d 1e be
       -0.17459168 0.04536642 -0.118333556 -0.15465483
000080 af e8 bd 3c 90 5b f2 bf 1b 0b 0f be 1f 3a e3 bd
       0.023182241 -1.8934193 -0.1396908 -0.1109507
000090 e1 49 30 be ff 7a ea bb b6 76 8c bd 7d c9 c1 3e
       -0.17215683 -0.0071557756 -0.0685858 0.37849036
0000a0 fe 47 b0 be ea ef 8b bd 7f 68 26 be 4d f6 d9 be
       -0.34429926 -0.06832869 -0.162508 -0.42570725
0000b0 8b 80 0d be 46 02 16 3d 36 e7 3b 3e 84 1c 67 bd
       -0.13818567 0.036623262 0.18349919 -0.05642368
0000c0 2a 7f 94 bd f4 9a 4c be ab b1 0b be 9b bb 82 3e
       -0.07250817 -0.19980985 -0.13641994 0.25533757
0000d0 58 67 8e 3e 55 e8 8f 3c 0d f9 98 3c bf df 15 bd
       0.2781322 0.01756684 0.018673444 -0.036590334
0000e0 7f 9e ce 3d 47 61 86 bd ba 89 50 be 20 d0 1a 3e
       0.100888245 -0.06561523 -0.20365039 0.15118456
0000f0 1d c1 94 3d 1d 18 ba 3e 7c 50 48 3d fa 65 47 bd
       0.07263396 0.36346522 0.04890488 -0.048681237

weight f4 [32, 64]
000000 d0 10 de bd 26 4d ab bb 60 11 d2 3d 56 29 6f 3d
       -0.108430505 -0.0052277027 0.1025722 0.05838903
000010 44 24 a3 3b b6 f3 2e bd 2d 0f e4 3d 63 e9 04 3e
       0.0049786884 -0.04271289 0.11135707 0.12979655
000020 bb 5a 90 bc ef 9d 13 3e 78 47 0d 3e 80 ee 6d bd
       -0.017621389 0.14415716 0.13796794 -0.05808878
000030 8a c0 10 be a0 2e 1d 3e ec b3 31 be 4f 6f 29 3e
       -0.14135948 0.15349817 -0.17353791 0.16546367
000040 34 33 1a be c4 e9 91 3d b5 25 a5 3c e6 61 92 be
       -0.15058595 0.071246654 0.020159582 -0.28590316
000050 e7 6a 24 bb 56 b3 c9 bd 82 94 93 be d8 7c 3a 3c
       -0.0025088133 -0.09848659 -0.2882424 0.011382304
000060 27 60 8a 3d e0 61 2f bb ba 53 f0 3d e4 0f dd 3d
       0.06756621 -0.002676122 0.117347196 0.107940465
000070 cd ad 5d bb 27 ee 1b ba fe 93 a5 3d e2 43 14 3e
       -0.0033825517 -0.0005948268 0.08084868 0.1447902
000080 a9 4e d8 3a 19 59 df be 0b 07 fc bd a8 4b c4 3d
       0.0016502935 -0.43622664 -0.12306031 0.09584743
000090 31 19 2a 3d 9d ba 0b bd b8 e7 0e bd ac b7 80 3d
       0.04152793 -0.034113515 -0.034888953 0.06285033
0000a0 d5 9a aa bd 52 a7 c6 bc a7 45 3c bb dd 1f ad be
       -0.08330313 -0.024249706 -0.002872804 -0.33813372
0000b0 2e 0c 7c bc 00 6e 40 3e 59 63 f9 bd 74 d8 98 bd
       -0.015383763 0.18791962 -0.12177152 -0.0746316
0000c0 41 fc c6 3d 16 bb 11 3d 0f 5d 64 3e fc 86 30 3d
       0.09716082 0.03557881 0.22301124 0.04309748
0000d0 98 81 57 3a 3a e5 df 3c 2c e3 92 3d aa 91 a6 be
       0.000822091 0.027330983 0.07172236 -0.32533008
0000e0 01 ce 2c bd a6 a1 b3 3b a6 1b 6c be 6c 69 18 bf
       -0.042188648 0.0054819165 -0.23057422 -0.5953586
0000f0 ae 6d d5 3d 6d 2e 8b be 9d 13 04 be c0 26 ae 3d
       0.1042131 -0.27183858 -0.12898107 0.08503485
000100 e5 b3 f9 3d 0a 9c 45 bb 45 90 96 bd 78 03 ad bd
       0.12192515 -0.003015282 -0.07351736 -0.08447927
000110 26 8f b1 3d 57 4f 0a bc b8 96 c8 3c fc 61 e8 bc
       0.086698815 -0.008441768 0.02448593 -0.028367035
000120 d0 62 63 bd 92 5f ab 3d f2 12 80 3d 1f 03 20 3e
       -0.055514157 0.08367838 0.062536135 0.1562619
000130 3c 58 ae 3b 80 b3 36 bd 1c 11 9d bd b3 4c b1 3d
       0.005320577 -0.04460478 -0.07669279 0.08657207
000140 d9 55 0a bc 73 c1 f2 3d 37 36 93 3b 01 f6 c1 be
       -0.008443319 0.11853304 0.004492547 -0.37883
000150 62 a2 b9 3d 73 c9 6a bd 20 55 02 bf 2e 0f 04 3e
       0.09064175 -0.057321023 -0.5091114 0.12896416
000160 05 b9 82 3c ab ca 70 3c 21 20 e0 3d 6c 04 cf 3d
       0.015957365 0.014696757 0.10943628 0.10108265
000170 26 be 55 3d 3c 59 c4 3d 25 ed 1f 3e 7f 08 c8 bd
       0.052183293 0.095873326 0.15617807 -0.097672455
000180 a1 9b 34 3d 6e 6c b4 be c2 c3 0d bd b2 25 d3 bc
       0.04409373 -0.35238975 -0.034610517 -0.02577481
000190 04 27 34 bd 97 4b a4 bc 80 e7 c1 3d b2 bd 82 3d
       -0.04398252 -0.020055575 0.09467983 0.06383838
0001a0 33 d3 bb 3c 23 21 d3 bd 94 f6 d0 bd fd 53 9f be
       0.022927856 -0.10309055 -0.10203281 -0.31118765
0001b0 2d cd c9 3d 3d c6 12 3e 85 a8 45 bd 42 fe 2b 3d
       0.09853587 0.14333434 -0.048256416 0.041990526
0001c0 e5 f8 3a 3d 80 98 01 be ed d3 9d 3d 9a 5d 83 3d
       0.04564752 -0.1265583 0.07706437 0.064143375
0001d0 7d 65 ff 3d cd 84 e0 3d d6 e2 dc bd 08 6d 4f be
       0.12470529 0.1096283 -0.10785453 -0.20256436
0001e0 9c be 0e be 27 f5 92 3d 96 8f 3c be 88 2f cf be
       -0.13939899 0.07175665 -0.18414149 -0.4046595
0001f0 37 32 49 bd 03 58 f2 be d2 50 68 3d 3f 97 04 3e
       -0.049120154 -0.47332773 0.0567177 0.12948321
000200 b2 26 37 be 87 ba 05 bd 31 6e 31 be 0f 75 4f 3e
       -0.17885855 -0.03264859 -0.17327191 0.20259498
000210 88 b1 c3 be bb 1c 5b be 35 03 80 3b de a2 a1 be
       -0.38221383 -0.21397679 0.0039066323 -0.3156957
000220 62 52 2b 3d 69 c9 1f bf 8f 2f 56 3e 62 b3 8d bc
       0.041826613 -0.624167 0.2091658 -0.01729745
000230 50 7e 56 bd 00 42 02 3f 3e c9 00 bf 7c 7e 01 c0
       -0.052366555 0.5088196 -0.5030707 -2.023345
000240 92 26 05 3e 11 c5 98 3e 80 f9 9d 3d 68 69 5d 3e
       0.13002995 0.2983785 0.07713604 0.2162224
000250 6c 7d 30 be 21 bd 70 bc df 02 26 3e dc c4 0c 3e
       -0.17235345 -0.014693529 0.16212033 0.13746971
000260 10 17 1d be 67 84 36 be 80 a8 f4 bc 25 41 12 bd
       -0.15340829 -0.17823945 -0.029865503 -0.035706658
000270 12 09 b4 bd fd f2 51 bc 54 0a 73 be a6 ad c5 bc
       -0.087907925 -0.012814281 -0.23734409 -0.024130654
000280 65 3e 23 c0 13 b4 78 bf 48 d7 79 bd 54 cf 90 3d
       -2.5506833 -0.9714977 -0.060996324 0.07070795
000290 e0 99 da bd 9e 74 fa bd 5e 21 cc 3c 05 24 8e be
       -0.106738806 -0.12229274 0.024918254 -0.27761856
0002a0 f7 1e fb bd 58 a5 2a be 83 e7 57 3b f2 fb 4f 3e
       -0.122617655 -0.16664636 0.0032944388 0.20310953
0002b0 10 5d 3f 3c d2 f4 9b 3e ab 84 51 3f 22 cd 8e bd
       0.011679903 0.3046022 0.8184306 -0.0697272
0002c0 f6 f0 ea bd ae 6f c5 3d e9 50 0f be a5 6b a7 3e
       -0.11471741 0.09640442 -0.13995709 0.32699314
0002d0 eb 55 21 3e 7f f4 e6 bd 6d bd 16 be 7c 33 8e 3f
       0.15755431 -0.11277103 -0.14720698 1.1109462
0002e0 77 cf d8 bd da 8c 60 bc e6 d1 73 3d 22 28 e9 3d
       -0.10586446 -0.013705457 0.059526347 0.11384608
0002f0 6a 92 2a bf d4 56 42 3d f8 13 b0 be a2 d7 90 be
       -0.6662966 0.047446087 -0.34390235 -0.28289515
000300 27 b4 02 be ae 30 bc bd 73 4f 34 be 80 26 65 3c
       -0.12764035 -0.091889724 -0.17608432 0.01398623
000310 bb da 44 3b 72 0a a0 bd dc 24 a7 3d 6d 78 8b 3d
       0.00300376 -0.07814492 0.08161327 0.06810079
000320 7c 14 4e bd 4b c1 fb bd 8a e4 9b bc 40 68 b7 3d
       -0.050312504 -0.12292727 -0.019029874 0.08955431
000330 70 34 a4 3c 8b 83 21 be cc 2f c9 bd b9 8c 85 bd
       0.020044535 -0.15772836 -0.0982357 -0.06520981
000340 70 64 39 bc 19 8f d7 bd b9 5a 78 3d 85 22 c0 bd
       -0.01131545 -0.105253406 0.060633395 -0.09381584
000350 3f bb a5 bc 8c 83 96 bd 17 87 51 be 37 d0 02 be
       -0.020230887 -0.07349309 -0.20461689 -0.1277474
000360 bc 51 0b 3d e4 3c 30 3d 14 42 83 bd 62 29 02 be
       0.034013495 0.04302682 -0.06409088 -0.12711099
000370 a0 b8 91 bb d4 a8 15 3d b7 7e 52 bd e8 64 54 bd
       -0.004447058 0.03653796 -0.051390376 -0.051854044
000380 f9 73 80 bc 0b 90 63 3e 00 18 35 3c 44 32 2a 3d
       -0.0156803 0.22222917 0.011053085 0.041551843
000390 60 eb 8f bc 80 9e 93 bd 4c e8 e0 bd 5b 6e 43 3d
       -0.01756829 -0.07207966 -0.10981807 0.047712665
0003a0 20 74 74 bd a6 b5 66 be 20 d8 a1 3b ac 6d 06 bd
       -0.059681058 -0.22530231 0.004939094 -0.032819435
0003b0 80 0e eb bb de bc 72 be 1e ee da bd 58 18 16 be
       -0.0071733594 -0.2370486 -0.106899485 -0.14657724
0003c0 6b 95 5a be 00 15 5e bc a8 de 90 be 06 7d 0a be
       -0.21346061 -0.0135548115 -0.28294873 -0.13524255
0003d0 2a 64 be bd 17 1d 18 be 5d df c2 3c 18 f3 da bd
       -0.092964485 -0.14854847 0.023788149 -0.10690898
0003e0 d5 ba 2c be 74 ce 25 3d 00 92 06 bd 79 11 2f be
       -0.16868146 0.040480092 -0.03285408 -0.17096509
0003f0 d8 19 fd bd 75 13 6d be 61 ef 3a be 1c c6 2b be
       -0.12358445 -0.23151954 -0.18255378 -0.16774791

bias f4 [32]
000000 a5 3c 13 3e 80 2f 21 3e 39 19 b4 3e dd ea a0 be
       0.14378603 0.15740776 0.35175493 -0.31429186
000010 65 1a 47 bd d3 47 99 3d 11 23 a9 3e b4 81 a4 3e
       -0.048609156 0.074844025 0.33034566 0.32130206
000020 94 8e d3 3e 5b fb cf 3d c4 d7 05 be 9b aa e3 bd
       0.41319716 0.10155364 -0.1307059 -0.11116525
000030 a5 f0 c0 bd 16 0c 23 bc c8 40 06 be 60 47 3b 3e
       -0.09420899 -0.009951612 -0.1311065 0.18288946
000040 76 ad 6a be dc 58 65 3d a1 d3 70 3d d9 3c 93 bd
       -0.22917733 0.055992946 0.058795575 -0.0718934
000050 46 15 eb 3e d8 a0 2e be 5b ae a1 bd 73 f6 c3 3e
       0.45914668 -0.17053545 -0.07894584 0.38273963
000060 84 73 b5 3d 3c 9a d7 3e 60 99 b0 bd 7a 69 00 3e
       0.088599235 0.4210986 -0.08623004 0.12540236
000070 a2 2e 17 be d4 83 46 3e 01 d8 51 3e 34 3d 4d be
       -0.14763883 0.19386226 0.20492555 -0.20042878

weight f4 [1, 32]
000000 c7 a9 e6 3d a6 d4 05 3e 5e b4 87 be 25 62 b0 bc
       0.11262851 0.130694 -0.26504797 -0.021531174
000010 09 7b ce bc d8 37 e3 3d 31 85 8b 3e 98 14 e1 3d
       -0.025205152 0.11094636 0.27250054 0.10990256
000020 ad e0 89 be a8 4e f2 3e ff e3 88 bd a3 40 7d bd
       -0.26929227 0.47325635 -0.06684112 -0.06182922
000030 e2 11 28 3d 8f 33 80 3c d3 31 ad 3c 4e 27 03 3e
       0.04103268 0.015649585 0.021141922 0.12807962
000040 34 59 01 3e 94 b9 e2 3d dd 69 0f 3e 27 80 88 3d
       0.12631685 0.110705525 0.14005227 0.06665068
000050 67 9b bc be fc 18 bc bd da 24 34 bd c4 64 96 be
       -0.36837313 -0.09184453 -0.043980457 -0.29373753
000060 5d 34 03 3e 89 31 bf be 23 e5 2c bd 20 f0 d8 3d
       0.12812944 -0.3734248 -0.04221071 0.10592675
000070 39 dc a6 bd 90 a0 a9 3d 31 82 2b 3e cd 00 8b 3d
       -0.08147473 0.08282578 0.16748883 0.06787262
