UQ_assessment_1D/models_old/DEN_MCD/i1_nn64_nl4_o1_tr1_ep400_b50000_ne10_dr0.02_ns100_s36/model.pth (torch, 797690 bytes, 130 tensors)

weight f4 [32, 1]
00000000: 0054 f5bb 7202 b93f 8a33 94bf 8066 3cbf
00000010: f432 c5be 4e3d c13e 7071 cbbc a8bc a53f
00000020: d281 55be 4c7b 873e 13b7 d8be 7048 49be
00000030: 52a0 70bf 2a59 7cbf 2cde b3be e3c1 113d
00000040: 6069 ca3e 45ad 403f 40fa 13bf 2e6d bdbe
00000050: a97a f83e b478 6e3f 0e3d 4abe 6e1e 863f
00000060: 3d75 c4bd 10b5 d83d 19f2 563f 13d8 77bf
00000070: 5761 33bf 1186 46be dc93 c7be c83a 973f
-0.00748682 1.4453871 -1.1578228 -0.735939 -0.38515437 0.37742084 -0.024834365 1.2948198
-0.20850304 0.26461256 -0.42327175 -0.19656539 -0.9399463 -0.98573554 -0.3513044 0.035585295
0.3953352 0.7526439 -0.57803726 -0.3699736 0.48531082 0.9315293 -0.19749853 1.0478036
-0.09592674 0.1058141 0.8396316 -0.9681408 -0.70070404 -0.1938708 -0.38979995 1.1814814

bias f4 [32]
00000000: 1aef 25bf 2362 1dbd c867 56bf 76c2 6fbf
00000010: 0470 15bf e311 6f3f c365 033f 06df fe3e
00000020: cc32 bf3d 3a3f 03bf 9bcb 03bc 9e06 6fbf
00000030: 3f93 47bf 9ffa 27bf bffa 2c3f 94df e93e
00000040: c811 e3be 30d7 eb3d 41ab 333f bc1b 853f
00000050: d573 5e3e 8c80 0e3e 8892 2f3f 02d5 11bf
00000060: 0700 c03d 6c7a 46bf 3a60 42bf 4254 03bf
00000070: e4ad b63e 00c9 873e 6aa4 17bf 9cc7 c13e
-0.64817965 -0.03842367 -0.8375211 -0.936561 -0.5837405 0.9338667 0.5132715 0.49779528
0.093358606 -0.5126835 -0.008044149 -0.9336947 -0.77959055 -0.6561679 0.6757011 0.4567839
-0.44349504 0.11515653 0.7018319 1.0399089 0.21723874 0.13916224 0.68582964 -0.5696565
0.09375005 -0.7753055 -0.7592808 -0.5130044 0.35679543 0.26520538 -0.5923525 0.37847602

weight f4 [64, 32]
00000000: c5bf c63d 97af a8bd 79c0 6dbd aac5 273d
00000010: ae99 e03d 18f4 df3d 5d8f 49be c222 00be
00000020: 964d 123c c4fb 153e c73a bf3d 40b9 1f3e
00000030: 42a9 d0bc 3d7e 5bbe 2352 35bd 8b46 2fbe
00000040: a4b3 28be feac c63d e340 973d 0b1c 71be
00000050: 74b7 e0bc 3143 b8bd dad2 b7bd f25b 10be
00000060: de4e f63b d06f d6bd b5a3 9b3b e68c ea3c
00000070: aa41 873d 437b b03b 4529 33be ef7e 33be
00000080: 77c5 b43d d2ee 41bf 8dba 283f 0b78 d0bd
00000090: 374b 2a3e 2a07 463e 120c f0bb 1de4 e43c
000000a0: 3a65 afbe 123c 50bb a609 6cbe 67a1 0bbe
000000b0: ae6f 153d 0bb4 bf3e 3f18 d6bb 0d2d 343e
000000c0: 8f50 dcbd 8478 683e a05a 4c3e d3b2 97bd
000000d0: 242d d33c 5b84 9b3d ed35 c23d e9e7 61bd
000000e0: edfc 0f3e 4a7d 2d3c bb22 b1bc 892b 233e
000000f0: 649b 57be 3fa4 17bd 1842 35bd 1497 86bc
00000100: 714e 7dbd 0c5e 14be 31d1 cdbd b5c6 1a3d
00000110: 16db ebbd ef87 8fbd 2bf3 863d 87a8 a4bd
00000120: 626e 62bd 86dc 79bc 54f1 c9bc cf32 e63d
00000130: 2a5b 6a3e 1f5f 5a3d b440 dc3d 6d80 96bd
00000140: 129d 22be 5ce9 13be 325d 753d f1b1 78bd
00000150: cda2 18be a39f 49be 8303 67be 24c8 18be
00000160: 4531 c5bd 4f8b c63d a4bb c33d 0ce3 69be
00000170: e60c 4b3d 00b4 4bbe d013 19bd 5260 09be
00000180: e677 0bbd d9e9 39be 314f 60be 884c 1cbe
00000190: 439b e2bc 5dd0 5fbd b525 10be 12a0 233c
000001a0: 5a26 61be c476 43bc e41c c23d 34ac 93bd
000001b0: f4c3 cb3d 7bcf 643b 0794 cebd 58c4 513d
000001c0: ea1b a7bc 680f 85bc 45d9 a63d 2aed 4dbe
000001d0: 2210 25bd e9b9 03be 3f08 873d 6515 e03d
000001e0: 6222 c73c e2b6 7f3d a23b a03c f1a4 c7bd
000001f0: aa22 53be c323 0e3d b3b9 0f3e 3fe3 3b3e
00000200: cd5f ffbd 204f 39bf cd2f 24c0 eb4b c7bd
00000210: 40f6 d2bd c787 0f3e d102 70bd d5bd d13d
00000220: 12ce d8be e360 e93d 87e2 16bf 428b f8bd
00000230: 5355 ac3c ccb8 62bf 52bc 80bc b03f 583e
00000240: 79ea 823d 63e6 193e 6e63 143d 059a cd3b
00000250: c54c f03d 9109 7c3d 0b29 423c ae42 62be
00000260: 1130 0bbe 7fc1 bdbd 3f4c 763e 1c5d 723b
00000270: 2209 49be 8762 383e 23c8 823d efbc 103e
00000280: 87df 1cbe 669e a33b bd9f 3ebe 288a 4dbd
00000290: 95f0 72bd 209f b3bd 8522 74bd be86 aa3d
000002a0: 5bc0 16bd 4123 223e edd8 4f3d cae2 e4bd
000002b0: 332e 983c 5670 3dbe fa25 0bbe 8ea7 1fbc
000002c0: a915 6f3d 68f9 8e3d 9c2e efbd 4f4e 7cbd
000002d0: d7c6 eb3c 8509 6cbe 4514 883d a738 5dbe
000002e0: a96e 6dbd e835 f6bc c99e 1ebe 47e9 15bd
000002f0: a934 b43d 2b38 e6bd b2f0 d6bd 62b7 03be
00000300: c16a 33be 9c4b 6fbf bd94 e1bd 5d9a f1bd
00000310: 2c92 d0bd 79fd 2a3e 3ad5 213e 2285 503e
00000320: 3e2b d43d 0ad0 71bd ee58 aeba 04ea 553d
00000330: 691a bb3d ad28 cf3b 5370 b2bc 9425 8fbc
00000340: ef25 2bbe c19a cc3d c69a 02bd 97c4 b1bd
00000350: da13 633e 430d 51bd 4629 313d 34d5 96bd
00000360: ff3f 903d f59b f3bd a78a a6bd 0fa5 b93d
00000370: f355 bd3d c4d2 563e 79bd 72bd 895d f13d
00000380: 4a94 25bd 5ccd 00bc b5be 2bbe 35e2 743d
00000390: b7ed 643d 0576 82bd 7d6a ccbd 1f5d 48bd
000003a0: 18bf 7e3d 52c1 06be 5d93 4a3c 3b79 73bd
000003b0: 16d5 14be 31d1 e7bc 4210 bcbd 314f 9ebc
000003c0: e731 0e3d ab67 06be 09db fabc 29ae 793c
000003d0: b981 223c b44a b6bc cce4 51be 2a3d dfbc
000003e0: b7be af3a 8119 84bd 4c6c 893d 1639 6c3d
000003f0: 0e04 1cbe 43d8 6ebd dfb3 953d a901 633c
0.09704546 -0.08236616 -0.058044884 0.04095999 0.10966812 0.10935229 -0.19683595 -0.12513259
0.008929631 0.14646822 0.09337383 0.15598011 -0.025471333 -0.21434875 -0.044267785 -0.17116754
-0.16474777 0.097009644 0.07385423 -0.23545854 -0.027431227 -0.08997191 -0.089757636 -0.14097574
0.007516726 -0.10470545 0.00474974 0.028631639 0.06604321 0.0053857877 -0.17496212 -0.1752889
0.08826726 -0.75755036 0.65909654 -0.101791464 0.16630255 0.1933867 -0.0073256576 0.027940804
-0.34256917 -0.0031774086 -0.23050556 -0.13635789 0.03648346 0.3744205 -0.006533652 0.1759531
-0.10757553 0.22702223 0.19956446 -0.07407155 0.02577836 0.07593604 0.09482942 -0.055152807
0.14061327 0.010588953 -0.021623006 0.15934576 -0.2105537 -0.03702187 -0.044252485 -0.016429462
-0.061842386 -0.14489001 -0.10049666 0.037787158 -0.11516397 -0.07008349 0.06589349 -0.080399565
-0.05528105 -0.015250331 -0.024651207 0.1124016 0.22886339 0.05331337 0.10754529 -0.07348714
-0.1588023 -0.14444488 0.05990333 -0.060716573 -0.14905854 -0.19689803 -0.22559933 -0.14920098
-0.09628538 0.0969454 0.09557274 -0.22840518 0.049572848 -0.19892883 -0.03737241 -0.1341565
-0.03404989 -0.18155612 -0.21905209 -0.1526357 -0.027661925 -0.05464207 -0.14076884 0.009986894
-0.21987286 -0.011930171 0.09478167 -0.072105795 0.099494845 0.0034913707 -0.10086828 0.05121264
-0.020399053 -0.016242698 0.081469096 -0.20110002 -0.04029859 -0.12863888 0.0659337 0.10941581
0.024308387 0.06243027 0.019559685 -0.09748257 -0.20618692 0.034702074 0.14035682 0.18348406
-0.124694444 -0.7238636 -2.5654175 -0.09731277 -0.10300875 0.14016639 -0.058596436 0.10241286
-0.4234472 0.11395433 -0.58939403 -0.12135936 0.02103678 -0.8856323 -0.015714798 0.21118045
0.06392378 0.15029292 0.036227636 0.006274464 0.117333926 0.06153256 0.011850606 -0.22095749
-0.13592555 -0.09265422 0.24052523 0.0036981767 -0.1963239 0.18006335 0.06385829 0.14134572
-0.15319644 0.004993248 -0.18615623 -0.050180584 -0.05931147 -0.08770585 -0.059603233 0.08326481
-0.03680454 0.15833761 0.050743986 -0.11176069 0.018576717 -0.18499884 -0.13588706 -0.009744538
0.058370266 0.06981164 -0.11678812 -0.06159812 0.028781338 -0.23050506 0.06644491 -0.21603642
-0.057966862 -0.030055001 -0.15490259 -0.036599424 0.08799107 -0.11241182 -0.10495128 -0.12862924
-0.17521192 -0.93474746 -0.11014698 -0.117970206 -0.1018413 0.16698255 0.15803996 0.20363286
0.1035981 -0.059036292 -0.001330165 0.052225128 0.09135897 0.0063219876 -0.021782076 -0.017473973
-0.1671369 0.099904545 -0.031885885 -0.08680075 0.22175542 -0.051038038 0.043252252 -0.07364884
0.07043456 -0.11894981 -0.081319146 0.090646856 0.09244909 0.20978838 -0.059262726 0.117854185
-0.040424623 -0.0078614615 -0.16771968 0.05978604 0.055890765 -0.06370167 -0.099812485 -0.048916932
0.06219396 -0.13159683 0.012364236 -0.059441786 -0.14534411 -0.028297992 -0.091827884 -0.01932487
0.03471556 -0.13125484 -0.030622022 0.015239277 0.009918624 -0.022252418 -0.20497435 -0.027250845
0.0013408278 -0.06450177 0.06710109 0.05767163 -0.15235922 -0.058311712 0.07309698 0.013855376

bias f4 [64]
00000000: 6c62 59bd 2f2a 693e 0530 2abd c249 c2bd
00000010: 75d8 c6bd c12a 20be 8887 453e ccbd 87bd
00000020: ed3e 61bd 9300 df3d f18b 26be a446 303d
00000030: 0809 e5bd a9b8 333e a8c8 983d 26d8 523e
00000040: 14ac b33d 7ea9 c3bd e428 dfbd 1fbe d43d
00000050: fc3e b6bd aa42 b4bb 9668 2dbe 99ac 1f3e
00000060: a06d 5c3e 86d2 59be 39f0 6e3e 436c e83c
00000070: 695e 35be 79ca 743e c13e 92bd dac0 08bd
00000080: 0dcd 10be c873 813e f146 b13d d641 d4bd
00000090: 417f 6abe c108 493d 9733 433e 3902 393e
000000a0: f99c 1e3e ee3a b53d 01ee dd3d 492a 4abe
000000b0: 63d2 0c3e 0fa7 71be 3e54 553d f398 f3bd
000000c0: 7684 913d 39cd 803d 4597 9b3c 900c 08bd
000000d0: a120 4fbe 2814 afbd 4a74 eb3d d185 2d3b
000000e0: 5bb3 1fbb 0186 443d 1100 47be 77cd b6bd
000000f0: 66b3 753e cde8 bb3d e178 eabc 5407 f33c
-0.053072378 0.22769998 -0.0415497 -0.094867244 -0.09709255 -0.1564131 0.19289982 -0.06627998
-0.05499165 0.108887814 -0.16264321 0.04303612 -0.11183363 0.17550911 0.07460147 0.20590267
0.08773056 -0.095538124 -0.10896471 0.10387825 -0.08898732 -0.005501111 -0.16934428 0.15593185
0.21526194 -0.21271715 0.23333825 0.028371936 -0.17711796 0.23905362 -0.071408756 -0.033387043
-0.1414072 0.25283647 0.08656109 -0.1036412 -0.22900106 0.049080614 0.19062649 0.18067254
0.15489568 0.088491306 0.10836411 -0.19742693 0.13752131 -0.23598884 0.052082293 -0.11894407
0.07105343 0.06289143 0.01899303 -0.033215106 -0.2022729 -0.085487664 0.1149679 0.0026477466
-0.0024368379 0.04797936 -0.19433619 -0.08925908 0.23994216 0.091752626 -0.028622093 0.02966658

weight f4 [64, 64]
00000000: 1e5d 093e 4cba 513d 2dcd 333c c6c6 283d
00000010: e2b3 003e 3f93 423d c03c 0f3e e1e0 25be
00000020: a508 a93b 52d5 263e 81de a53d fc9c d73d
00000030: c307 d03d f052 1f3d b005 763c 6cc1 d23d
00000040: 2c64 ccbc 5c5b 8a3e 9b56 a83d 462a c53d
00000050: 8cfa 653d 5c14 b6bc 1537 94bd 2e99 69bb
00000060: 8c3a 073e f083 b4bc 6073 293e 6c94 e63d
00000070: 5c9c 3bbd 1458 573e 8237 5bbd 474a 723d
00000080: e1ab 06be 62e2 0cbf 0cd0 c33d 43db e5bd
00000090: dc00 1a3e 48e7 07bd 5531 3b3e 5fa3 0d3e
000000a0: 0fb1 333e 768d d43c 2a0e 04bb d23a b4bc
000000b0: 60ac 393e efbc 0abb 3d74 96be 8120 a2bd
000000c0: 03c4 1fbd 3859 e4bc bf3e 023e b766 efbc
000000d0: 8ed1 363e 420d 783c c881 2b3c 1591 493d
000000e0: a9c3 ce3d 7e6b aabd c7c2 84bd f410 b43d
000000f0: aa89 453e 5cdc 033e b280 fa3d b7fa c53d
00000100: 810d 8fbd 9e72 23be cabe dfbd ba0c d5bc
00000110: 4605 e83c 579f 503c 399d e4bd e015 9fbb
00000120: 1b36 7dbd d02a 11be 33ec 81bd b276 f0bd
00000130: 9e3b 233d aef6 0f3d b63d 94bd b8e7 6cbd
00000140: fdab 073c 084e 2abd fabd e2bd 7513 403d
00000150: ac9b 893d 3cec 13be fab4 d73d 5001 21bd
00000160: 00b6 df3b 66aa 2cbe 08f9 16bd e05b 863c
00000170: 38ba 93bc 4c47 06be 39a5 233d c5fe faba
00000180: 0cd2 113d 9213 71be 51af 6abd b8ce 923d
00000190: e70e 063d c5d7 08be d8f2 49bc b1cd dabc
000001a0: 422b 4cbc 33a3 3d3d 0bf7 9cbd e0c5 22bc
000001b0: c7f5 ddbc ddb7 1fbe 729b eebd 9c96 3f3d
000001c0: 3429 8cbd 3587 90bd 88f6 c13d 7d2c 2ebd
000001d0: 9208 a53d efde 32bd 3f74 eebc 8051 37bc
000001e0: c268 2abd 72dc d83d 4dd8 ce3c 2690 f2bd
000001f0: 01a2 e5bd 1e5b 30be a821 4cbd 003d 843c
00000200: 7c8f f2bd 8295 a8be b4cf a93c 702d 97bd
00000210: 6227 153d 9c88 1f3d 0693 dfbd 9e5e cb3d
00000220: a3cd 2cbe b8de 1e3d 8d14 52bc 6a8b 5cbe
00000230: c826 f93c 9580 0cbe 91fb d1bd f406 0ebe
00000240: 388e cfbd bee0 663d a63c a33e 5ecd 04be
00000250: 8650 26be 2093 fabb f04f 073c ad7f f2bc
00000260: f024 c4bd fc03 153d 5130 87bd 3a41 91bd
00000270: 1ccb 9ebd f5a0 8ebe e1f1 24be 1acc aabc
00000280: 609f 11bc 6262 483d 7d9d 10be 020c a7bd
00000290: f8aa aa3c 0134 63be eb18 4bbe aa51 fd3b
000002a0: 4d4b 2cbe 9d15 b63c c103 19bd a479 3ebd
000002b0: 8f42 c33b 32d3 91bd f2c9 9cbd 282b e63c
000002c0: 98cd 653d 4625 2fbe a0ee c83b d1dd c1bd
000002d0: 56fb a53d 6f7d 1fbe b0a0 0cbe 5dc4 b63c
000002e0: 9361 afbd e036 03bc 7e60 cd3d 4e55 cebd
000002f0: 8daa 1dbe 1adc ccbd 3cd1 4abd 0095 ea3b
00000300: 7f4b 4e3d 8197 abbd 30a2 2abe 525d efbd
00000310: 8201 28be b03b b3bd 683e ebbd 2055 78bb
00000320: 119a 36bd ef59 2ebe bb66 343d 45c8 f4bd
00000330: ea82 de3d cdec afbb d84d d1bd 6dae cebd
00000340: 1905 093a 42bb 123d 2b9b 11bd 7ed6 80bd
00000350: 5b8c f9bd b237 5fbc a0ed c9bb 6016 f6bd
00000360: 4929 2dbe 9cd7 9e3c d07c aebd 4887 fbbd
00000370: 1cfc f63d 30ff 453a a81f 0abe 36ea 1abe
00000380: 4660 f73d 9127 43be a17e 0abe 7a50 933d
00000390: 584c d5bc d3ff 52bd 0020 7bbe 8dbe e1be
000003a0: 238f 12be 9d20 97bd 6029 1abe 68a7 3b3e
000003b0: e67b 70bd 8802 44bd d9d8 00be 2cf6 e2bd
000003c0: 46ef fdbd dfb6 56bc 7e83 d9bd e8e0 123b
000003d0: 2025 2c3c f73f 28be 4ca9 3cbe d955 a8bc
000003e0: e6af 7eba 312b aebd 905e e2bd 708b 93bd
000003f0: 3f93 3fbd 2071 63bd 680f 033d 1b74 1bbd
0.13414428 0.051203057 0.010974211 0.04120519 0.1256862 0.047503706 0.13988018 -0.16199066
0.005158501 0.16292313 0.0809908 0.10527989 0.101577304 0.038897455 0.015016004 0.102907985
-0.02495011 0.27022827 0.08219644 0.09627204 0.056147143 -0.022226505 -0.072370686 -0.003564428
0.13205928 -0.022035569 0.16547918 0.11258778 -0.045803413 0.21029693 -0.053519733 0.059152868
-0.13151504 -0.5503293 0.09561166 -0.112234615 0.1503939 -0.03317955 0.18280537 0.13831852
0.17548011 0.02594636 -0.0020150044 -0.022000704 0.18132162 -0.0021169742 -0.29385558 -0.07916356
-0.03900529 -0.027874574 0.12719248 -0.029223783 0.17853376 0.01513988 0.010467954 0.049210627
0.10095913 -0.08321284 -0.06482463 0.08792296 0.19290796 0.12877029 0.12231578 0.09666961
-0.069849975 -0.15961692 -0.10925062 -0.026007045 0.028322827 0.012733302 -0.111628 -0.0048549026
-0.061819177 -0.14176488 -0.063438796 -0.11741389 0.039851777 0.03514736 -0.07238333 -0.05783817
0.008280751 -0.041578323 -0.110713914 0.046893556 0.06719145 -0.14445585 0.105325654 -0.039307892
0.006827116 -0.16861877 -0.03685859 0.016401231 -0.018033132 -0.13113135 0.03995249 -0.0019149414
0.035600707 -0.23542622 -0.0572961 0.07168335 0.032729056 -0.1336356 -0.012325965 -0.02670941
-0.012461485 0.046298217 -0.07664307 -0.009934872 -0.027094735 -0.15597482 -0.116507426 0.04677449
-0.06843796 -0.07057039 0.0947085 -0.042522896 0.08058275 -0.043669637 -0.029108165 -0.011188865
-0.04160381 0.105889216 0.025249625 -0.118439004 -0.112125404 -0.17222258 -0.049836785 0.016142368
-0.11843774 -0.32926565 0.020728923 -0.073817134 0.03641451 0.03894864 -0.10916714 0.09930156
-0.16875319 0.03878662 -0.0128222825 -0.21537557 0.030414 -0.13720925 -0.102530606 -0.1386984
-0.10134548 0.056366675 0.3188221 -0.12968966 -0.16241655 -0.007646933 0.008258805 -0.029601896
-0.09577358 0.036380753 -0.066010125 -0.07092519 -0.07753584 -0.27857175 -0.16107894 -0.020849276
-0.008888096 0.04892195 -0.14122577 -0.08156587 0.020833477 -0.22187807 -0.19833724 0.0077306824
-0.168256 0.022227103 -0.037357096 -0.046502724 0.005958862 -0.071203604 -0.076557055 0.02809675
0.056104273 -0.17104062 0.006131962 -0.09466136 0.08104579 -0.15575193 -0.13733172 0.02231043
-0.08563533 -0.008008689 0.1002817 -0.10074864 -0.15397091 -0.100029185 -0.049515948 0.0071588755
0.050364967 -0.083785065 -0.16663432 -0.11687721 -0.16406825 -0.08751619 -0.114865124 -0.0037892535
-0.044580523 -0.17026494 0.044043284 -0.11952261 0.108648136 -0.005368805 -0.10219926 -0.10091863
0.0005226895 0.035823114 -0.03554837 -0.06290911 -0.12184974 -0.013624119 -0.0061623603 -0.120159864
-0.1691028 0.01938992 -0.085199 -0.12281662 0.12059805 0.00075529795 -0.13488638 -0.15128407
0.120789096 -0.19058062 -0.13524868 0.07193084 -0.02603738 -0.051513504 -0.24523926 -0.4409069
-0.14312415 -0.07379267 -0.15054846 0.18325579 -0.05871191 -0.047853976 -0.12582721 -0.1108211
-0.123991534 -0.013105123 -0.10620783 0.0022411887 0.010506898 -0.1643065 -0.18423957 -0.020548748
-0.0009715542 -0.08504332 -0.110531926 -0.0720433 -0.046771284 -0.055527806 0.031997114 -0.037952524

bias f4 [64]
00000000: e090 ed3d a5e6 35be 56c9 6dbe 4867 c63c
00000010: 5e9d 0abd 7d69 023e 3660 303e 7f9c b03c
00000020: 37a2 b3bc 36ee 3cbd e383 18bb fed3 1b3e
00000030: 87dc 65bd 2e5b 61bd c397 2a3e 449d 2bbd
00000040: 04ad 173e 32ee 883a 903f f1bd 9720 afbc
00000050: 9318 4cbd e008 3e3d 3eaa 14bd 9209 323d
00000060: 7b42 073d 9489 15be 94d5 853d cd4f 963d
00000070: 3893 413e 6347 e23d b8d1 b13d 2857 303e
00000080: 2f35 1cbe 59f4 c93b c2aa dcbe 37c8 8a3d
00000090: 7fa6 653d 2ed4 493d a66a 6c3d 6985 bc3d
000000a0: 8a61 e43d cbdc 5c3d dc70 31be f792 3fbe
000000b0: f23a d4bd a3ac b1bc 2b52 43be 47f3 91bc
000000c0: 1f1a 453d 4df7 2f3e 0bf3 4dbd 99c1 e73d
000000d0: f29e 14bf 0ba3 063d 90b6 223e 806f 01bb
000000e0: 9935 343e 664a 0ebd d5b8 0fbe d397 e0bd
000000f0: f0f5 cc3d 6a5e 4d3e 194f 133e 5020 fdbc
0.11599898 -0.17763765 -0.23221335 0.02421917 -0.033841483 0.12735553 0.17224202 0.021558998
-0.021927936 -0.046125613 -0.002327197 0.15217587 -0.056118514 -0.055018596 0.16659455 -0.041898027
0.14812094 0.0010446964 -0.11779702 -0.021377845 -0.049828123 0.046395183 -0.036295168 0.04346616
0.033022385 -0.14603263 0.065348774 0.073394395 0.18903816 0.11048772 0.08682579 0.17220747
-0.15254663 0.0061631617 -0.43099028 0.06776469 0.056066986 0.049274616 0.057718895 0.092051335
0.111514166 0.053921502 -0.17328209 -0.18708406 -0.103628054 -0.021688765 -0.19074313 -0.017816199
0.048120614 0.17184182 -0.050280612 0.11316223 -0.5805503 0.032870334 0.15889955 -0.0019750297
0.17598571 -0.03473892 -0.14035352 -0.10966458 0.10007846 0.20055547 0.14385642 -0.030899197

weight f4 [64, 64]
00000000: c2d7 9bbd 652c 06be cab1 803e 3926 4abd
00000010: b73d 07be d2ac 883e 2b2d 383e 6a8a c13d
00000020: 6f0a 6d3d b327 393d f955 9c3d dffa 043c
00000030: 8405 3c3e 21e1 173e ee28 c0bd 01c8 42be
00000040: de57 0fbd 9653 d2bc 3eb8 7c3d 59e4 5e3d
00000050: a8e8 383d c5bb 8c3d 2124 b3bd 2119 1abd
00000060: 2d57 ae3c 91ed 123e 7571 22bd 059d b23d
00000070: 76e8 adbd d289 983d 5810 523e 9a28 933c
00000080: 4f45 47bd 4bfe 32bd 4f25 1d3d 456c dd3c
00000090: 57c4 82bd 9d88 953e b501 483e 4f11 183e
000000a0: c0d5 b03c b9ca ed3c 4233 9d3b 14a2 3fbe
000000b0: 500b 71bd 79e1 d63d 9855 08be 51c6 b63d
000000c0: 866b 3cbd 5d3b bfbc f6a1 a1bd ede6 8dbd
000000d0: 6a02 6c3e 2257 253e a358 823d c4e5 bfbc
000000e0: bb67 71bd d69f aabd c447 e1bd dcc5 18bd
000000f0: 5589 3b3e a1a4 403e de63 0fbd 704f 953c
00000100: a5d7 4bbc b0cd e2bd 8549 ab3d 947a 1ebd
00000110: bb1c 9bbd 4b23 4e3e 4c70 5c3d 423f 5cbd
00000120: 649e 6b3d 4e34 09be da51 7a3d da80 2cbe
00000130: 12be f53d 3ab3 22bd 3aae 12be 8815 0fbe
00000140: ec90 d7bd aaa8 0dbe 21c4 b63b ff88 30be
00000150: 8bf6 a3bc adf2 323d 9e99 8dba b187 40bc
00000160: 4664 8b3d b819 303d e758 14bd 3bcf 2f3d
00000170: e8db f0bc b203 72bd d2f2 d53c c1b0 67bd
00000180: 1d43 b33d 9e97 323e 9609 033e ffde c63c
00000190: 80ec 0bbe 1d43 803d 16d7 05be 6828 a73c
000001a0: b52f 2bbe ccdd ecbd 3e40 0fbd 4756 9bbe
000001b0: f010 5c3c 47cd 7d3d 364a 90bd 8e0b 12be
000001c0: 45aa 4d3e 6e3a ab3d eaa9 d7be 1316 62be
000001d0: 5842 953e d2a3 fc3c bd55 6f3d 92f3 0abe
000001e0: 3be7 0cbd 489e d8bd dfed 1f3e 5b4a dcbd
000001f0: e6d2 e33c 367c 6e3d 6dbd 7c3d b0b9 143d
00000200: d80e 37bd 04eb 5c3d 3a97 93bd b886 6ebd
00000210: 246d fabd 09f1 afbd 4780 f1bd 82f4 db3d
00000220: b0d8 c8bc 942b 3dbd 1e57 823d 3972 96bd
00000230: ae8d adbd 41cb 04be fd55 f4bd 0443 b9bd
00000240: 4e82 0fbe c5a0 94bc c05d 2c3c edef e3bd
00000250: d0c2 363d e845 20bd 6495 c5bd 7cd6 2f3d
00000260: e859 2ebd 7cb7 17bd fe02 b83d a6eb 053d
00000270: e439 3cbe 9f33 85bd 938b 5b3d 5a0e 1bbe
00000280: cc3b ffbd 9ad7 c7bd 80ed 07bd 1b86 88bd
00000290: 27bd debc daa5 aebd 1d5b 12bd f2da c7bd
000002a0: 9538 723d 4e86 dc3d 0473 793d 28a8 df3c
000002b0: 36f3 8ebd 5225 83bd b4b0 b6bd d38c 5e3d
000002c0: b532 26be a91a 7dbd f87c 763d e7d4 f8bd
000002d0: c66e e4bd 34a0 343d e70d 21be d031 ecbd
000002e0: ee3a 9abd b247 df3c b674 a0bd 20e9 4cbd
000002f0: ed87 e5bd 1240 e03c 2f23 8ebd 30bd 923d
00000300: 90b9 183d add6 92be a686 783e a08e e23d
00000310: b570 9f3d 8f89 033e 06a7 36bc f3ae 123e
00000320: da18 e3bc 9d79 123e 7c78 01bd 230a 4a3e
00000330: c53b df3d 02b2 cdbd 4276 25be 30a0 923e
00000340: 35f9 9d3d 935c 83bd 091d afbb a26b a63e
00000350: 7ae4 fd3d 3167 373e 2c4c a13d 8858 5dbc
00000360: 34d9 8abc d3b2 c9bc c00d 3d3e bd0d b43d
00000370: 737a 0f3c 8539 8fbc 004c 413e 146f 0dbd
00000380: 30c0 61bc ab73 eb3d 9abe ae3b 7a6d 253c
00000390: a9d7 25bd f4fb 5f3e 12a5 1d3e 5c0e f53c
000003a0: c389 27bd 45f2 3a3e 1732 1e3d 2e82 d13b
000003b0: a866 a33c 5f51 35bd d837 35be b749 473e
000003c0: 0208 f73d 271d 483d 3c58 55bd 7c7c 033e
000003d0: 90fd af3e 4be4 983c 67d0 863d eecf 81bd
000003e0: 7aa3 17be a3d6 4bbd 749d 8d3d 2d0f 50bd
000003f0: 6c1a 243e c6f1 153e 6ca1 4e3e 70e3 43bd
-0.07609512 -0.13102873 0.25135642 -0.04935286 -0.13207136 0.2669435 0.1798598 0.094502285
0.05787128 0.045203876 0.076335855 0.008116453 0.18361479 0.14831974 -0.09382807 -0.19021608
-0.034995906 -0.025674623 0.061699145 0.054416988 0.045143753 0.06871752 -0.087471254 -0.03762162
0.021281803 0.14348437 -0.039658982 0.08721355 -0.08491604 0.07448162 0.20514047 0.017963696
-0.048650082 -0.043699544 0.03836566 0.027029166 -0.06385105 0.2920579 0.19531901 0.14850353
0.021586299 0.02902733 0.00479737 -0.18714172 -0.05884868 0.10492224 -0.13313901 0.089245446
-0.04600098 -0.023343736 -0.0789222 -0.06928811 0.23047796 0.1614652 0.06364562 -0.02342499
-0.058936816 -0.083312675 -0.11000016 -0.03729807 0.18314107 0.18812801 -0.03500735 0.018226355
-0.01244155 -0.11074388 0.08363632 -0.03869112 -0.07573839 0.2013065 0.053818032 -0.053771265
0.0575241 -0.13398859 0.061113216 -0.16846028 0.11999144 -0.039721705 -0.14324275 -0.13973057
-0.105256885 -0.13833871 0.0055775796 -0.1723976 -0.020015022 0.043688465 -0.0010803228 -0.011751101
0.06806235 0.042993277 -0.036217596 0.04292224 -0.029401734 -0.059085555 0.026116762 -0.05656505
0.08753035 0.1744065 0.12796625 0.024276255 -0.13664436 0.06262801 -0.1307033 0.02040501
-0.16717418 -0.11565742 -0.034973375 -0.30339262 0.013431773 0.061963346 -0.070454046 -0.1426222
0.20084484 0.08360754 -0.42121822 -0.22078733 0.2915218 0.030839834 0.058431376 -0.13569477
-0.034400206 -0.10577065 0.15618084 -0.1075637 0.027810525 0.058223926 0.061704088 0.036309898
-0.04469189 0.053935066 -0.072065786 -0.058233947 -0.12227848 -0.08590896 -0.11792045 0.107399955
-0.024517387 -0.046184137 0.063642725 -0.07346005 -0.08474289 -0.1296816 -0.119304635 -0.09045985
-0.14014551 -0.018143067 0.010520399 -0.111297466 0.04461938 -0.039129168 -0.096476346 0.042929158
-0.04256621 -0.03704022 0.08984946 0.032695435 -0.18381459 -0.065039866 0.053599905 -0.15142193
-0.12462577 -0.097579196 -0.033185482 -0.066662036 -0.027189804 -0.085277274 -0.035731424 -0.097585574
0.059135992 0.10767804 0.060900703 0.027301863 -0.069799826 -0.06403603 -0.08920422 0.05433352
-0.1623028 -0.061793003 0.060177773 -0.12149983 -0.11153941 0.044098094 -0.1572796 -0.115329385
-0.07530771 0.027255867 -0.07834761 -0.050027013 -0.112075664 0.027374301 -0.069403045 0.07164991
0.03728634 -0.2867941 0.24270114 0.1106236 0.07785169 0.12845443 -0.01114822 0.1432455
-0.027721811 0.14304204 -0.031609043 0.1973043 0.10900072 -0.10043718 -0.16158393 0.28637838
0.07713548 -0.064141415 -0.0053440374 0.32503992 0.12397094 0.17910458 0.07875857 -0.013509877
-0.016949274 -0.024621403 0.18462276 0.08791683 0.0087572215 -0.017483482 0.18876648 -0.03452976
-0.013778731 0.11496671 0.00533278 0.010096902 -0.040488873 0.21873456 0.15395 0.029914074
-0.040902864 0.18256481 0.03862199 0.0063936925 0.019946411 -0.044267055 -0.17697084 0.19461714
0.12062074 0.048855927 -0.0520861 0.12840456 0.3437314 0.018663546 0.06582718 -0.063384876
-0.14808455 -0.04976524 0.069147974 -0.050795723 0.16025704 0.1464301 0.20178765 -0.047824323

bias f4 [64]
00000000: 9a3c 903d e3b4 f93c 4b54 7abe b2d4 263d
00000010: ca23 a33b c316 9ebe 47c5 683b c79e 0f3e
00000020: ce8b 11be 46c5 3f3e c5b4 303e 420a 8d3d
00000030: 0d5f a63d 0cd7 cb3d 3eb8 fcbc 0881 10bc
00000040: 251d e83c 9acc 263e 575c d63d 7d84 9e3c
00000050: cf06 74bc 4f45 463e d2d1 d73d 4f02 e1bd
00000060: 03ab 55be dfdd 7c3c ff40 2c3e 73ee 3c3e
00000070: 797b 14be 11e6 343e a68b ff3c 7750 e03d
00000080: e635 1b3e 76fc 78be 4b05 33be ca80 ae3c
00000090: 3fca adbd c83a fd3d 5561 093e 7943 093d
000000a0: e007 873d dbb5 ef3c cbcb a83d 48e7 603d
000000b0: af6d 01be 17eb b63d 0bb6 f6bd a3a1 1d3e
000000c0: acde 4ebe 114b 3e3d 293a 2ebe 807e 503e
000000d0: fb10 343d a242 303e aa26 093e a26d 95be
000000e0: f409 3b3e 856c a3bd 8a5f 453e e41c 993d
000000f0: 782b 243c 1080 1a3d 2539 e93d 545d 983d
0.07042809 0.030481761 -0.24446218 0.040730186 0.0049786316 -0.3087674 0.0035517977 0.14025412
-0.14213488 0.18727598 0.17256458 0.06886722 0.08123598 0.09953126 -0.030849572 -0.008819826
0.02833421 0.16288987 0.10466831 0.019350285 -0.014894201 0.19362377 0.10538067 -0.109867685
-0.20866017 0.015433758 0.16821669 0.18450336 -0.14500226 0.17665888 0.03119452 0.109528475
0.1515728 -0.24315056 -0.17482488 0.021301646 -0.08485841 0.12364727 0.13416035 0.033511613
0.06593299 0.02926152 0.082419954 0.054908067 -0.12639497 0.089315586 -0.12046441 0.15393691
-0.2020213 0.046458308 -0.17014374 0.20360756 0.043961506 0.17212918 0.13393655 -0.29185206
0.18265516 -0.07979683 0.19274727 0.074762136 0.010020129 0.037719786 0.113878526 0.07439676

weight f4 [64, 64]
00000000: 7da7 23be 909b 163d 885c 8bbd 2191 babc
00000010: f0b2 243d f8dd eabd 1555 8abc 2963 2a3d
00000020: 6819 a3bc 4694 36be 343c 25be 98a6 5c3d
00000030: 9c9e a3bd 1ac6 b13d ae4a 233d 1451 9ebd
00000040: 60a4 bebd 7f14 22be 5f02 04bd 812e 013d
00000050: 2c0f 2fbd 34ff 64bd 8be0 8ebd ac06 debd
00000060: 4a87 f93d 3382 07bd 8c50 6a3d 9fc8 2cbe
00000070: 7faa c03c aa7f bebd b2ff 9abc 12d5 bbbd
00000080: 3b22 07be a6a6 d13d 40f8 1b3d 1496 833d
00000090: 4eea 993d b5a5 b53c be10 12be 06c2 4fbd
000000a0: 2243 cbbd a2e0 91bd 914a 4cbd b822 f6bc
000000b0: 9453 97bd 1899 a4bd d6b8 193b 4cde bcbd
000000c0: 90d7 a4bd 365c 00be 3eda b2bd 735d 17be
000000d0: 2cdb 8bbd a151 2abe 2d8a 37be 2297 b33d
000000e0: 88aa 19be b7ec e03c 4a89 52bd 0911 2b3d
000000f0: d82a 163d 3a71 21be 894a 34b9 867e bf3c
00000100: b229 2e3d a725 7dbd 5c14 2cbd b8ec 0a3c
00000110: 7da0 2bbd c45a 20be 136b 8ebd 7d5a f53d
00000120: 96b0 fbbd da4e a2ba 71f4 cc3d a1b9 5f3d
00000130: d471 a2bc 25ff 813d 9fe1 293d 2592 46be
00000140: 6a5f 80bd ddcd c53d 1125 01be c685 76bc
00000150: ae60 083e 2d0e 23bd 2932 acbd 7d9b 98bd
00000160: 4060 fd3c b8d2 ae3d 5c33 44be 307d 6e3c
00000170: 2c4e c43d 8188 aa3d 051d 08be b42c 4ebe
00000180: 3034 30bd d93e 833d ed39 34be d37e 003e
00000190: 96c2 dd3d b2d2 0bbe cbdc 053d f17b 863d
000001a0: 11b7 533d baed 22be af4b e6bd 2231 35be
000001b0: 1ce4 9cbd 8a87 bd3d 1b59 b5bd 8c45 bd3d
000001c0: a2ef af3d 0c7d 6fbb af13 403e 8a6f f93c
000001d0: b629 a4bc 3fef 6e3d 1c98 c43c ed29 e53d
000001e0: a982 89bc 50b0 f53c e921 543d 2444 fbbd
000001f0: c58b 23bb b4e9 b1bd ab28 833d 95a0 26bb
00000200: 8933 c83d e7a3 503d 35fa 9f3d 6761 52be
00000210: a668 1a3e 5c92 ab3d 1b4c a53d c08f 4a3d
00000220: f934 b13d 317f 4a3e d96e c23d 6ae2 f8bd
00000230: fe65 303d 0a7b ac3c be52 683d 5419 3bbf
00000240: 3111 bf3d d63c ab3d ea0d 393e 419d c9bd
00000250: ee66 3cbf 5eec 85bd d5c4 983c 84e7 ec3c
00000260: c940 343d 3600 fb3b 0341 9e3d 51c7 de3d
00000270: e1b5 0fbd a28d 263e 80e0 4b3d 5062 ce3d
00000280: b3c3 3abd 24c3 10bd 588f 293e a8f8 dc3d
00000290: cd44 61bd c04d 823d e113 2ebd 65c4 5cbd
000002a0: 1129 233e 2f20 053e 914c 5b3d 930f 143e
000002b0: 3727 403b b416 f63d e832 acbc 10fc 1fbd
000002c0: d5cb a13c 6324 c2bb 54db 453d 2d21 18bd
000002d0: 0fa9 393e 63d5 043d 8c02 b03d 9266 32be
000002e0: 3da3 a43b 2b5e 593c f5e3 ee3d c49a 233d
000002f0: 4006 aa3d d921 313e f276 963d 58e3 193e
00000300: 75d3 933d 483c 613e f03d 463c 862f bfbe
00000310: 140e 14bd 4813 483d e8ce c3bd 384f 9e3d
00000320: 48a8 8fbd 503b 923c 7b26 993b b9b1 16be
00000330: 7f04 863d 9a95 9ebf e8f6 9ebc 4ea4 0fbf
00000340: 0d6e 40be e5d9 963c 86f0 fcbd 89d8 ae3d
00000350: 2fbe d0be 7746 4cbe b7b9 683c daf8 1d3d
00000360: 3adc d7bd 7ae2 d03c 6057 acbd 867e 813c
00000370: 3264 00be d11d 98bd 8966 29be 2733 30be
00000380: 8b8d dbbd c017 b33d b807 ee3c 9465 cf3d
00000390: f85d dcbd a44b 983d 7eb9 6b3c 26e0 bd3d
000003a0: 040d 3abd 42ed 423d 196e 1a3c ed29 72bd
000003b0: 64f6 54bd de4a 58bd 812d 843c bee4 cfbd
000003c0: e814 a9bd 6a6c 783d 58ce b9bd b2ac 86bd
000003d0: 5877 f2bd 094e 2a3d b7aa 693d eb9c 1d3e
000003e0: a322 22bd ab08 2e40 b423 913d e8b1 12be
000003f0: 373a 8cbd 407c d8bc 52e0 71bd d174 27bd
-0.1598186 0.03676945 -0.06804758 -0.022774281 0.04020971 -0.114681184 -0.016886273 0.041598473
-0.019909576 -0.1783 -0.16136247 0.053869814 -0.07989237 0.08680363 0.039866142 -0.07730308
-0.09308696 -0.15828131 -0.032228824 0.03153849 -0.04273908 -0.055907443 -0.06976422 -0.10841116
0.121840075 -0.033083152 0.05720572 -0.16873406 0.023518799 -0.09301694 -0.018920753 -0.09171499
-0.13196652 0.10236864 0.038078547 0.064251095 0.07515393 0.022173742 -0.14264199 -0.050722145
-0.09924914 -0.071229234 -0.0498758 -0.030045852 -0.07388988 -0.08037013 0.0023456118 -0.09222087
-0.08048928 -0.12535176 -0.08733033 -0.14781742 -0.06828913 -0.16632701 -0.17923804 0.08769061
-0.15006459 0.027456624 -0.05140046 0.041764293 0.036661953 -0.15765849 -0.00017193904 0.02337576
0.042520232 -0.061803486 -0.042011604 0.00847929 -0.0419011 -0.15659624 -0.069540165 0.1198015
-0.122895405 -0.0012383119 0.10007561 0.05462039 -0.019829668 0.06347493 0.041474935 -0.19391687
-0.06268199 0.09658406 -0.12611796 -0.0150465425 0.1331813 -0.03980844 -0.08408005 -0.07451532
0.030929685 0.08536285 -0.19160217 0.014556214 0.095852226 0.08326817 -0.1329232 -0.2013424
-0.04301852 0.064084716 -0.17600222 0.1254838 0.1082813 -0.13654593 0.032681268 0.06566609
0.051688258 -0.15910998 -0.11244904 -0.17694524 -0.07660696 0.09254368 -0.08854886 0.09241781
0.08590628 -0.003654304 0.18757509 0.030448694 -0.02003942 0.05833363 0.023998313 0.11189637
-0.016785936 0.029991299 0.05179015 -0.12268856 -0.0024955135 -0.086871535 0.06404241 -0.0025425304
0.097754546 0.05093756 0.07811395 -0.20544969 0.15078983 0.08377525 0.080711566 0.049453497
0.08652682 0.19775082 0.09493799 -0.1215256 0.043066017 0.021054763 0.056719534 -0.7308552
0.09329451 0.08361213 0.18071714 -0.09844447 -0.7359456 -0.06539224 0.018648544 0.028918989
0.044007096 0.0076599373 0.07727244 0.1087786 -0.035085563 0.16264966 0.049774647 0.10077345
-0.04559679 -0.03534235 0.16558588 0.10789615 -0.054997254 0.06362486 -0.042499427 -0.053898234
0.15933634 0.13000558 0.053539816 0.14459066 0.002932025 0.12016049 -0.021020368 -0.039058745
0.019750515 -0.005924748 0.04830487 -0.037141014 0.18130897 0.032430064 0.08594236 -0.1742194
0.0050243423 0.01326708 0.11664573 0.039942518 0.08301973 0.17298068 0.07346906 0.15028131
0.072180666 0.21995652 0.012099728 -0.37340945 -0.03614624 0.048846513 -0.095609486 0.077299535
-0.07014519 0.017850548 0.0046737767 -0.14716233 0.06543826 -1.2389405 -0.019404843 -0.56110084
-0.18791981 0.018414447 -0.12350564 0.085373946 -0.407701 -0.19948755 0.014204434 0.0385674
-0.10540052 0.025498617 -0.08415103 0.015807401 -0.12538221 -0.07427562 -0.1654302 -0.17207013
-0.107203566 0.08744764 0.029056415 0.10126796 -0.107601106 0.07436302 0.0143874865 0.092712685
-0.04542257 0.047589548 0.009425663 -0.059122015 -0.05199279 -0.052805774 0.01613498 -0.10151051
-0.08255941 0.060650267 -0.0907256 -0.06575908 -0.11839169 0.041578326 0.057047572 0.1539189
-0.039583813 2.719279 0.07086888 -0.14325678 -0.06847041 -0.026426435 -0.05905182 -0.04088289

bias f4 [64]
00000000: 94d2 96bd 5c73 083e 3045 bd3d e102 83be
00000010: 7c42 8dbd 5f4b 2dbe a7f9 2abd 113f b1bc
00000020: fc85 99bd e7ca 3d3e ff98 073e d475 3cbe
00000030: 4e55 c53b eac6 343e 4d78 d6bd 759e 45be
00000040: 3e93 f0bd 8281 60be 5a7b c5bc 1f41 163d
00000050: 10ed 3b3e b256 cbbc 8d81 03bb 0518 203e
00000060: c0a9 b4bd 2e80 31bd 2344 93be 28ff 583c
00000070: e122 ee3d 326d c03d 4b1d c13c fe08 1fbe
00000080: d44f aabd aafa 31be e0b3 3a3e d581 26be
00000090: 5ea7 98bd 210a 913d c5d2 73bd ea71 6b3d
000000a0: c07e eabe 8cc2 153d 3b12 00be a11b 3a3e
000000b0: 3eb0 7cbe 46cd b7bd 55d1 70be 31a8 10be
000000c0: bda5 9f3c 8ceb e6bd 3770 12be c836 ed3c
000000d0: ca9a 273e f253 3dbe bd22 8b3c ce3d 383e
000000e0: 094a 113e 8f79 be3d a1e4 85bb 30bf 953c
000000f0: f1a2 09be cc61 81bc f061 01be 7b16 233e
-0.07364383 0.13325256 0.09241712 -0.25588134 -0.068974465 -0.16923283 -0.041741993 -0.021636518
-0.074962586 0.18534432 0.13241957 -0.18404323 0.006022132 0.17654005 -0.10472164 -0.19298728
-0.11746834 -0.21924403 -0.02410667 0.036683198 0.18352151 -0.024821613 -0.0020066232 0.15634163
-0.0882144 -0.043335132 -0.28762922 0.013244428 0.116277464 0.09395827 0.023573538 -0.15530774
-0.08316007 -0.17380777 0.1823268 -0.16260464 -0.07453798 0.0708201 -0.059527177 0.057481684
-0.45799828 0.036562487 -0.12506954 0.18174602 -0.24676606 -0.089747 -0.23517354 -0.1412666
0.01948821 -0.11275396 -0.14300619 0.028956786 0.16367641 -0.18489054 0.016984338 0.17992327
0.14188398 0.09300529 -0.0040860926 0.018279642 -0.13441063 -0.015793703 -0.12635016 0.15926544

weight f4 [32, 64]
00000000: 1252 7a3d 380c 1abd 9ed2 d1bc 6c8e dfba
00000010: 498c 053e 6fd5 e13d f5fc a63d 8bdd 013d
00000020: cb6d 9c3d 258d 0e3e cd99 9f3d f64b d0bd
00000030: 8aea 463e e5d1 1e3e 06d2 503d 5777 123e
00000040: c9eb db3c 8667 fdbd 63b8 a73d d86d 05be
00000050: 4efd d73c 8afd 843d e086 00bc dbbe 373e
00000060: ed85 b1bc 6a0b b8bc 6925 55be c39e 223e
00000070: 321a f93b 796a 93bd 76d5 1d3e 00cf 12be
00000080: 0832 843d 53f9 dabc f290 de3d d4fd 52bd
00000090: e6b1 083e 712e b4bd d6e6 903d 5ef9 2d3e
000000a0: adcf abbe 60f3 a33d 4e5b 093d 1aed 9e3d
000000b0: 129a bb3a 006f bc3c 4254 ad3d 17e4 f1be
000000c0: 77fa 8f3d 85b4 62bd 93dc eb3c 6f9c 483d
000000d0: 1a55 c7bc edba 493e 14dc debd ea77 013d
000000e0: 4856 123e b9fd 2b3e 9ab7 183e 56ba 7a3d
000000f0: 3393 4cbd fea6 393e 4cd1 bd3c d882 0ebc
00000100: 18d2 753d 5d72 0bbe 77d1 8cbc a794 12ba
00000110: c8f6 7a3d ec9b 52bd 4b6a ad3d c7ad 87be
00000120: 14cc d3bb a005 93bd 565e a4ba 544d 44bd
00000130: 6f4b 5abc e07c c0ba 1086 143c 18cf 17bd
00000140: b6fd 9d3d 66e3 ecbd d008 1fbc d37d 00be
00000150: b9a2 bfbb 40fe 76bb e0c8 0bbe a49a 39bd
00000160: f2f1 e03d 302e 2dbc 99f0 833d 6a05 11bd
00000170: 58f2 73bd 307a 89be 1521 28be 5424 73bd
00000180: 2cdd 59bd 7899 95bd 3cd1 4b3d 1d09 61bd
00000190: 402e d13b d7e9 85bd d880 80bd 83cb b9bd
000001a0: dcd6 3a3d d431 25be d0d9 c63d cd15 a1bd
000001b0: d4b4 78bd 10e9 c4bd 402e 47bc 4256 383c
000001c0: ae93 cdbc 9c79 fdbd e695 163e d402 8f3d
000001d0: ca2d 77bd b65b aebd 26da 96bd 89b0 21bc
000001e0: 35ab f7bc 74e2 053d 0f43 35bb 5f7f c0ba
000001f0: b4b9 4fbd 898e 28be 3fb1 823d 8959 dcbd
00000200: 341a 683d 4815 8abd 37b1 8c3d 830e 49bd
00000210: 2491 023d 9ac4 44bc 40a0 b2bd fc91 47be
00000220: 1fd2 6c3d 7111 11be 9732 dcbb 24fa 66bd
00000230: 69e1 233b df24 c63d f457 bfbd a7a2 4d3c
00000240: 3770 d3bc 92d4 cd3d 2d6f 6a3c dd7b 8dbd
00000250: 1ce4 09be 9036 6c3c 8876 aabd 8115 12be
00000260: 4708 2fbb 4e22 0a3c a359 603c ae5d e43d
00000270: 92c9 b1bb 15e8 eb3e f1c2 8ebd 9761 68be
00000280: 1c1a 75bd 59a5 7c3b 4ee1 cf3d 586f 1d3e
00000290: bc43 b03d 2ca4 36be 3b45 44be c36c b63c
000002a0: 0a22 ff3e 6412 353d 31c5 34bb e6f4 67bd
000002b0: 3049 613d e059 bdbc e0d5 6e3d e2d8 fcbd
000002c0: 6f64 fbbc f0dd 583c f722 1e3e 98ab 163e
000002d0: f2dc e63d 682f 94bd 4a03 b8bc 2842 12bc
000002e0: b364 e83b e4e0 073d 4de1 6c3d a3f3 313d
000002f0: 5a9d 5d3d d98e 2f3d 5cad b5bd 9073 87bc
00000300: 9407 e9bc bfd3 69bd 4e6f d93d 0c30 c0bd
00000310: 7509 173e b422 1e3d 6c80 e33c 1b01 b5bd
00000320: 6044 3e3e 5558 b7bb 803d 46be d138 33be
00000330: 3b7f 053e 5b24 e33c 6491 d53c cd72 133e
00000340: ff5e 5fbd 5688 9f3c b151 e03d 82af 4cbe
00000350: 0448 3cbb 482e 56bd a935 d3bb f196 393d
00000360: 3fe8 ce3c 4c2b 4abd 82ff c5bd 693a cf3d
00000370: cfc9 7c3d 7bf3 55bc 083a 02bd 8fe4 c1bc
00000380: 1e8a d6bd 4a55 e3bc 74b4 2c3e 2c90 e7bc
00000390: 7af4 243e 509c c1bc 30ab cb3c f40e 323e
000003a0: b8e8 76be 79d1 e23d 8c75 2dbd 3e61 313e
000003b0: b68d 66bb 586c 3dbd cfb6 5e3d 2d45 e2be
000003c0: 78ed 0b3e 94b1 ecbd c9e4 07bd ff8d 283e
000003d0: d59e 113e e6fb ca3d 6f86 11bd 9e76 29bb
000003e0: 0193 303e 5387 143e 967e 7fbd 26f3 9cbb
000003f0: 8eee 563d e913 f13d 6d98 5b3d 0b48 253e
0.061113425 -0.03760931 -0.025613125 -0.0017055995 0.13041796 0.11027037 0.081537165 0.03170542
0.07638129 0.1392103 0.07793007 -0.101707384 0.19425407 0.15509756 0.050981544 0.14303337
0.02684583 -0.12373261 0.08189466 -0.13030183 0.026365902 0.06493671 -0.007844657 0.179439
-0.021670306 -0.02246638 -0.20815052 0.15880875 0.0076019997 -0.071980424 0.1541346 -0.14336777
0.06454855 -0.026730215 0.1086749 -0.0515116 0.13349113 -0.087979205 0.070752785 0.16989657
-0.33556882 0.080054045 0.03353434 0.07760067 0.0014312884 0.023002148 0.084633365 -0.4724433
0.07030194 -0.055347938 0.028791701 0.04897731 -0.024332572 0.19700213 -0.1088182 0.0316085
0.14290726 0.16796006 0.14913788 0.06121286 -0.049945068 0.18130109 0.02317109 -0.008698188
0.060014814 -0.13617845 -0.017189724 -0.0005591609 0.061270505 -0.05141823 0.084675394 -0.2649977
-0.006463537 -0.07178807 -0.0012540321 -0.04792531 -0.013323649 -0.0014685653 0.009065166 -0.037062734
0.07714407 -0.1156681 -0.009706691 -0.12547998 -0.0058482555 -0.0037688166 -0.13650846 -0.045313492
0.109836474 -0.010570094 0.06442375 -0.035405554 -0.05955729 -0.26851034 -0.1641887 -0.059360817
-0.05318944 -0.073046625 0.04976009 -0.05494033 0.0063836873 -0.06538742 -0.06274575 -0.0907202
0.045615062 -0.16132289 0.09709513 -0.07865486 -0.060719326 -0.09614766 -0.012157023 0.011251034
-0.025094833 -0.12376711 0.14705619 0.06982961 -0.060346402 -0.08513586 -0.07365827 -0.009868749
-0.030233005 0.032686666 -0.0027658378 -0.0014686397 -0.05071421 -0.16460623 0.06381463 -0.10759265
0.056665614 -0.0674234 0.068697385 -0.049086105 0.031876698 -0.012009764 -0.087219715 -0.19489282
0.057817575 -0.1416681 -0.006719898 -0.056390896 0.002500618 0.09675001 -0.093429476 0.012550986
-0.025810344 0.1005031 0.014308733 -0.06908391 -0.13465923 0.014417306 -0.08323389 -0.14266016
-0.0026707815 0.00843103 0.013693246 0.111506805 -0.0054256404 0.46075502 -0.06970776 -0.22693478
-0.059839353 0.0038550703 0.10150395 0.15374506 0.08606669 -0.17836064 -0.19167034 0.022268659
0.49830657 0.04420699 -0.0027583356 -0.056630038 0.055001438 -0.023114145 0.058309436 -0.123460546
-0.030687539 0.013236508 0.15443026 0.14713895 0.11272611 -0.072356045 -0.022462506 -0.008926906
0.0070920824 0.033173457 0.05783205 0.04344524 0.05410514 0.04286084 -0.08870956 -0.016534597
-0.028445996 -0.057086702 0.10616933 -0.09384164 0.14749701 0.038607314 0.027771197 -0.088381015
0.1858077 -0.005595247 -0.19359398 -0.17502142 0.13036816 0.027727297 0.026070304 0.14399262
-0.054533955 0.01947419 0.109530814 -0.19988826 -0.0028729448 -0.05229023 -0.006445606 0.045309965
0.025257228 -0.049357697 -0.09667875 0.10118563 0.061715897 -0.013058539 -0.031793624 -0.023668556
-0.104755625 -0.02775063 0.16865712 -0.028266989 0.16108885 -0.023634106 0.024861902 0.17388517
-0.24112213 0.1107511 -0.04234843 0.17322251 -0.003517968 -0.046245903 0.05437356 -0.44193402
0.13664806 -0.11557308 -0.03317717 0.16460417 0.14220746 0.09911327 -0.035528596 -0.0025858055
0.17243578 0.14504747 -0.06237658 -0.0047897277 0.052473597 0.11771376 0.05361216 0.16140763

bias f4 [32]
00000000: 119f ef3d df03 35be 577e 8fbd 0617 0a3e
00000010: e8f7 773c ac8e c5bd 0704 1e3d 2d9a 2dbe
00000020: a84c a2bd 6470 ea3c c713 a53d f791 213d
00000030: 80d1 643d 429b 32be 022c b53d e0f2 00be
00000040: e3fe a03d 2d43 41bd 2b5f 103d 34d6 483d
00000050: b9d0 d93d 09f1 d4bc 0fab bf3d 4b4a aa3d
00000060: 9eff 203e 5e91 82bf 745a 45bd 79d4 223d
00000070: a6e8 033e e53a 79bc c99d a43d 2695 f0bd
0.117002614 -0.17677258 -0.07006519 0.13485345 0.015134789 -0.09646353 0.03857806 -0.16953345
-0.07924777 0.028618045 0.08060413 0.039445844 0.055863857 -0.17442039 0.088462844 -0.1259265
0.07861116 -0.047183204 0.03524701 0.049032405 0.10635514 -0.02599384 0.09358799 0.083149515
0.1572251 -1.0200613 -0.048181966 0.03975341 0.12881717 -0.015211795 0.08037908 -0.11747198

weight f4 [1, 32]
00000000: 7cc9 41be c9d2 e1bc 6510 2c3e 74b6 31be
00000010: 4241 903e 4ec1 353d e34b 3b3d db3b 75bd
00000020: 1aa9 003e cf70 373e 330a 323e 2e63 32bd
00000030: 76df 013e 3649 17bd ed32 ab3d 94d8 e4bb
00000040: e246 51be b838 e1bd dd2d 573d 14f2 ee3d
00000050: 864e 7abd bee6 3dbc 16e9 33be f85b 33bd
00000060: ee97 1cbe 1404 c4be a6c5 523e 518c 4c3e
00000070: 2970 e83d 575d 743c 8833 70be d241 f2bc
-0.18924516 -0.02756633 0.16803129 -0.17354757 0.28174788 0.044373803 0.045726668 -0.059871536
0.12564507 0.17914127 0.17386703 -0.043551616 0.126829 -0.036935054 0.08359323 -0.006983826
-0.20437196 -0.10997146 0.052533973 0.116672665 -0.061110042 -0.011590658 -0.17569384 -0.04378888
-0.15292332 -0.3828436 0.2058321 0.19975401 0.11349518 0.014914832 -0.23457158 -0.029572401

weight f4 [32, 1]
00000000: f2bf 263f 54fc e1be a083 46be 2051 f03e
00000010: 4ddc 88bf e17a cd3f 40aa b2be c1b7 e53e
00000020: b055 6a3e 00c4 fabd ac4e d03e 9108 c93e
00000030: 30ff ba3e f5f3 15bf 3051 95bd a7c7 74be
00000040: 306c 143e 00e7 82bb 64c9 5f3f 5054 9f3e
00000050: 1fb8 f3be b24d 8cbf 7a26 42be 9d8d 63bf
00000060: 392c adbe 801f 443d 2e8c 503f f277 323f
00000070: 68a3 b0bf 7596 6e3f fdc3 e93e f349 953f
0.65136635 -0.44137824 -0.19386148 0.46936893 -1.069223 1.6053125 -0.34895515 0.44866756
0.2288425 -0.12244415 0.40685022 0.39264348 0.36522818 -0.58575374 -0.07290876 -0.23904286
0.14494395 -0.0039948225 0.8741667 0.31119013 -0.4760141 -1.0961211 -0.1895999 -0.8888796
-0.33822802 0.047881603 0.814639 0.6971427 -1.3799868 0.9319833 0.4565734 1.1663193

bias f4 [32]
00000000: 8911 0a3f 5240 69bf 2e68 73bf 3cf4 f6be
00000010: 2e6d 683f 2ab4 5d3e 4412 ba3e 7658 06bf
00000020: 7fd2 7a3f 5ca0 d8be 3214 193f 972d 153e
00000030: 82dd 06bf 894a 023f d4e3 07bf 3c4e 543e
00000040: fcd7 93be 0088 e0bd 881d 76bf bc1c f4be
00000050: 2953 d63e 539e 57be bf71 823f 00bf 463f
00000060: 7f6b 3ebe 2ce0 2abf 8981 ff3e 502e 873e
00000070: 8254 6fbf 77dc b63e b623 163f d8a1 393f
0.53933007 -0.9111377 -0.9508084 -0.4823321 0.90791595 0.21650758 0.3634206 -0.5247873
0.9797744 -0.42309844 0.5979644 0.14568172 -0.52681744 0.5089498 -0.53082013 0.20732969
-0.2887572 -0.1096344 -0.9613881 -0.47678173 0.4186032 -0.2105649 1.0190963 0.7763519
-0.18595694 -0.6674831 0.49903515 0.2640252 -0.93488324 0.35715076 0.5864824 0.7251258

weight f4 [64, 32]
00000000: 8d73 02be fa5f eebc 7c6d 60bb 8a83 d33c
00000010: 7889 1ebe 82f2 04be 9f99 183e 33cc 903c
00000020: ef2e c93d 501e 253c 4355 e13d 0df9 573d
00000030: 16a3 833d 9fa6 2f3d e9a4 27be 260d 0d3e
00000040: cb8e febd a994 08be 2323 303c a4c6 f6bc
00000050: f507 da3d fab2 0abf a05c d2bd cb77 e03d
00000060: 9a3b 753d 9aa1 cb3d ac39 f53d c400 82bd
00000070: 1d70 1b3f 8f0b e93d 9ac3 88bd f257 a8bc
00000080: 2bcd fc3d d7b2 013d 5700 9abd 9130 5bbd
00000090: a1aa 4c3e 6a52 20bf 9d48 143e c925 023e
000000a0: 445f 82bd b6f1 19be 435f 613e 27db 833e
000000b0: 8e29 f83d 8b15 a13d 36e1 683d 0eee 353e
000000c0: 2ba5 2b3e f33d f0bd b00f b53c 4616 073e
000000d0: 8d96 2d3e 2237 e0be 26d3 01be 1fd7 0ebe
000000e0: 91b9 e9bd e6ed b53c 7ebe 843e 504f 383d
000000f0: ee97 41be ac49 5b3c 7e5b 00be 5cef f63c
00000100: 8dfa de3c c60d 283e 0ed7 e0bd 0622 1d3d
00000110: 378c 823d 2521 453d 9c2b 103d 8796 863d
00000120: 3764 103d cc06 3b3d 19ef 47be 0c0c 63be
00000130: c1e4 a5bd 245a bdbd 94e9 ddbd 2c3d 30bc
00000140: d617 603d e8f4 23bd 6e25 8b3d c002 6a3d
00000150: 55d0 093d 71ea 3f3d 5d3b 10be 86ed ab3d
00000160: b8b4 b5bd de02 c7bb 867a 6cbe 586e 3dbe
00000170: 9188 eabd 9047 17be 9b87 4f3d 3598 10be
00000180: b845 07be 5a4b 8b3d d9d3 673d 337d ea3d
00000190: 4d58 bbbd a7fd 1c3d e7cc 83bd 8eae 22bd
000001a0: f441 10be ca00 a5bd 18c1 5dbd 0dd2 9a3d
000001b0: 0248 043d e7db 323d 24ad 343e 2a6d 303e
000001c0: 6ced f63d 1f75 b83b 8b74 fabd e677 0d3e
000001d0: b410 35bd 3527 6abc aef2 1bbe a706 0fbd
000001e0: b282 e9bd fa56 263e ba7e 1cbe f819 0dbe
000001f0: 22b2 c4bb 89c2 c3bd ab8a 813d a35b 8bbd
00000200: 31de 1cbd 470a 243c 1e0a 033e a6aa febd
00000210: 7314 293e 2544 013e 67ff 843e e877 b2bd
00000220: ca54 fd3d bed9 05be 3cc1 6b3e 23aa 39bd
00000230: 3213 da3d 6ae3 b63d 7e92 61bc 11a7 a73d
00000240: a42d f63c e2a9 aa3d 4041 e83c 23e2 5c3d
00000250: 79bd 96bd df66 063e 7ed7 713e 48d5 6c3e
00000260: 9996 583e 16a1 02be da6f 473c 6235 6c3e
00000270: e492 b33d 8d13 763e 4e31 7bbd b7c2 a5bd
00000280: 3e96 ac3d 770f 02be fae2 25bd aab0 033e
00000290: 0435 003e 9cb3 2d3e 3b39 56bd 8ecf 47be
000002a0: b2b3 543e 573f 1abd 3c80 10bd 4b1e d83d
000002b0: b92e fdbd 1ae3 f63d c7e6 e23d 41da 03be
000002c0: 2daf 14be d1b4 7dbc c210 983d 40c4 a7bb
000002d0: cfdf 9abd a56b 75be faf1 17be 4f12 0cbe
000002e0: 8f35 29be 2d13 153e 7187 4c3e f2b8 ab3b
000002f0: c963 35be c961 033e 0d3f 733d 7d17 75bd
00000300: e74c e93c bb8e de3d 69db 27bc 8345 b2bc
00000310: ee49 bb3d 9630 9b3d 8e80 30be feec e23d
00000320: ff7b d5bc f57c f0bd 0fa1 d53c 5c37 57be
00000330: bb3f 273e b777 3cbe 11ca 4c3d 360f 8dbc
00000340: 403a 2c3d 3724 163e 615f 96bd 8bd7 98bd
00000350: cf7e 64be 443c 99bd 8ed5 1abe 793a 83bd
00000360: 8180 d3bd 893e 703d 0dba a43d 7f44 b2bc
00000370: 99ac f5bd 4b11 23be 8a1f 68be df6b 953d
00000380: cd93 bfbd 9f28 123d 8446 d63b 20b7 e6bd
00000390: 2acd 213d 10cd 1f3d 5b85 51bd fe4d 24be
000003a0: a269 0abe 7d8a 1f3b 5eeb 24be 5f7f 22be
000003b0: 5804 d8bc ea3d e3bd 40bf 313d 2427 dabd
000003c0: cef8 bfbc f92e 8abd 2a6d 25be 31df 1d3e
000003d0: 5fb0 d7bc 37df 213e d756 b5bd 47fa d5bd
000003e0: 692d 2abe 096f 89bd 1dd8 643d 7fcb 6ebe
000003f0: d941 7dbd 552a 433d 4755 2b3d 2c03 ab3b
-0.12739392 -0.0290985 -0.0034244945 0.025819559 -0.15482128 -0.12983134 0.14902352 0.017675495
0.09823405 0.010078028 0.110025905 0.052727748 0.064275905 0.04288351 -0.16371502 0.13774547
-0.12429579 -0.1333796 0.010750565 -0.030124016 0.10646049 -0.54179347 -0.10271573 0.10960349
0.059871294 0.099429324 0.11973891 -0.06347802 0.60717946 0.11379158 -0.06677933 -0.020549748
0.1234382 0.031664696 -0.07519596 -0.053513113 0.19986965 -0.62625754 0.14480825 0.12709726
-0.06365827 -0.15033612 0.22008996 0.25753137 0.12117301 0.07865437 0.056855403 0.17766592
0.16762225 -0.11730566 0.022102207 0.1319209 0.16951962 -0.43792063 -0.12678203 -0.1394925
-0.11412347 0.022208165 0.25926584 0.044997513 -0.18905613 0.013384264 -0.12534901 0.030143432
0.027219081 0.16411504 -0.109785184 0.038362525 0.063744 0.048127312 0.03519784 0.065716796
0.035251822 0.04566078 -0.19524802 -0.22172564 -0.08100272 -0.092457086 -0.10835567 -0.010756772
0.05471023 -0.040028483 0.067942485 0.05713153 0.033645947 0.04685444 -0.14085145 0.083949134
-0.0887236 -0.00607334 -0.23093614 -0.18499124 -0.11451829 -0.14773393 0.050666433 -0.14120562
-0.1321019 0.068014815 0.056598518 0.11449661 -0.091477014 0.03832784 -0.064355664 -0.03971725
-0.14087659 -0.08056791 -0.054139227 0.07559595 0.032295235 0.043666746 0.17644173 0.17229143
0.120570034 0.0056291963 -0.1222926 0.13815269 -0.044205382 -0.014291574 -0.15229294 -0.034918454
-0.11401881 0.16244116 -0.15282717 -0.13779438 -0.0060026804 -0.09558589 0.06325277 -0.06804588
-0.038297836 0.010012216 0.12796828 -0.12434892 0.16511707 0.12623651 0.25976107 -0.087142766
0.12369688 -0.13071343 0.23022932 -0.04532827 0.106481925 0.089300945 -0.013767837 0.08186162
0.03005106 0.08333184 0.028351426 0.0539266 -0.07360358 0.1312518 0.2361736 0.23128235
0.21151198 -0.12756762 0.012172664 0.23067239 0.087682515 0.24030896 -0.061326317 -0.080937795
0.08427094 -0.12701212 -0.040499665 0.1286036 0.12520224 0.16963047 -0.052300673 -0.1951277
0.20771673 -0.03765806 -0.035278544 0.10552653 -0.12362427 0.12055035 0.110791735 -0.12876226
-0.1451995 -0.0154850045 0.07425071 -0.0051198304 -0.07562219 -0.23966844 -0.148384 -0.13678859
-0.16524337 0.14558096 0.19973542 0.005240553 -0.17713846 0.12830271 0.0593863 -0.059836853
0.028479053 0.108670674 -0.010245183 -0.021761661 0.0914496 0.075776264 -0.1723654 0.11080359
-0.026060103 -0.11742584 0.026077775 -0.21017212 0.16332905 -0.18405043 0.049997393 -0.017219167
0.04204774 0.14662252 -0.07342411 -0.074629866 -0.22313999 -0.07482198 -0.15120527 -0.06407637
-0.103272445 0.05865339 0.08043299 -0.021761177 -0.11995811 -0.15924565 -0.22668281 0.072959654
-0.09354363 0.03568327 0.006539168 -0.11265397 0.0395023 0.039013922 -0.05115257 -0.16045377
-0.13516858 0.002434402 -0.1610541 -0.158689 -0.026369259 -0.110957935 0.04339528 -0.10651997
-0.023434069 -0.067472406 -0.16154924 0.15417172 -0.026329217 0.15807806 -0.08854454 -0.10448127
-0.16618885 -0.067106314 0.055870164 -0.23319815 -0.061830375 0.047647793 0.041829374 0.005218884

bias f4 [64]
00000000: d435 2b3e 6662 7bbd 9597 a4bd e7a5 13be
00000010: 5f26 5e3e a5df 203d 622f 093c fdc6 4bbe
00000020: 013a 213f 4da2 7d3d e8d4 803d 7e5d 4c3e
00000030: 6495 b8bd 3ff6 b2bd c393 703d d002 a3be
00000040: 42b8 9e3b e627 64be 49f0 43be 64d2 14be
00000050: d1ad 46bb ec0c 4cbd a47a 61bd abe5 cabc
00000060: 8893 593e 1e08 f0bd 8925 383e a4ee ddbd
00000070: be7e 943d c7d3 5f3c 9c9a e23d 64ad 59bc
00000080: 25a3 c3be c130 983d 6332 8e3d 3aa5 783e
00000090: 962e 253e d0b5 ac3c d844 853d c39f d53e
000000a0: ed1a 38bd 889b f43d b5df 6b3e f42a 043e
000000b0: 2476 263e 8db8 783e 3ca1 573e 6c42 b7bc
000000c0: 01de 2cbe ef19 9fbd 283d bbbd fb87 d4bd
000000d0: 645c f5bd c2a5 aa3d 2071 c9bc d8e0 b03d
000000e0: 5930 87be f951 43be 5e54 9f3b 4977 8c3d
000000f0: 743e b4bb 771a 19be 48cf f73d 1589 813d
0.16719753 -0.061373137 -0.080367245 -0.14418755 0.21694325 0.039275784 0.008373113 -0.19900127
0.6297913 0.06192236 0.06290609 0.1995754 -0.09012869 -0.08738374 0.058734667 -0.31838083
0.0048437426 -0.22280845 -0.1913463 -0.14533383 -0.0030316005 -0.04981701 -0.0550486 -0.024767717
0.21247685 -0.11720298 0.17983069 -0.10836533 0.07250737 0.0136613315 0.11064646 -0.013285968
-0.38210407 0.07431174 0.06943204 0.24281779 0.16131052 0.021082789 0.065072715 0.4172345
-0.044947553 0.11943728 0.23034556 0.1290701 0.16256005 0.2428915 0.210576 -0.02237054
-0.16881563 -0.07768618 -0.09142524 -0.10377499 -0.11980513 0.08332397 -0.024590075 0.086366355
-0.26404074 -0.19074239 0.0048623523 0.06858689 -0.005500609 -0.14951502 0.12100083 0.063249744
