UQ_assessment_1D/models_old/MCD_NLL/i1_nn64_nl4_o1_tr1_ep400_b50000_dr0.01_ns100_s36/model.pth (torch, 80584 bytes, 13 tensors)

weight f4 [32, 1]
00000000: 6244 a83d 0cfd 5cbe 3277 7fbf 6a6a 6bbd
00000010: 8353 203f 4874 6bbf c302 c33e 676c 733f
00000020: 5285 ed3e 6c7b 94be 8a00 7a3f 0c6f 4d3f
00000030: c270 193f 8c5d 6bbf 65de bbbe 9dc7 9abe
00000040: 8691 0fbf 6fad 3cbf 69a2 bbbe b791 38bf
00000050: c0bf 8cbc 4b54 1fbf 004b 333c 25e2 49bf
00000060: 2d5c 453f 00a9 d93c d530 54be 61ba d23e
00000070: 68f8 4bbe 25e8 afbf c873 583e 10bf be3d
0.08216168 -0.21580905 -0.9979125 -0.05747453 0.6262743 -0.91974306 0.38088045 0.95087284
0.46390778 -0.29000413 0.9765707 0.8024757 0.5993768 -0.91939616 -0.3669311 -0.30230418
-0.56081426 -0.7370214 -0.36647347 -0.72097343 -0.017181277 -0.62237996 0.010943174 -0.78860694
0.77093774 0.026569843 -0.20721753 0.4115782 -0.19918978 -1.374272 0.21137917 0.09313786

bias f4 [32]
00000000: efc7 4d3f 9e68 543f 8aaa 5fbf 17d1 533e
00000010: d878 5f3f 8680 18bf 408b 873f e7a8 b13e
00000020: a991 283f 1072 15bf fa7c 193f d04f 4fbf
00000030: 0f0f bb3e e8b4 e63e aff3 763e 351a 56be
00000040: 3ac9 fa3e 13b4 ef3e e2ce e73e 6495 4bbf
00000050: 043e a2be 96f0 b3be 5c83 1abf a1e1 2e3f
00000060: 6fca 743f b8a7 18bf b6fd 083f a7f7 003f
00000070: 0eac 6abf 8fff 81be 1a9e 6abf f9a5 323f
0.803832 0.82972133 -0.87369597 0.2068523 0.8729377 -0.5957111 1.0589371 0.34699175
0.6584726 -0.5837717 0.59956324 -0.8098116 0.36534926 0.45059896 0.24116395 -0.20908435
0.4898165 0.46817073 0.45275027 -0.79524827 -0.3168794 -0.3514449 -0.6035669 0.6831303
0.9562139 -0.5963092 0.5351213 0.5037789 -0.91668785 -0.25390288 -0.91647494 0.69784504

weight f4 [64, 32]
00000000: dac5 bb3b 14ad 9d3b afdc f73f 2e6f f93d
00000010: 374c d13d 520b 33be 0dc2 a13d f1fb 623e
00000020: d575 a53d ac57 c3bd c2ba 8d3d e1a3 abbd
00000030: fcd4 9a3d 0dea 0d3d 884b bd3d 19fb ecbf
00000040: 796c 403e 88fb 16bb df46 dc3d 8559 c1bd
00000050: d068 cb3d c70f 00bf b2a0 3cbd b108 8c3d
00000060: 6cf5 463e 0bea 913d d004 a2bd 658c 8d3d
00000070: 73a5 85bc 6ba2 05bf db66 86bd 5dc4 6ebd
00000080: 5ada 36be 943f ecba 62e8 e5bd f1ad 09be
00000090: a80c 8bbd 926f 5bbd c12b a2bd a096 b4bd
000000a0: 6fea ff3c d094 f8bd 5969 d5bd 81a1 943d
000000b0: 91f0 d4bc 1d1f a63d 2914 ebbd 8ac6 d0bb
000000c0: 1518 40be 1641 32be d2cd 75bd d42b 573e
000000d0: 81d8 643c 20de 063e 1b4c 163e 9091 083e
000000e0: 93c6 90bd 0c8d d6bc f7d1 8a3d c338 33be
000000f0: e9a8 0cbe 6286 4abe c153 f73b 0dd2 bf3d
00000100: a144 57bd cc04 9fbd 2615 75bd 1171 1fbe
00000110: c134 2cbe a946 4abd 9b1b 3dbe 293a 303c
00000120: fb33 babd f7ce bdbc 53da 8bbc 5a7e 97bd
00000130: c7be adbd 7823 f33d 056b 1dbe 0edd 53be
00000140: 8ded c43d 0b7b 3bbe 80bb 853d ce4b 16bd
00000150: 53b9 53bc 28e6 54be c64a 29bd 7741 2bbd
00000160: de8a 98bd c2ec 0e3e f659 71bd 72b4 c8bd
00000170: 54f2 5dbd b351 f93d 5f53 343e b33f a2bd
00000180: 46c8 cfbc d8cd b3bd 882f 5f3d 1542 9dbc
00000190: 9c61 9bbd 451b 283d 17cc 7e3d 7cfe 51be
000001a0: a00c 0ebe d165 43bd 6d9e a73d 73d4 98bd
000001b0: 7bde cb3d 36d5 1ebe 1c61 c13b 9b95 7fbd
000001c0: cede 43bd 6dfd d13c ca72 6fbd f6d1 ba3c
000001d0: bfab fd3d b276 0e3e b42a 913c 9b39 adbd
000001e0: 7c07 76bd 7ce2 343e e8e1 41be dea2 47be
000001f0: f916 173e 9be5 323d 6500 13be 9089 b3bd
00000200: ad5f 423e 7d48 fe3d 6c18 39be 642f 843e
00000210: a17d 29bd 8fa3 fc3f c809 76bc 2d74 b1bc
00000220: e227 883e ac6e 7fbc f961 013e 2464 c2bc
00000230: 5065 9b3d b0bc 703d f5f0 9a3e 0e5a b93f
00000240: 8a4d 1e3e 9aae ec3d ebe6 a03e 13d5 a0bd
00000250: 5c84 313e f2f4 b83f 8065 13be a465 0b3e
00000260: c79b 9abd 9f30 a93d 489d 2a3e 8123 7f3e
00000270: 007b b83d bd0e 9c3c 79a6 f5bd 32b6 01bc
00000280: 3c6c ca3d a563 8fbd 49a6 5dbe 29f4 a1bd
00000290: a349 e0bd 43bd a83d 7f38 38bd d834 01be
000002a0: c5c2 6d3c 0228 fabb 45d3 4abe 55de 263d
000002b0: 297d 21be 92ba 60be fa1c 38bd 73ab dfbd
000002c0: 7629 17bd cb43 113d 436a 19be 2e7b 40be
000002d0: d65b 80bd c5c7 34bd 83ef 02bd 290a 513d
000002e0: 33a7 e13d 9221 a53d e8e5 56bd 820d 0ebd
000002f0: 58b3 d6bd 2e93 06be 070f d43d 59fa 2bbe
00000300: 1458 2dbe 3afa 75be a812 eb3d bf42 8cbe
00000310: abed b1be e986 7ebe 071a 87be 19ed 2dbc
00000320: d580 c5bd 1d2f 2fbe f048 743d ee86 f5bd
00000330: 9c32 56be 6608 90be 0fab 1dbe d803 27be
00000340: a2f2 14be 3227 b8bd a82e 56be 40e9 6d3d
00000350: 02e0 eebc 8c5e a53d 3cd7 48bc 3d7a 34be
00000360: c81e 96be b498 913c 7a11 83bd 148a 3dbe
00000370: 2a6e 1cbe 33c8 c4bd e22b 1bbe eef0 3cbe
00000380: d220 4a3d d186 323e dff1 e03e db0d c23d
00000390: 1dfb fcbc 7241 c4bf 5089 25bd 6e48 bf3d
000003a0: 807a 07be 5c05 113e f186 083e 5ad7 ac3d
000003b0: da73 173e 0ddf 753d ab22 2a3e b809 40be
000003c0: 65c2 abbc 9ee1 53be 64f8 20ba c302 a8bd
000003d0: be78 09be 5f85 d63c 5efe 023e fd46 4c3e
000003e0: dc2a 533d 69a1 2abe 1792 d93c 0496 e0bb
000003f0: 419e c7bb 4cb4 4abe 3c86 cd3d ea8c 0c3e
0.005730373 0.0048118923 1.9364222 0.12179409 0.10219615 -0.17484787 0.078983404 0.2216642
0.08079115 -0.095382065 0.06920387 -0.08380867 0.07560155 0.034647036 0.09242922 -1.8514129
0.18791379 -0.0023038108 0.10755705 -0.094409026 0.09932101 -0.50024074 -0.04605169 0.06837595
0.19429559 0.07124718 -0.07911074 0.06911544 -0.016314244 -0.52200955 -0.06562587 -0.058292735
-0.17856732 -0.0018024319 -0.11225964 -0.1344526 -0.06789523 -0.0535732 -0.07918502 -0.08817792
0.031239716 -0.12137759 -0.10420484 0.07257367 -0.025993617 0.08111403 -0.114784546 -0.006371324
-0.18759187 -0.17407641 -0.06001074 0.21012813 0.013967634 0.13170671 0.1467747 0.13336778
-0.07069125 -0.026190303 0.06778329 -0.17502122 -0.13736309 -0.19777825 0.007547826 0.09366236
-0.052555684 -0.07764587 -0.05983462 -0.15570475 -0.16816999 -0.049383793 -0.18467562 0.010756054
-0.09091946 -0.023169978 -0.017071879 -0.073971465 -0.084836535 0.118719995 -0.15372856 -0.20689794
0.09615622 -0.18308656 0.065299034 -0.036693387 -0.012922603 -0.20790923 -0.041331075 -0.04181048
-0.07448362 0.13957503 -0.058923684 -0.09800042 -0.05418618 0.12173786 0.17609929 -0.07922306
-0.025364053 -0.08779496 0.05448869 -0.01919655 -0.07586977 0.04104163 0.062206354 -0.20507234
-0.13872004 -0.04770452 0.08184514 -0.074623965 0.09954544 -0.15511021 0.005901469 -0.062398534
-0.047819905 0.025633538 -0.05845908 0.022805195 0.123862736 0.13912466 0.017720558 -0.08458253
-0.06006573 0.17664522 -0.18933833 -0.19495723 0.14754857 0.043676 -0.14355619 -0.08766472
0.1898181 0.1241617 -0.18075722 0.25817406 -0.041379575 1.9737414 -0.0150169805 -0.021661842
0.26592928 -0.015590351 0.1263503 -0.023729391 0.07587683 0.058773696 0.3026196 1.4480608
0.15459266 0.1155674 0.31426176 -0.07853141 0.17335647 1.4449751 -0.14394188 0.13612992
-0.075492434 0.08261227 0.1666156 0.24915887 0.090078354 0.019049997 -0.11994643 -0.007916974
0.09883925 -0.070014276 -0.21645464 -0.07907898 -0.10951545 0.08239224 -0.044975754 -0.12617815
0.014511769 -0.007634164 -0.19807155 0.040739376 -0.15770401 -0.21946171 -0.04494951 -0.10921373
-0.036904775 0.035465043 -0.14981942 -0.1879699 -0.06267516 -0.044135828 -0.031966697 0.05103508
0.11018219 0.08063044 -0.05246535 -0.03468085 -0.10483426 -0.13142082 0.10354429 -0.16794719
-0.1692813 -0.24021235 0.11478168 -0.27394673 -0.3475164 -0.24856152 -0.26387045 -0.0106156105
-0.096437134 -0.17107816 0.05963987 -0.119886264 -0.20917743 -0.28131407 -0.15397285 -0.1631006
-0.14545682 -0.08991851 -0.20916235 0.058083773 -0.02915955 0.08074674 -0.012258347 -0.17624755
-0.2932036 0.01777301 -0.06399818 -0.18509704 -0.15276399 -0.096084975 -0.15153459 -0.18451282
0.049347706 0.17434241 0.43934533 0.09475299 -0.030881459 -1.5332472 -0.040414155 0.09339987
-0.13230324 0.141622 0.13332726 0.084395126 0.14790288 0.06002717 0.16614787 -0.18753707
-0.020966718 -0.20691535 -0.0006140529 -0.08203652 -0.13424966 0.026186643 0.12792346 0.19948955
0.051554546 -0.16663136 0.026558919 -0.0068538208 -0.0060918634 -0.1979534 0.10035369 0.1372563

bias f4 [64]
00000000: d9ff ee3c 5588 b63c 2dc4 e5bd 4032 0cbe
00000010: 165a 743e 4b88 f0bd 8db8 89be cca3 9ebd
00000020: ae0b 0a3d 1a01 e53d 68b8 493e 1ae9 a9bd
00000030: 3f13 6fbb 35f8 22be ea7e 32be 31f8 5abe
00000040: c354 193e 1d76 003e cc40 44be 9079 823d
00000050: 2eda d6bc 5a54 8abd 4fa2 bbbe 756d 52bd
00000060: cfc5 553c edae 50be 6506 333e b986 e03d
00000070: 9de7 6b3d 5477 adbc 95f0 783d 33c9 f63c
00000080: 4d70 0abe 4bb4 67bd fa74 ca3d d182 35be
00000090: 5414 483e 2508 84bd 3e45 123d b911 10be
000000a0: 81d2 bebe 0a56 8f3d 3965 6e3e 3520 39bd
000000b0: 51e9 c6bd eb4c 93bb 74c4 0dbe 08cf 893d
000000c0: d0d3 823d 6be5 c9bd 63c1 5fbc 73ad e53d
000000d0: d1ef d33d 7f3d ba3d 788d d4bd 03d2 e03d
000000e0: fb32 a13d 732f c1bb ea65 67bd 0ed5 00be
000000f0: 18ff 7fbd 6e18 b43d dacf 323e 00c9 a4bc
0.029174732 0.022281805 -0.11219058 -0.13691044 0.2386249 -0.11744746 -0.26898614 -0.077460855
0.033702545 0.11181851 0.19699252 -0.08296414 -0.0036479977 -0.15914996 -0.17431226 -0.2138374
0.1497374 0.12545057 -0.19165343 0.063708425 -0.026227083 -0.0675437 -0.3664727 -0.051373918
0.0130476495 -0.20379229 0.17482908 0.10963196 0.05759393 -0.021175064 0.060776312 0.030125236
-0.13519402 -0.056568425 0.09885593 -0.17725684 0.19539005 -0.06446866 0.035710566 -0.1406926
-0.37269977 0.069988325 0.23280801 -0.04519673 -0.0971247 -0.0044952533 -0.13844472 0.06728941
0.06388056 -0.09858211 -0.013656947 0.112147234 0.10348476 0.09093761 -0.103785455 0.109775566
0.07871052 -0.005895549 -0.056493677 -0.12581274 -0.062499136 0.08793722 0.17462102 -0.020115376

weight f4 [64, 64]
00000000: 439f 80bb 23da d3bd 07fc 083d 7d9b a73c
00000010: cdeb c0be 8a4f fdbd e848 8dbd 3c06 4cbd
00000020: bf85 5c3c fe7d 273e 2964 43be d505 073d
00000030: 45a1 263d 7871 4d3d 1f7e 533e e207 b5be
00000040: ebf5 9f3d 906d 883d 306e febd 4ed8 1a3d
00000050: 770d a4bd b8a6 333c f499 9cbd 8e50 dd3d
00000060: 570e 11bd 9560 0ebe 0c0a b9bd 8552 463d
00000070: 8e4f 66bd ce23 ab3d a463 09bb e8b5 cdbc
00000080: 4c73 8b3d 1c7d fd3d 4230 edbc bd69 2cbd
00000090: 435c 40bd 1199 c93d 6a43 c23b 9b88 853d
000000a0: 5a25 bcbd a910 873d cbe2 3e3c 2d50 0cbe
000000b0: e7e7 b93d fbdd 84bb 705e 4abd f3ab 62bd
000000c0: 1a91 063e ba71 343e 0e8d 5fbd 6799 603d
000000d0: 2aca 823c 16a9 d53c eb93 52bd 883e 04bd
000000e0: faf4 cfbb 1a9d 2ebc d0a0 203c 8022 b4bb
000000f0: 55d9 0ebe afcc 45bd 0cc2 1fbd 7476 ccbd
00000100: 433d 343c 5d54 2ebd f5e6 b9bd 6380 7a3d
00000110: 21f6 2c3e 7cd7 2ebe 90bf b7bc 0f64 60bd
00000120: c5d0 8cbb 40fd 763d dd5e b1bd ed95 ac3a
00000130: 7460 123c 3715 26be 24e5 163d dcc5 60be
00000140: f0d8 0dbe 1dfe 92bd a705 21be e5bc b73c
00000150: 67a1 36bc 232a f7bd c0a5 e4bc 74b3 b7bd
00000160: 7db3 82bd 2092 073c a2be 5a3c 080a 643d
00000170: 190a 17bb 026e d8bd 054f 933c 7785 193b
00000180: 0c69 c03d c03a ed3b 4360 35bd e3e0 9739
00000190: 22c0 8f3c d3b8 1cbe 52a4 f23b 8e06 67bc
000001a0: 825d 963d b832 0bbd 15e8 733d a76e 0dbd
000001b0: 90a6 31be c04a 39be 2047 763d 2321 10bd
000001c0: 323b b6bd 7c4e 99bd f7ff 6b3d ac1a 63bc
000001d0: 8837 c5bd 1643 8ebc cec6 e8bd 797e 1ebd
000001e0: d40c 99bd 5b6a c6bd 07ba 273d 55ba 39be
000001f0: c977 223d 17bc 14be 1152 d63c 96e6 e1bd
00000200: 7a6e 043e c6d3 0fbe 0c0c a2bd 942b b8bb
00000210: 1a61 0ebf 8fa0 17be 679b 4e3d 03c5 eb3d
00000220: 5f39 cbbc 1df2 203e e76d 0b3e b917 2f3e
00000230: b75c c53d c492 253e e1d4 7ebc c511 16bf
00000240: 61e3 de3d de1f d23e 466f c53d 3b4c 5d3d
00000250: a528 4b3e f5a6 a9bc 3301 6abe ec08 423e
00000260: c446 bb3c ba70 8e3c 38af 0e3e f0e8 483e
00000270: 596a 96bc 63cd 413d d72e 173e c101 d03d
00000280: dde1 b53d 10b1 0c3c 935f 163e 27e3 383d
00000290: d48f 133e 1741 d0bc 3972 24bd 53b3 d73d
000002a0: 9dd0 473e 3fe2 ebbe f3f9 0e3e b944 aebd
000002b0: 8538 803d 2c14 e53b f6ea fc3d 5852 213e
000002c0: 3cfa f33d d182 123e 12de 2b3e 5eb3 3c3e
000002d0: e859 153e 27d4 2e3d f555 e13d 5c26 703c
000002e0: 2edb 0f3e 89fe ee3d e377 1fbd dff6 87bd
000002f0: 010a 0b3e 9114 4cbe 6538 2c3e 1666 0abe
00000300: c830 113e 79fa d7bd 6c52 3d3d b828 883d
00000310: bc1d ebbd 3331 27be 2878 dcbc be05 703d
00000320: 7342 a2bd a3c5 7abd 5262 e0bd cd78 123d
00000330: f341 1b3e a046 c3bb 64a8 bebd f8ad 43be
00000340: e6e6 8c3c ba5f a6bd 6aa3 483d fca7 33bd
00000350: cfd6 c0bd bbe5 253e 2214 dabd 4b86 86bb
00000360: fee9 59be 94ec b0bc 3f90 603d c495 f5bd
00000370: 65f3 19be 0066 0bba 3b47 1f3e a912 13bc
00000380: 948c 72bd 582a 9bbc 306b 4d3d 1b02 b2bd
00000390: ccb4 01be 0a7b 673c dbb4 d23d 150b 8a3d
000003a0: 9897 f7bc 4973 11be 0e61 90bd 0f63 23be
000003b0: 066d 40bb dd89 2e3d ef14 033d 9750 bdbd
000003c0: b896 02ba e02a 13be b0a7 843c 4346 c4bd
000003d0: 87d2 39be 7bde e33d 06f8 093e 8bf6 10bc
000003e0: f0ac a9bc 3b5a 87bd 82ce 33bd 3a6f babd
000003f0: e11c 263e d832 9bbb 6582 5e3c 7087 51bc
-0.0039252355 -0.10344341 0.033443477 0.020459885 -0.37679902 -0.123686865 -0.068986714 -0.049810633
0.013459622 0.16356656 -0.19081177 0.032964546 0.040681142 0.05015704 0.2065358 -0.35357577
0.07810577 0.066615224 -0.1242336 0.03780394 -0.08010381 0.010965042 -0.07646552 0.1080638
-0.035414066 -0.1390403 -0.090351194 0.04841854 -0.056228213 0.083564386 -0.0020963931 -0.025111154
0.068091005 0.12377378 -0.028953675 -0.042093027 -0.046962988 0.09843648 0.0059284465 0.06520196
-0.09186812 0.065949745 0.011650751 -0.1370246 0.09077435 -0.0040547824 -0.04940647 -0.055339765
0.1314129 0.17621508 -0.05457788 0.054833796 0.01596554 0.026081603 -0.051410597 -0.032286197
-0.006346342 -0.010657573 0.009803966 -0.005497277 -0.13950093 -0.048290905 -0.039003417 -0.09983531
0.011000934 -0.042560924 -0.09077255 0.061157595 0.16890766 -0.17074388 -0.022430211 -0.054782923
-0.004297348 0.06030011 -0.08660672 0.001316724 0.008934129 -0.1621903 0.03683962 -0.21950477
-0.13852286 -0.071773745 -0.15724812 0.02242894 -0.01114688 -0.12068584 -0.027911067 -0.08969775
-0.06381891 0.008274585 0.0133511145 0.05567363 -0.002304679 -0.10567857 0.017982015 0.0023425499
0.09395036 0.0072396696 -0.044281255 0.00028968518 0.01754767 -0.1530488 0.0074048424 -0.014100684
0.07342054 -0.033983916 0.059547503 -0.034529354 -0.17348695 -0.18094921 0.060126424 -0.03518785
-0.08898009 -0.07485673 0.057617154 -0.01386134 -0.09629732 -0.017365973 -0.11366044 -0.038694832
-0.0747315 -0.096882544 0.040948894 -0.18137486 0.039665017 -0.14524876 0.02616218 -0.11030309
0.12932768 -0.14045629 -0.07912454 -0.0056204293 -0.55616915 -0.14807342 0.050441172 0.115121864
-0.02480763 0.15717359 0.13616143 0.17098893 0.096368246 0.16169268 -0.015553684 -0.58620864
0.10883213 0.41039938 0.09640364 0.054027777 0.19839723 -0.020709494 -0.2285202 0.18948716
0.022860892 0.017387737 0.13934028 0.19620109 -0.018361257 0.047315013 0.14763962 0.101565845
0.088809706 0.008587137 0.14684896 0.045138504 0.14410335 -0.025421662 -0.040147994 0.1053225
0.19513173 -0.4607105 0.13962536 -0.085092016 0.0626078 0.00699093 0.12349503 0.15754068
0.11912963 0.14307715 0.16783932 0.18427798 0.14585078 0.042682793 0.11002723 0.014657583
0.14048454 0.116696425 -0.038932692 -0.06638884 0.13578035 -0.1992972 0.16818388 -0.13515505
0.14178765 -0.10545821 0.04622118 0.066483915 -0.11480281 -0.16327362 -0.026912764 0.058599226
-0.079228304 -0.061223637 -0.10956253 0.035759736 0.15161876 -0.005959347 -0.09309462 -0.19109333
0.017199945 -0.08123727 0.04898397 -0.043861374 -0.094159715 0.16200916 -0.10648371 -0.0041053644
-0.21280667 -0.021597184 0.054825064 -0.11991456 -0.15034254 -0.00053176284 0.15554516 -0.008976617
-0.059216097 -0.01894109 0.05015105 -0.08691808 -0.12666625 0.014128456 0.10288402 0.06740395
-0.030223653 -0.14204134 -0.07049762 -0.15955757 -0.0029361858 0.042611945 0.032002386 -0.09243887
-0.0004981565 -0.14371824 0.01619324 -0.09583714 -0.18146716 0.11126419 0.1347352 -0.008847843
-0.020712346 -0.06609007 -0.043898113 -0.09103246 0.16221954 -0.0047362857 0.013580893 -0.0127886385

bias f4 [64]
00000000: fdf8 6b3d 9d5c 6d3d f4cc 953d a395 11be
00000010: a916 21be a4b9 0dbe 6b1e 143d 1324 a1bd
00000020: ca76 383e e238 1cbe 7803 a1bc 814f 7fbd
00000030: 5e24 8c3d d07a 45bc 727f e93d 490f a7bd
00000040: 98db 423d ba00 bf3d 49be 203e edd6 3abc
00000050: c468 40bd 266c 6c3d 39c6 863d 430b 433e
00000060: 59ae bb3d d257 d7bc 372c a0bd cf3b 27be
00000070: f946 123e f791 e6bc ddbc 373d e87a 02be
00000080: bafa 08be 5c54 033d 958b 8d3c df1e ac3d
00000090: 7832 a2bd a996 523d 7472 5abc 3c0b 4c3b
000000a0: f6d5 223b d576 863d 9287 1f3c ae06 92bd
000000b0: 3517 663d ad6e 49bc c5a1 c73d 4cbd dbbd
000000c0: 2322 b33d c086 083e 7747 883c cd88 80bd
000000d0: 2844 e4bd d966 8d3d 2814 27be 6ec1 6abd
000000e0: eea7 8cbd befa 523d eacd 403e da93 503e
000000f0: 2898 bfbc 24d1 0abe ffd2 34be 0871 39bd
0.0576105 0.05794965 0.07314482 -0.14217238 -0.157313 -0.13840348 0.03616182 -0.07868209
0.18014064 -0.15256074 -0.019654974 -0.06233168 0.06842874 -0.012053207 0.114012614 -0.08157212
0.047572702 0.093263105 0.15697588 -0.011403781 -0.046974912 0.057720326 0.06580777 0.19047265
0.091641136 -0.026286993 -0.07820933 -0.16331409 0.14284886 -0.028145773 0.04485785 -0.12742198
-0.13376895 0.032062873 0.017278472 0.08404326 -0.079197824 0.051413212 -0.013332952 0.0031134626
0.002484677 0.06565634 0.009736912 -0.0713018 0.056174476 -0.012294454 0.09747652 -0.10729465
0.087467454 0.13332653 0.01663564 -0.06276093 -0.11145812 0.06904382 -0.16316283 -0.057313375
-0.068679675 0.051508658 0.1882855 0.20368901 -0.023387983 -0.13556343 -0.17658614 -0.04527381

weight f4 [64, 64]
00000000: d07f d9bc 4855 c53d dc3e 013e 39eb 82bd
00000010: 639a 1fbd a80f eabc cff9 873d 2d4f bdbc
00000020: e197 053e 5afe 1e3e 6c87 133d 58e0 eebc
00000030: aaaf 843d d993 ddbb 4720 2a3e 3385 eabd
00000040: 5b35 683d 3784 14bd de65 1c3e 0ab3 2cbe
00000050: a0b3 2c3e 3a90 033d 66a7 2c3d ddf6 1a3e
00000060: 36de 133d 4a66 493e 882e 3abd 2e95 8e3c
00000070: 2a04 1e3e adbc 85bb 51cc c53d 900e 56bd
00000080: 7f72 a039 1b5c b03d 7b08 2d3d ad21 373e
00000090: 3021 2d3c 5459 4d3c b1ac 03bd baaa 0cbd
000000a0: 3cc8 04bd 6407 093e 4aa1 013e 8c87 d7bd
000000b0: 6260 163e c47b e63d c806 473e 7165 053e
000000c0: 91c5 3b3e 914f 523d 930d 173e c927 163d
000000d0: c4f9 68bd 8956 373e eaca dabb 218e 443e
000000e0: a77e 383d 63e8 b03d 3a64 5b3e 110c fb3c
000000f0: b322 393e 1df8 cabd 0029 813c 1fac 2e3c
00000100: 37b0 b9bc dbcd 7f3d d834 8d3c 1d86 123e
00000110: b48d f3bd d2aa 65bd 443b 473e bb86 93bd
00000120: 4a5c 123e cca6 cc3d 6bc1 753d 5e8d 9a3d
00000130: 7e93 533e 92c5 7c3d 4865 0d3e e8bb fcbd
00000140: aa9c 303e 3125 823d 71a1 a43c c2ee 25be
00000150: e255 7d3d 7d9e 983d ad1d 263d 5601 423e
00000160: 141a a33d 0c93 8f3d 1cc0 76bd 73c5 62bd
00000170: b3bf df3d 2c65 033e d189 48bd 823b a2bc
00000180: fd83 07bd aa11 333e 5250 013e 743c 08bd
00000190: 4418 883d e518 0c3d 9632 2c3e 8a7c 15bd
000001a0: ab08 95bc 51cd 303d 4f1f bc3d b858 17bd
000001b0: 4c77 733d 6b48 723e d0a4 063e 234d 0b3d
000001c0: f297 2d3e e281 2b3e f733 2e3e 1abd 53bd
000001d0: 4012 42bd 086e 323e c803 b43c b2be ecbb
000001e0: 78d9 54bd 87e0 373d 0de6 e53d 325a 093e
000001f0: 52ce 223d d3b5 7ebd 5585 ab3d e1cd 15bd
00000200: 38af 1f3e 1aeb 3d3d fdb4 573e 5e5d de3c
00000210: bfa4 303d 9d2c 963c b209 163e 237f 22bd
00000220: c1d0 9a3d 7c26 f0bd 2c73 ee3d 8e03 8f3d
00000230: f642 493e a762 acbd d4ef e93d e8c7 2ebd
00000240: 4d9c 03bd 3b3d d23d ec0d 30bc f430 9bbd
00000250: 5064 dc3d 3b27 f53d ba91 e7bc 3c66 213e
00000260: f9ea 343e 535d 5038 6189 103e c1ec ec3d
00000270: b292 973d 52be 263e c41d 343e 0512 22bc
00000280: b638 cc3c 0866 d23c ce4a 0a3e a68c 213e
00000290: 380e 333d 0b4f 743d ba4d 833d 7032 283c
000002a0: 624e 0d3e 9fc8 f93d dd8b 833d 0675 86bd
000002b0: 5920 163e 09de 92bc 3d19 da3d 7ebb 2b3e
000002c0: 89cb 0d3e 1e56 df3d 25d4 12bd 3201 5ebd
000002d0: e4d6 ab3d d7bd 1e3e 7d26 f03c 873b 0fbe
000002e0: 463c 513d 91e4 d4bc d7a1 153e 88a0 313e
000002f0: aadb 243c a9ec 32be 6037 5bbd 96d6 3c3d
00000300: 6b8a 063d 39ac 493c 8ee1 99bd ce13 e93d
00000310: 8326 c93d ff64 ca3c 150a cf3d d7ba ac3d
00000320: 9db3 3c3d 9c72 66bd 8dde 8d3d 2930 15be
00000330: 78b3 f43c 9ffc cbbd 63a7 9fbd 208c 2b3d
00000340: 6117 b7bd 745f 1a3e c123 9dbd 98b7 2dbd
00000350: a5a0 00be 9025 d83d aad4 0b3e 0cf9 01bd
00000360: 5e3a 33be 2abc 453d 0f9c 0ebe ed0c 043e
00000370: a3c6 233e cdf4 883d b472 25be 9c4a 503d
00000380: 51b3 c63d d5ed 903d 03de d83d 581b cd3c
00000390: 92b0 dcbd cc15 1e3e a248 863d d934 d2bc
000003a0: 4450 843c 6063 57bd e1e4 56bd 56f9 dfbd
000003b0: 980d d6bc 0896 62bf 15ab cd3d eff0 f03d
000003c0: e0d1 0b3c d251 d9bd 0590 f23d 25b0 72bd
000003d0: db64 153c 2f09 d8bd a6af 6abd 0bb5 b43d
000003e0: 1ac9 2bbe f6eb 3c3d 4c70 bcbd 5532 8bbd
000003f0: e9aa cabd 4d85 35bb f4a4 f03c 4f63 823d
-0.026550204 0.09635407 0.12621635 -0.063925214 -0.038965594 -0.028571919 0.06639444 -0.023109043
0.13046218 0.15526715 0.03601782 -0.02915971 0.06478818 -0.0067620096 0.16613875 -0.11451187
0.05669151 -0.036258902 0.15273234 -0.16865173 0.16865396 0.032119967 0.04215183 0.15133233
0.03610059 0.19667926 -0.045454532 0.017405119 0.15431276 -0.00408133 0.09658111 -0.05225998
0.00030602884 0.08611318 0.042244416 0.1788394 0.010566995 0.0125335045 -0.032147113 -0.034342505
-0.03241752 0.13381726 0.12659183 -0.105239004 0.14685205 0.11254075 0.1943618 0.13026978
0.18337084 0.05134541 0.14751272 0.036659036 -0.05687882 0.17904104 -0.0066770213 0.19194843
0.04504266 0.08638074 0.21424952 0.030645402 0.18079643 -0.09910605 0.01576662 0.010661154
-0.022667034 0.06245218 0.017237112 0.14308973 -0.11892262 -0.05607111 0.19456202 -0.07203432
0.14293018 0.099927515 0.05999891 0.07546495 0.20661733 0.061711855 0.13808167 -0.12340528
0.17247263 0.0635475 0.020096513 -0.1620436 0.061849482 0.07452104 0.040555645 0.18945822
0.079639584 0.07010469 -0.060241804 -0.055364083 0.109252356 0.12831563 -0.048959557 -0.019803766
-0.03308486 0.17487207 0.12628296 -0.033260778 0.06645253 0.03420343 0.16816172 -0.036495723
-0.01819261 0.043164555 0.09185659 -0.036949843 0.059439942 0.23660438 0.13148808 0.03400911
0.16952494 0.16748765 0.1701201 -0.051694013 -0.047380686 0.17424786 0.02197446 -0.007224881
-0.051965207 0.04489186 0.11225519 0.13413313 0.039747544 -0.06218512 0.083750404 -0.036573295
0.15594184 0.04636679 0.21065135 0.02714413 0.043125864 0.01833182 0.14652136 -0.03967203
0.07559348 -0.1172609 0.11643061 0.069831 0.1965445 -0.08417254 0.11422697 -0.042671114
-0.032131482 0.10265585 -0.010745507 -0.075776964 0.107613206 0.11970373 -0.02826773 0.15761656
0.1766776 4.967798e-05 0.14114906 0.11568595 0.07401027 0.16283539 0.1758948 -0.0098919915
0.024929386 0.025683418 0.13505098 0.1577631 0.043714732 0.059645694 0.064113095 0.0102659315
0.13799432 0.121964686 0.06423161 -0.06565289 0.14660777 -0.01792814 0.10649345 0.16770741
0.13847174 0.109050974 -0.035846848 -0.05420036 0.083905965 0.15502106 0.029315228 -0.13987552
0.05108287 -0.025987895 0.14612518 0.17346394 0.010062138 -0.17473091 -0.053519607 0.046103083
0.03284685 0.0123091275 -0.07513724 0.113807306 0.09821799 0.024706362 0.10109345 0.08434074
0.04606973 -0.056261644 0.06927214 -0.14569153 0.029870734 -0.09960293 -0.07795598 0.04188168
-0.08940006 0.15075475 -0.07672835 -0.042411417 -0.12561281 0.105540395 0.13655344 -0.03173165
-0.17502734 0.04827515 -0.13926719 0.12895556 0.15993743 0.06687317 -0.16157037 0.050852403
0.09702171 0.07076613 0.105892204 0.025037453 -0.107758656 0.15438002 0.06556822 -0.025659965
0.016151555 -0.052585006 -0.05246437 -0.10936229 -0.026129529 -0.8851018 0.10042397 0.117647044
0.008533925 -0.10611309 0.11843876 -0.059250016 0.009118284 -0.10548627 -0.057296418 0.08823594
-0.16775933 0.046123467 -0.092011064 -0.067967094 -0.0989588 -0.0027697862 0.02937553 0.06366598

bias f4 [64]
00000000: 8b18 9e3d 6bc9 023e 288c 243d bf71 523d
00000010: 849a 893c 4a2b 253d 3ad8 da3d 6b9e 293d
00000020: cb50 16be ca21 8a3b 049e 2abe 6b88 c1bd
00000030: 9bcb 9dbd 2997 fc3d c1a8 75be 125a 143e
00000040: fac5 9b3d 293c 62bd 95e0 843d a2df cc3d
00000050: cea4 463d bed8 f03d 9e4f 9f3d 21eb f6bd
00000060: ee59 ecbe d00f 27be 376f 963d ba77 093d
00000070: e882 f03c 286b 9bb9 f2de c2bd 3874 1f3e
00000080: 4185 1c3e 8965 29bd e00d 94be 08e1 0f3e
00000090: fbaa 443c c4d2 3abe ef06 fa3d 536f 74be
000000a0: 0990 55be 5b40 fb3d b1b2 043d 70d3 1bbe
000000b0: 7105 bcbe 28b0 e8bc f06a 603d e266 8bbd
000000c0: 2e1a 283e defa 033d 7f04 073e b6e4 86bc
000000d0: 3cee 3b3d a89f ebbc 0ea5 d0bd bcd2 023e
000000e0: 95cf b6bd 068e ffbd 2afb c6bd 37af aabd
000000f0: 5a86 733c d4c9 043e 01e4 02bd 4da2 cdbd
0.07719525 0.12772147 0.040172726 0.051378008 0.016797312 0.040324487 0.10685773 0.041410845
-0.14679258 0.0042154538 -0.1666184 -0.09449848 -0.0770485 0.12333519 -0.23990156 0.14487484
0.076061204 -0.055233154 0.06488148 0.10003592 0.048497014 0.1176009 0.07778858 -0.12056566
-0.4616236 -0.16314626 0.07345431 0.033561446 0.029359296 -0.0002964374 -0.0951518 0.15571678
0.15285207 -0.041356597 -0.28916836 0.14050686 0.012003656 -0.18244463 0.12208354 -0.23870592
-0.20855726 0.12268134 0.032396976 -0.15217376 -0.367229 -0.02840431 0.054789484 -0.06806733
0.16416237 0.032221667 0.13185309 -0.01646648 0.045881495 -0.028762653 -0.10187732 0.12775701
-0.08926312 -0.12478261 -0.097158745 -0.08334201 0.014863575 0.12967616 -0.031955723 -0.10040722

weight f4 [64, 64]
00000000: f859 05bd 934e 863c 2cd8 b73c 7699 8f3c
00000010: 8ce9 0e3e c7f3 953d 781d 43bd 6ad3 21bd
00000020: 0b05 0bbd ba6f c93c 2cbc 3d3d 3ddb a23c
00000030: dc49 52be c627 853b 0222 b73d 40bf 72bd
00000040: e33e 433d def6 45bd b1ae d33d 2c89 ca3d
00000050: 81ee a43d c0fe 1c3d 25c7 d43d 643b 3cbe
00000060: bdae 86be 5219 453d 33d5 0bbe 4f8c 98bd
00000070: 1499 d3bd 7037 fbbc 7ff1 67bc 7525 c2bd
00000080: f84c f3bb fa36 443d c1df 09be ca27 e1bd
00000090: dbf8 94bd 23de 8abc 874d eb3d 2de5 bfbc
000000a0: b4e7 80bd 6166 c73d 9fbf afbc f80e 623d
000000b0: 8f68 9c3e 6626 2e3d 22ad 46bd de34 3b3a
000000c0: 35b2 c2bd 76a7 e83d 858a 023e 25a0 fbbd
000000d0: 81dc 27bd 44e8 36be 8dad 273e 26cb 433c
000000e0: f706 81bb 3147 33bd d9d2 08be 0104 98be
000000f0: a867 3bbe 53ae 373d 3372 17be dfe7 283c
00000100: 1a3d aabd 1050 93bd 48b8 093d 00e3 bc3d
00000110: 9803 b93c f094 263c d28a c93d 52dd a23d
00000120: d4d9 abbd 50f0 3e3d caa8 9bbd 7056 d9bc
00000130: ba41 df3d baf6 c1bd acca 5b3d 5c2a 943d
00000140: ec49 e03d d8ab cdbd 4003 0cbd a08f 73bc
00000150: bc47 f3bd 1836 a4bd cc48 363d 20ba 953b
00000160: 1a3b f4bd 5054 8e3d 1871 4dbd 8c3a 71bd
00000170: 52f7 ee3d d434 3fbd f821 3ebd 60df b3bd
00000180: fc4c 333d 4845 073d a2f8 a13d e0fd 4ebd
00000190: e079 9bbc 8019 a03d e424 9c3d 26de c7bd
000001a0: 2c6f 5abd 3456 333d e4e0 953d 8a1b cc3d
000001b0: d0b7 133c 943f f3bd 804d 09bd 80b1 f0ba
000001c0: 80b9 92bd 86c8 97bd b0c9 54bd 349b 2bbd
000001d0: 4ad8 82bd f6f3 dcbd 089f 323d 9ce0 17bd
000001e0: aaec c9bd 2ce1 b33d be80 d53d 9c2e 36bd
000001f0: ea43 afbd f4fc abbd a0dc b33c 0af8 cdbd
00000200: cf93 323e 5f73 433e 38c9 493e 948a c63c
00000210: f055 1a3e 1349 053e cf68 0d3e 2d71 ff3d
00000220: f77f 17be 5a64 153d 50f2 89bd d1ec 133e
00000230: 242b 97bb 1d3b 033e 6bc1 283e bac0 5e3b
00000240: eb42 bfbd 892e aa3d e83b d53b d529 603d
00000250: 22b3 973d 79c4 f83d 8e34 223e b3a1 2e3d
00000260: a727 23be a067 d93c f8a0 d93d 34bc 16be
00000270: 83b2 113e 3247 b9bc 25a4 043e f720 4a3e
00000280: 7004 2ebc 44c9 c5bd ba9a d9be 24f6 a0bc
00000290: d1c9 b33d 72af 8c3c 57ad 023e 88ab adbd
000002a0: fab5 83bd c6d4 52bc e006 0b3d 6cb9 8d3d
000002b0: b19e e53e c2a9 f03c 8b35 103e 8b82 103e
000002c0: 2f3d 3c3e 3078 423c c5b3 693c 73ac c23d
000002d0: cb70 433e 01c5 94bd 1c6f d43c edd5 fd3d
000002e0: 762f 80bc 12fa 853b e3ac 31be 4a7f 52be
000002f0: 666f ee3d 5a6d 873d 795f 003e 746b 153e
00000300: 333a 21be e8a1 44be aa20 5738 6a8f 84bd
00000310: 1487 f8bd ca5d 17bd 0c8a c9bd 88fe 8ebd
00000320: 4012 febd d895 983d 326b ccbd 204d d23c
00000330: 5b63 403d 1f96 a83b c868 8d3c 206e d7bb
00000340: 8042 1c3d 8407 b13d 862f e5bd 4c0c debd
00000350: d22a 043d 3b01 27be da93 76bd 8087 f23d
00000360: b81f febd 6c3a 6f3d 9256 dd3d e4f5 13bd
00000370: 55da fdbd a0e8 ffbd 040f 863d 82fb 2abe
00000380: 607d 013d 5cba bcbd 68bc b5bc 1dbe 00be
00000390: c0ce aabd 70e6 72bc 776b 203d fe2e d23d
000003a0: c406 d93d cb8d 4dbd d49b b8bd 248d c3bd
000003b0: f085 b33d f680 bbbd 920d 7cbd 4a4a 19be
000003c0: 43ab 7fbd e05a 92bc d8e9 ebbd 70a9 f93d
000003d0: bf89 81bd 887f aebd 1acc 55bd 7263 f9bd
000003e0: c262 b6bd 0e34 943d 9a32 d23d aa30 03be
000003f0: b47f 11be fbe5 8a3c 186d 1a3d 84a5 f3bd
-0.032556504 0.016394889 0.022441946 0.01752923 0.13956279 0.073218875 -0.047635525 -0.03950826
-0.033940356 0.024589408 0.046322033 0.019879932 -0.20535988 0.0040635793 0.08942033 -0.05926442
0.047667395 -0.048331134 0.10336054 0.09889445 0.080533035 0.038328886 0.10389546 -0.1838203
-0.2630519 0.04811985 -0.13655548 -0.07448637 -0.10331932 -0.030666083 -0.014156698 -0.094798006
-0.007424947 0.047903992 -0.13464262 -0.10993917 -0.07274028 -0.016951626 0.114893965 -0.02342471
-0.06294194 0.09736324 -0.021453677 0.055190057 0.30548522 0.04251709 -0.048504956 0.0007141362
-0.095066465 0.11360066 0.12748154 -0.122864045 -0.040981773 -0.1786204 0.16374798 0.01195029
-0.003937598 -0.043769065 -0.13361682 -0.29690555 -0.1830126 0.044843983 -0.14789657 0.010309189
-0.083124354 -0.07193005 0.03362301 0.09222984 0.022584721 0.010167345 0.09840931 0.0795237
-0.08391157 0.0466159 -0.07600553 -0.026530474 0.10901208 -0.094708875 0.05366008 0.07234642
0.109515995 -0.10042542 -0.034182787 -0.014865786 -0.118789166 -0.0801813 0.04450302 0.004569307
-0.11925335 0.06949675 -0.050156683 -0.058893725 0.11668266 -0.04668124 -0.046419114 -0.0878284
0.04377459 0.033025056 0.07908751 -0.050535083 -0.018979013 0.07817364 0.07624224 -0.09759168
-0.053328678 0.04378338 0.07318285 0.0996619 0.009015992 -0.11877361 -0.033521175 -0.0018363446
-0.071642876 -0.07411294 -0.051950157 -0.04189606 -0.0638891 -0.10788719 0.043608695 -0.03707944
-0.09859593 0.087831825 0.10424946 -0.044478044 -0.085578755 -0.08397856 0.021955788 -0.10057075
0.17439197 0.1908698 0.19705665 0.024236001 0.15071845 0.13016157 0.13809513 0.124727584
-0.14794908 0.036472656 -0.067356706 0.14445807 -0.004613297 0.12815519 0.16480033 0.0033989386
-0.093389355 0.08309657 0.0065073855 0.054727394 0.07407214 0.12146849 0.1584036 0.042634677
-0.15933095 0.02653867 0.106264055 -0.14720231 0.14228253 -0.022616956 0.12953241 0.19739138
-0.010621175 -0.09657529 -0.4250086 -0.019648619 0.08778728 0.017173503 0.12761436 -0.084799826
-0.06431194 -0.012868112 0.033942103 0.06920132 0.44847634 0.029377822 0.14082925 0.14112298
0.18382715 0.011869475 0.014264052 0.09505548 0.19085996 -0.07264138 0.025931887 0.12394319
-0.015647631 0.0040886486 -0.17351107 -0.2055637 0.11642341 0.06612654 0.1253642 0.14591771
-0.15744857 -0.19202387 5.1290415e-05 -0.064726666 -0.12135139 -0.03695468 -0.098407835 -0.06982142
-0.12405825 0.074504554 -0.099813834 0.025671542 0.046969753 0.005144849 0.017261878 -0.006574407
0.038149357 0.086440116 -0.11190705 -0.10842189 0.0322674 -0.16309063 -0.060199596 0.11842251
-0.124083936 0.058405325 0.108075276 -0.03612317 -0.12395159 -0.124955416 0.06545833 -0.16697505
0.031613708 -0.09215233 -0.022184566 -0.12572522 -0.08340216 -0.014825448 0.039164986 0.10262869
0.105969936 -0.050184052 -0.09014097 -0.09548405 0.08765781 -0.09155457 -0.06153638 -0.14969745
-0.062419187 -0.017865598 -0.115192115 0.12190521 -0.06325101 -0.085204184 -0.0521966 -0.12177171
-0.08905555 0.07236491 0.10263558 -0.12811533 -0.14208871 0.016955366 0.037701696 -0.11896804

bias f4 [64]
00000000: f7c5 cb3c cedc bdbd 3276 2b3e 152b 06be
00000010: e1d6 113e 4829 9d3d 2e48 8fbd aedc 6a3d
00000020: f803 16bc ea42 593d acbb 25be d6f0 81bd
00000030: ca86 27be 83ce 1a3e e406 353d 4e29 76bd
00000040: e624 44be b1a8 bf3d 042f 0abe b49f 34bd
00000050: f994 a93d 5b32 9bbc cda0 48be 5781 34be
00000060: 6b71 96bd ad3f acbc f12f 5c3d e895 f1bd
00000070: ebec 84be d4fa 153d 85c3 b93c 4c5e f5bd
00000080: 5496 0abe 4416 86be 141d ddbc e37d 55be
00000090: 3336 18bd f176 343e ff9b 863d 2f53 f93c
000000a0: df90 e5bd c0be debd 4613 a63d 8547 08be
000000b0: 51bd 82bd 6f86 1bbe 8f6f 19be 84cd 943d
000000c0: 1552 273c 0d89 2abe 7021 073d 00ba d6bd
000000d0: 9025 44bd fb0c 4b3d f02a 253e c2c9 6e3d
000000e0: 636d c93d 06ca 413d 50ee 2bbe 0edb debc
000000f0: f61d 1c3c dc63 213d 76b0 edbd 46a8 8d3d
0.02487467 -0.09270631 0.16744307 -0.13102372 0.14242126 0.076738894 -0.06996189 0.057339363
-0.00915622 0.05304233 -0.16184872 -0.06344764 -0.16360012 0.1511784 0.044196025 -0.060097985
-0.191547 0.09358347 -0.13494498 -0.044097617 0.082803674 -0.01894491 -0.1959259 -0.17627464
-0.073458515 -0.021026457 0.053756658 -0.117961705 -0.25962004 0.03661616 0.022676239 -0.11980876
-0.13533908 -0.26188862 -0.026991405 -0.20848803 -0.037161063 0.17623498 0.06572723 0.030435173
-0.112092726 -0.108762264 0.08109145 -0.13308533 -0.063837655 -0.15188001 -0.14983962 0.072657615
0.010212441 -0.16653843 0.032990873 -0.104846954 -0.047887385 0.049572926 0.1612966 0.05829788
0.09835317 0.047311805 -0.16790128 -0.027204063 0.009528628 0.039401874 -0.11605923 0.06916861

weight f4 [32, 64]
00000000: 486d 63bd 3ce1 103d c08f 423e 9def ae3c
00000010: 48d4 353c c529 febb a35d 0fbc 9e29 383e
00000020: 955a 90bc e370 423e a922 6f3c 88ff 6cbd
00000030: ff6f aabc 4937 2d3e a45e 84bd edfd 9f3e
00000040: 2dfc 23be aa97 fc3d c2b6 bcbd 7452 6bbd
00000050: 007e 78bb e72b 11bd ba77 31be ec38 a8bd
00000060: 5020 f6bc 752a 4ebc 3eeb 0c3e 0745 963c
00000070: dd92 4bbe d520 05bc e49f 053e 1775 cb3c
00000080: 50a7 0ebd e20c 97be 0d8a c4be b4a4 ef3d
00000090: c3b6 22be 3dc5 153d 3f99 74be e77a 743d
000000a0: 0d67 96be cd07 713d 4924 fc3d 508b 95bc
000000b0: 92e6 c9be 3963 443d 75b8 573d c6d1 093d
000000c0: 6c50 233d 63da 89bc 19e3 073e d72d bbbd
000000d0: 0b56 9d3c 8de7 f13c 7402 153e 4ed9 39be
000000e0: c0fb be3d 3002 b6bd 0db4 a9bd fe4f b3bc
000000f0: 6524 f23d 9ff6 993d 9064 32bd 53ca f53d
00000100: f627 2d3e bc17 193d 28ae 6d3a 0843 31bd
00000110: 7b90 a73d 5b46 213c a49d c83c c210 433c
00000120: c762 63bd f2fa e13d 2bb5 78bd 965f 203e
00000130: a6b2 37be a4d1 44bd a88a 973d 8557 a7bc
00000140: 007e 90bc 8975 243e 494d 5b3d 7c62 9abd
00000150: c495 8a3d bd7d d83b 19fe f4be 1575 623d
00000160: 81ee b8bd ac36 c13b 2761 fb3d 1b37 053b
00000170: d618 10be 3bf3 b73d dcb3 4d3e 66c6 47be
00000180: 50d9 3bbc d647 e2bd 9524 75be 3002 303c
00000190: 9440 cdbe 154c 8d3d 613a 1ebe 011d 3e3d
000001a0: ae4b 4abf 58eb f5bc af79 093c 2697 163c
000001b0: 89aa cfbe b4b0 a23c 50e4 fa3d 321a 293e
000001c0: acec 1a3d 1613 a4bd ae4c 89bc 9ca4 9cbd
000001d0: 55a9 fb3d 8915 de3d 18a7 21bd 1b12 55be
000001e0: a1b1 833c e7db 52bd a3c2 50bd 016f d03d
000001f0: d9db 86bd 5268 b8bc c7d3 2e3e b720 2e3e
00000200: 0756 febc 18c1 bbbc d55f a6bd 98eb b2bc
00000210: b014 323e 0de4 f53b 61fa fd3d abdb 293e
00000220: 80d2 253e bf66 2f3d fe63 113e 57e4 9cbc
00000230: feb8 b83f 88e6 1a3e a8d8 62bc b341 8b3e
00000240: b544 e73d a2c6 1d3d e5f7 503e 6e6b c53d
00000250: 7709 9f3c 3617 fe3b 39d3 273d dbc8 ab3a
00000260: 3d51 0ebd 1169 54bd a204 de3d 258f 293e
00000270: 084a e73c 6cfe dc3d 4c6e 12be 6ab7 d53c
00000280: 210f ee3d 2330 033e c986 8d3f 6654 693e
00000290: d560 cdbc 51f2 bbbd 8df0 213e 140c 493c
000002a0: d7db 8bbd 48f2 52bd 6b0a 81bd 1ff4 32bd
000002b0: 633e 823c 3e56 1d3e 60ff 2ebe 3f29 0f3e
000002c0: 2baf 7bbd 0b79 d93d 91dd 0a3d 2f5e 203d
000002d0: 83c8 323e 00a9 323c b6f8 0a3c ebe4 e03d
000002e0: fb51 8b3d 1ee9 153e 8db9 d23f caef ad3d
000002f0: cff0 983d c45c 18bd a49f d03c fcb1 8cbc
00000300: f993 88be ae30 bcbd 67b7 94be 8026 653c
00000310: b3a5 2dbe 44b9 66be dc24 a73d 52fb f53d
00000320: 7c14 4ebd 97eb 89be 245a 0ebd 4068 b73d
00000330: 7034 a43c 1d6c 9bbe cc2f c9bd 8fe8 99bb
00000340: 7064 39bc 22a3 80be 38c0 c73d 3204 b0bd
00000350: 80db 29be 8c83 96bd ab95 13be acf0 943d
00000360: bc51 0b3d e43c 303d 7f28 86be 9eac 9dbd
00000370: a0b8 91bb d4a8 153d cb1f cebd f8db 58bd
00000380: bc1c 133d 4cea ea3d 0018 353c 4432 2a3d
00000390: a71f 5cbe 3b5b 55be 32de a8be e27f cc3d
000003a0: 79a8 2cbe 20d2 743d 8c55 febd ac6d 06bd
000003b0: b06a 51be 2436 a33d 48d0 8d3c 7f19 f7bd
000003c0: 281d f6bd 0015 5ebc 10c2 163c c467 4dbd
000003d0: f028 28bd d0a6 d3bd 46b3 13be 9ead 82be
000003e0: ab5f 7b3d eb84 20be 0092 06bd 0648 a43d
000003f0: 3d09 8abe 387b a03c f26f cabd 39ec a0be
-0.05552414 0.03537105 0.19000149 0.02135449 0.011097975 -0.007756444 -0.008750352 0.17984626
-0.017621318 0.18988375 0.014595666 -0.05786088 -0.020805357 0.16915621 -0.06463364 0.31248417
-0.16014166 0.12333615 -0.09214546 -0.05745168 -0.0037916899 -0.03544226 -0.17330828 -0.08213982
-0.030044705 -0.012583365 0.13761613 0.018343462 -0.19880243 -0.008125504 0.13049275 0.024836106
-0.03482753 -0.29502016 -0.38386574 0.117013365 -0.1589003 0.036565054 -0.23886584 0.05968752
-0.29375497 0.05884533 0.12311608 -0.018254906 -0.39433724 0.04794619 0.052666146 0.03364732
0.03987162 -0.016827768 0.13270225 -0.09139603 0.019206068 0.029529357 0.14551717 -0.18149301
0.09325361 -0.08887136 -0.08286295 -0.02188873 0.11823348 0.07517742 -0.043552935 0.12001481
0.16909775 0.03737615 0.0009066784 -0.043276817 0.08181854 0.009843434 0.024489231 0.011905851
-0.055514123 0.11034192 -0.06071965 0.15661463 -0.17939243 -0.04805149 0.073994935 -0.020427475
-0.017638206 0.16060461 0.0535405 -0.07538316 0.06766847 0.006606786 -0.4785011 0.05528744
-0.09029866 0.00589641 0.1227439 0.0020327035 -0.14071974 0.089819394 0.20088142 -0.19509277
-0.011465386 -0.11048858 -0.23939736 0.010742709 -0.40088332 0.06899277 -0.15451957 0.04641438
-0.7902173 -0.030019447 0.008390828 0.00919131 -0.40559795 0.01985965 0.122505784 0.16513899
0.037823364 -0.08011453 -0.016760197 -0.07648584 0.12288157 0.10843951 -0.039465994 -0.20807688
0.016075911 -0.051479246 -0.05096687 0.10177422 -0.06584901 -0.022510681 0.17072974 0.17004667
-0.03104688 -0.022919223 -0.08123747 -0.021840855 0.17390704 0.0075039924 0.124012716 0.16587703
0.1619358 0.042822596 0.141983 -0.01915185 1.4431455 0.15127003 -0.0138456 0.27198562
0.11292402 0.03851951 0.20407064 0.09639631 0.019413693 0.007754232 0.040972922 0.0013106124
-0.034745444 -0.05185801 0.108407274 0.16558512 0.028233543 0.107907146 -0.14299887 0.026088435
0.11623979 0.12811331 1.1056758 0.22786102 -0.025070587 -0.091770776 0.15814419 0.012270946
-0.068290405 -0.05150059 -0.06300815 -0.043689843 0.015898889 0.1536493 -0.17089605 0.13980578
-0.06144635 0.1061879 0.03390271 0.03915232 0.17459302 0.010904551 0.008482149 0.10981163
0.06802746 0.14639708 1.6462876 0.08493002 0.074678056 -0.037197843 0.025466748 -0.017174713
-0.26675394 -0.091889724 -0.29046175 0.01398623 -0.1695774 -0.2253161 0.08161327 0.12010826
-0.050312504 -0.26937553 -0.034753934 0.08955431 0.020044535 -0.3035592 -0.0982357 -0.0046969126
-0.01131545 -0.2512446 0.0975346 -0.0859455 -0.16587639 -0.07349309 -0.14412563 0.07272467
0.034013495 0.04302682 -0.2620277 -0.0769894 -0.004447058 0.03653796 -0.10064658 -0.052944154
0.035916075 0.1147047 0.011053085 0.041551843 -0.2149645 -0.20835583 -0.32982022 0.09985329
-0.16861142 0.059770703 -0.124186605 -0.032819435 -0.20450854 0.07969311 0.01731123 -0.1206541
-0.1201728 -0.0135548115 0.009201542 -0.050147787 -0.041054666 -0.10334551 -0.14423856 -0.25523084
0.061370533 -0.15675704 -0.03285408 0.0802155 -0.26960173 0.019590005 -0.09884633 -0.31430224

bias f4 [32]
00000000: 3833 e63d 1c6c 2f3e 858e bc3d bf81 9cbe
00000010: e4a2 133d 60db 8cbe ffa7 903d f67c 1c3e
00000020: 7c81 203e ed13 d03d 2201 eebd 6ed5 71be
00000030: dca1 adbb d95f 02bc 959a 5dbe 83f8 1c3e
00000040: 8574 e03d ff64 c8bd 9b3f 21bb 5703 e6bc
00000050: 4c55 123e dcf8 b4bd 5ade 443d 8813 833d
00000060: 2970 a43d 5b63 273e e234 77bd 999f a83d
00000070: 0c4e 17be 6d1c 1b3e a130 2d3e 6c75 05be
0.11240238 0.17131084 0.09206871 -0.30567738 0.036044016 -0.2751112 0.07063293 0.15282044
0.15674394 0.101600505 -0.1162131 -0.23616573 -0.005298836 -0.007957422 -0.21641 0.15329175
0.10959724 -0.097848885 -0.0024604562 -0.028077764 0.1429035 -0.08836529 0.048063613 0.0640021
0.08029205 0.16346495 -0.060353167 0.08233566 -0.14775866 0.15147562 0.16913082 -0.13033074

weight f4 [1, 32]
00000000: c493 5d3e a1c8 513e 28d7 1dbe b6e0 113e
00000010: b876 51be 6044 1bbe 8fd9 7b3e d009 b43d
00000020: 2f14 f4bd d75a 953d 953d 5dbe e42c 0d3e
00000030: 241f 2ebe 24f7 d7bd 785b 043e a3c3 733e
00000040: ff2a 893d b7bf c93d 3e92 313e aa00 383d
00000050: 42ab 16be 7894 f4bd 5020 7cbd 2083 44be
00000060: c9d0 653e 334e 11be 4173 41bd 6785 0b3e
00000070: 8938 c83c 7782 bb3d d1b9 7f3e 3760 9d3d
0.216384 0.2048669 -0.15414107 0.14245877 -0.20455444 -0.15162802 0.24594711 0.08790934
-0.11917912 0.07292717 -0.21605523 0.13786656 -0.17004067 -0.10545185 0.12925518 0.23805098
0.06697654 0.0985102 0.17340943 0.04492251 -0.14713767 -0.11942381 -0.061554253 -0.19190645
0.22442926 -0.14189987 -0.047229055 0.13625108 0.02444102 0.091557436 0.24973227 0.07684367
