UQ_assessment_1D/models/MCD_NLL/i1_nn64_nl4_o1_tr1_ep400_b50000_dr0.01_ns100_s42/model.pth (torch, 80584 bytes, 13 tensors)

weight f4 [32, 1]
0	0x3f5b0db1	0.85567766
1	0x3f405821	0.75134474
2	0xbe6fe520	-0.23427248
3	0x3f861638	1.0475531
4	0xbe1d894e	-0.15384409
5	0x3ea791de	0.32728475
6	0xbf17c9b2	-0.5929214
7	0x3f46f55a	0.77718127
8	0x3f5b704c	0.85718226
9	0xbf8a23fc	-1.0792232
10	0x3f51b887	0.8192219
11	0x3e16e34e	0.14735147
12	0x3f437681	0.763527
13	0x3e0aae50	0.13543057
14	0x3f15d756	0.585317
15	0xbd329d4c	-0.04360704
16	0x3f584658	0.84482336
17	0x3e175b38	0.14780891
18	0xbeef05a4	-0.4668399
19	0x3e828208	0.2548983
20	0xbeebe5ac	-0.46073663
21	0xbe14d9e3	-0.14536242
22	0xbf0b7839	-0.5448032
23	0x3f55cc3c	0.8351476
24	0xbf710a7c	-0.9415662
25	0xbf2d27cd	-0.67638856
26	0xbe436b6a	-0.19083944
27	0xbf19ecfe	-0.60127246
28	0x3d433b9a	0.047664262
29	0xbf9e570a	-1.2370312
30	0x3f5395db	0.82650536
31	0xbf46b935	-0.77626354

bias f4 [32]
0	0x3f49abd4	0.78777814
1	0xbec927f4	-0.39288294
2	0xbea63fac	-0.32470453
3	0x3f26c04c	0.6513717
4	0x3e54d420	0.20784044
5	0x3f342043	0.7036173
6	0x3da1869d	0.078870036
7	0xbedc4154	-0.4301859
8	0x3dd89e8c	0.105771154
9	0xbe515e1b	-0.20446055
10	0x3f01632a	0.5054194
11	0x3f64897e	0.89272296
12	0x3f09a442	0.5376626
13	0xbedfd514	-0.43717253
14	0x3f1d8aa6	0.61539686
15	0x3e60aa92	0.21940067
16	0x3f0ec347	0.5576672
17	0xbf1c0886	-0.60950506
18	0xbf7d6aa4	-0.98990846
19	0xbec5d10c	-0.38636053
20	0xbf445b9c	-0.76702285
21	0x3f51f8cb	0.8202025
22	0x3ec354a7	0.38150522
23	0x3eaa84a1	0.33304313
24	0x3e508a52	0.20365265
25	0xbdda0201	-0.106449135
26	0x3f5c10dc	0.85963225
27	0xbf35e438	-0.7105136
28	0x3c407010	0.011745468
29	0xbf492a86	-0.7858051
30	0x3e8eee1d	0.2791604
31	0xbed750b2	-0.42053753

weight f4 [64, 32]
0	0x3b169bb5	0.0022980992
1	0xbd16daf8	-0.03682992
2	0x3e1622ce	0.14661714
3	0xbe2030ac	-0.15643567
4	0xbe211398	-0.1573013
5	0xbdd7eea3	-0.10543563
6	0x3ddb651e	0.10712646
7	0x3d714cb1	0.05891103
8	0x3e2e2f9c	0.17010349
9	0xbe4a821e	-0.19776198
10	0xbe338c7b	-0.17534058
11	0xbe42be1d	-0.19017835
12	0xbe2ed5df	-0.17073773
13	0x3d92a3e4	0.07160166
14	0x3c3b3fa1	0.0114287445
15	0x3dc29807	0.09501653
16	0xbdbaf749	-0.09129197
17	0xbdf6ce58	-0.12051076
18	0x3dc016fd	0.09379385
19	0xbd925670	-0.07145393
20	0x3ddbbada	0.107289985
21	0xbdc026e0	-0.09382415
22	0x3d49ba5a	0.049249984
23	0xbe0ca56f	-0.13734983
24	0xbdb6b3e6	-0.08921032
25	0x3b04a022	0.0020237048
26	0xbc6d9ea1	-0.014503152
27	0xbd389c1f	-0.045070764
28	0x3dd7ccd9	0.105371185
29	0x3d8be58a	0.068308905
30	0xbe034539	-0.12819375
31	0xbe15c183	-0.146246
32	0x3ddd9e47	0.10821205
33	0xbdd3653e	-0.10322045
34	0xbd805940	-0.06267023
35	0xbe2f2741	-0.17104818
36	0xbe1e97e2	-0.15487626
37	0xbc1b9e6e	-0.009498222
38	0xbd9da863	-0.07698133
39	0xbe03663f	-0.12831973
40	0xbd493780	-0.049125195
41	0xbe3251fd	-0.17414089
42	0xbe50819a	-0.20361939
43	0xbe1aa0b1	-0.15100361
44	0xbe555dc9	-0.20836557
45	0xbde68618	-0.11256045
46	0x3dfc037f	0.12305354
47	0xbca5eb57	-0.02025382
48	0x3a592ab5	0.0008284257
49	0xbe28d57a	-0.16487685
50	0xbdedc70b	-0.1161023
51	0xbd71036b	-0.05884115
52	0x3ce27316	0.027642768
53	0xbe1f4864	-0.15554959
54	0xbe04f004	-0.12982184
55	0xbe234ae7	-0.15946542
56	0xbd59c57c	-0.05316685
57	0xbdf4756d	-0.1193646
58	0xbd86fba5	-0.06590966
59	0xbdf55402	-0.11978914
60	0xbe3289ed	-0.17435427
61	0xbdd336c9	-0.10313184
62	0xbde96abc	-0.11397311
63	0xbe0ee007	-0.13952647
64	0x3e660599	0.22463073
65	0x3d38688c	0.04502158
66	0x3e1bbf9a	0.15209809
67	0x3e05cebf	0.13067149
68	0xbd9f1cef	-0.077691905
69	0x3e4cfc10	0.20018029
70	0x3cb72bca	0.022359747
71	0xbd092df7	-0.0334911
72	0xbd7014fa	-0.058613755
73	0xbe034693	-0.1281989
74	0x3e036292	0.1283057
75	0x3d15d8f9	0.036583874
76	0x3e1742a3	0.14771514
77	0xbe148e53	-0.14507417
78	0x3e54459a	0.20729676
79	0xbd60d849	-0.054893766
80	0x3d4191ab	0.04725806
81	0x3d173ce1	0.036923293
82	0x3dbae732	0.09126128
83	0x3e122387	0.14271365
84	0x3e24e6b7	0.16103636
85	0xbd86b803	-0.06578066
86	0x3dedeec4	0.116178066
87	0x3a3afd48	0.0007133079
88	0x3d4a7900	0.0494318
89	0xbd841898	-0.064500034
90	0x3e711f09	0.23546995
91	0xbe04dbf6	-0.12974533
92	0x3e33127b	0.17487518
93	0x3e3b600c	0.18298358
94	0x3e139671	0.14412858
95	0xbce7abd1	-0.02828017
96	0x3e75edfd	0.24016567
97	0x3df20cae	0.11818825
98	0x3cba4a6b	0.022740563
99	0xbdc7543d	-0.09732864
100	0x3e28ea46	0.16495618
101	0x3d698d54	0.057019547
102	0x3a304e57	0.0006725541
103	0x3e50bd5a	0.20384732
104	0x3df9c04b	0.1219488
105	0xbd60fa51	-0.05492622
106	0xbc33f5c0	-0.010983884
107	0x3d918024	0.07104519
108	0x3e375290	0.17902589
109	0xbd3906b8	-0.045172423
110	0xbca80ebe	-0.020514842
111	0x3ccc6083	0.024948364
112	0xbd5a0147	-0.053223874
113	0x3d811d60	0.06304431
114	0x3e0c1dc2	0.13683227
115	0xbe2a6b3d	-0.1664247
116	0x3d282adf	0.04105651
117	0x3e31e43e	0.17372224
118	0x3de52e99	0.111905284
119	0x3c7985bb	0.015229638
120	0x3e2eb9fb	0.17063133
121	0x3e2b557e	0.16731831
122	0x3e1883bc	0.14894003
123	0xbcfe78c6	-0.031063449
124	0x3d1064a6	0.035252236
125	0x3e396719	0.18105735
126	0x3d5430ba	0.05180428
127	0x3cff0ae3	0.03113312
128	0x3deb5633	0.114910506
129	0x3e296ea9	0.1654612
130	0xbc8f5d0d	-0.017500425
131	0xbcea0026	-0.028564524
132	0xbd64abc1	-0.05582786
133	0xbcb31d01	-0.021864416
134	0xbaaf1cff	-0.0013360082
135	0x3e076fcc	0.13226241
136	0xbe26d0e1	-0.16290618
137	0xbdd84ed3	-0.105619095
138	0x3e295074	0.16534597
139	0x3d2e9533	0.042622756
140	0xbbb6f185	-0.0055829906
141	0xbdda4673	-0.10657968
142	0xbde83bca	-0.11339529
143	0xbe634822	-0.22195485
144	0xbd50d93e	-0.05098843
145	0x3d748621	0.059698228
146	0x3de6d7fc	0.112716645
147	0x3da726fc	0.081617326
148	0xbe2002ce	-0.1562607
149	0xbdfcb4ed	-0.12339196
150	0xbddd39e8	-0.1080206
151	0x3e3c39d8	0.1838144
152	0xbc8df318	-0.01732783
153	0xbdd72c54	-0.10506502
154	0x3cb30954	0.021855034
155	0xbd89e4d3	-0.06733098
156	0xbdd38a0e	-0.10329066
157	0x3d9902a9	0.074712105
158	0xbd99129a	-0.07474251
159	0xbda5455a	-0.080698684
160	0xbd9c1cfd	-0.076227166
161	0x3e5a2d54	0.21306354
162	0x3e092582	0.13393214
163	0x3e21364d	0.1574337
164	0x3d91daff	0.07121848
165	0xbd67ffa6	-0.05664029
166	0x3c603267	0.013683892
167	0x3ea07308	0.31337762
168	0x3e33585f	0.1751418
169	0x3f1367c2	0.57580197
170	0x3e43de44	0.19127756
171	0x3e0f2118	0.13977468
172	0x3dd4c9c4	0.10390046
173	0xbe09aa92	-0.13443974
174	0xbd47c883	-0.048775207
175	0xbd00e08b	-0.03146414
176	0x3e2de5dd	0.16982217
177	0xbdb1bfd8	-0.086791694
178	0xbd11b8f1	-0.035576764
179	0xbdd05aeb	-0.10173591
180	0xbd03f1a7	-0.03221288
181	0xbb76a698	-0.0037635919
182	0xbf06c024	-0.52636933
183	0x3e230713	0.15920667
184	0xbfa4e95b	-1.2883714
185	0x3f04cc4d	0.5187424
186	0x3d6515a1	0.05592883
187	0xbe04ca34	-0.1296776
188	0x3d8b0139	0.067873426
189	0xc028df22	-2.638619
190	0x3d2514bf	0.04030299
191	0xbfa44689	-1.2834026
192	0x3dece646	0.11567359
193	0xbe4753dd	-0.19465585
194	0x3db5f790	0.088851094
195	0x3d898d84	0.06716445
196	0x3e7113e8	0.2354275
197	0xbd4f539d	-0.05061685
198	0x3e651e9b	0.22374956
199	0xbf2c65a7	-0.6734261
200	0x3ca86478	0.02055572
201	0x3e385aa6	0.1800333
202	0xbddb6ba4	-0.1071389
203	0x3dab11ee	0.08353029
204	0xbd168047	-0.03674343
205	0xbe1725fa	-0.1476058
206	0x3df4eaf3	0.119588755
207	0xbd94c30b	-0.07263764
208	0x3d9987dd	0.07496617
209	0x3e077176	0.13226876
210	0x3e2b30ee	0.16717884
211	0xbd2acb87	-0.041698005
212	0xbe14bbab	-0.14524715
213	0x3e090c6d	0.13383646
214	0x3e497f85	0.19677551
215	0xbe6c1ac2	-0.23057082
216	0x3d59edd8	0.05320534
217	0xbcbe04eb	-0.023195704
218	0x3d9d8525	0.07691411
219	0xbdb23348	-0.08701187
220	0xbd4855b2	-0.04890985
221	0x3c911f9c	0.017715268
222	0xbe5c378e	-0.21505567
223	0x3e7c9613	0.24666624
224	0x3e5bc143	0.21460442
225	0xbe6d171a	-0.23153344
226	0xbca4eb39	-0.020131694
227	0xbd1a31f3	-0.03764529
228	0xbd9e060f	-0.07715999
229	0xbdc808be	-0.097672924
230	0x3e0ac296	0.13550791
231	0xbfb5bdc8	-1.4198542
232	0xbe093fb8	-0.13403213
233	0xbcc4ed40	-0.02403891
234	0xbdcdbf0b	-0.10046204
235	0x3c3f6038	0.011680655
236	0x3d80fe98	0.0629856
237	0xbd1995f7	-0.037496533
238	0xbaad2260	-0.0013209097
239	0xbba27eb0	-0.00495895
240	0xbdff0aa5	-0.12453202
241	0x3e17c938	0.14822853
242	0xbd90e21a	-0.070743755
243	0x3d3fdd9a	0.046842195
244	0xbd7b3aeb	-0.061335485
245	0x3db6c181	0.08923627
246	0x3e75d8a4	0.24008423
247	0x3dc3da3d	0.0956311
248	0xbdaddcaf	-0.08489358
249	0x3e026e78	0.12737453
250	0x3e7a233a	0.244275
251	0x3d3e7e20	0.046507
252	0x3e4dbced	0.200916
253	0x3e4b990f	0.19882606
254	0x3c7cbdf7	0.0154261505
255	0x3dbb857a	0.09156318

bias f4 [64]
0	0xbdb2801f	-0.087158434
1	0x3bb1b426	0.0054230867
2	0x3e5ec759	0.21755733
3	0x3e04823b	0.12940304
4	0x3dc9b832	0.098495856
5	0x3e6a4942	0.22879508
6	0x3e1b58f7	0.15170656
7	0x3e141500	0.14461136
8	0x3bc1b2e2	0.005911217
9	0xbd2771ab	-0.040879887
10	0x3e42c746	0.1902133
11	0x3e18412e	0.14868614
12	0x3be8d250	0.0071051493
13	0xbdbed81f	-0.093185656
14	0x3e7d8061	0.24756004
15	0xbd8a18ec	-0.06743035
16	0x3cffafdc	0.031211786
17	0x3e337564	0.1752525
18	0x3e4ee596	0.20204768
19	0xbd8d5d50	-0.069025636
20	0xbe00315a	-0.12518826
21	0x3e3ef58c	0.18648356
22	0x3c8ffcfb	0.017576685
23	0xbbbb6287	-0.0057185325
24	0x3e1e32cc	0.15449065
25	0xbe693f1b	-0.22777979
26	0xbd46724c	-0.048448846
27	0x3e342337	0.17591558
28	0x3d85351d	0.06504271
29	0xbed48509	-0.41507748
30	0x3d71ad7d	0.059003342
31	0x3d3e315b	0.046433788
32	0x3e3fb5f6	0.18721756
33	0x3e805afc	0.25069416
34	0x3de97972	0.11400117
35	0xbcb0b3e8	-0.021570161
36	0x3e70f930	0.23532557
37	0xbea9e0e7	-0.331794
38	0xbd90d443	-0.07071736
39	0xbe803572	-0.25040776
40	0xbd77f85d	-0.060539592
41	0xbe09c369	-0.1345345
42	0x3de81cff	0.113336556
43	0x3d9b8ca4	0.075951844
44	0x3e264ad7	0.16239487
45	0x3e4fb6c1	0.20284559
46	0xbe2f8571	-0.17140748
47	0xbe0aca98	-0.13553846
48	0xbbf564d4	-0.0074888263
49	0xbc7c85a3	-0.015412721
50	0x3d879b1c	0.06621382
51	0x3e145595	0.14485772
52	0x3e72d82b	0.23715274
53	0xbdaa7da5	-0.08324746
54	0xbd5fe895	-0.054665167
55	0x3d3e17bf	0.046409365
56	0x3e59ba9d	0.21262594
57	0x3d2e8309	0.042605434
58	0xbb689c43	-0.003549353
59	0xbdd28d70	-0.10280883
60	0xbe28f54d	-0.16499825
61	0xbd19a834	-0.037513927
62	0x3e22f98a	0.15915504
63	0xbc4308d0	-0.0119039565

weight f4 [64, 64]
0	0x3de48902	0.11158945
1	0x3db3b019	0.08773822
2	0xbdea8ae0	-0.114522696
3	0x3daed36d	0.0853642
4	0x401b1074	2.4228792
5	0x3f4248e4	0.7589247
6	0xbe45172e	-0.19247124
7	0xbe41c255	-0.18921788
8	0x3ca51ba0	0.020154774
9	0x3d13f3c8	0.03612116
10	0x408be99a	4.372266
11	0x406d6b1c	3.7096624
12	0xbf318467	-0.69342655
13	0xbdf6c72c	-0.12049708
14	0xbe14556a	-0.14485708
15	0x3fb42fe7	1.4077119
16	0xbe0a202e	-0.13488838
17	0xbd12703b	-0.035751563
18	0xbdf17c6a	-0.11791308
19	0xbde0ac0e	-0.10970317
20	0x3e102a91	0.14078738
21	0x3d29feb4	0.04150267
22	0x3ceb240a	0.028703708
23	0x3e094b87	0.13407718
24	0x3d55344d	0.05205183
25	0xbd8dbf96	-0.06921308
26	0xbdc6bac2	-0.0970359
27	0xbe87c916	-0.26520604
28	0xbb64a08f	-0.003488574
29	0x3ea9dbd1	0.3317552
30	0xbeda1ff7	-0.42602512
31	0x3db600ab	0.08886846
32	0x3db56a5c	0.08858177
33	0xbddcb1b4	-0.10776082
34	0xbd8c4205	-0.0684853
35	0xbe50a05e	-0.20373675
36	0xbd46bc3e	-0.048519365
37	0xbd23f1a7	-0.04002538
38	0xbdabb1a6	-0.08383493
39	0x3d798d44	0.060925737
40	0xbe844289	-0.25832012
41	0xbde046e0	-0.10951018
42	0x3d772141	0.060334448
43	0x3e05d331	0.13068844
44	0x3ef39192	0.47572
45	0x3da1b018	0.07894915
46	0xbc3101b0	-0.010803625
47	0xbbe59e80	-0.00700742
48	0x3b302f9a	0.0026883841
49	0xbd91122d	-0.07083545
50	0xbd2affc0	-0.04174781
51	0x3ce459db	0.027874878
52	0x3dd62972	0.10457124
53	0xbd1c7c1e	-0.038204305
54	0x3eacb42e	0.33731216
55	0xbd2d5c1d	-0.042324174
56	0xbcd462ef	-0.025926081
57	0x3ddc8165	0.107668675
58	0x3f5a4967	0.85268253
59	0xbdb89892	-0.090134755
60	0x3dfcba84	0.123402625
61	0x3e1959ae	0.14975616
62	0x3eb94fca	0.36193687
63	0xbe59005e	-0.21191546
64	0x3b9fd100	0.0048772097
65	0xbd0eecf8	-0.03489396
66	0xbcf1f1c6	-0.029534232
67	0xbe19e402	-0.15028384
68	0xbc57a44f	-0.013161733
69	0xbddd1eae	-0.10796867
70	0xbe07b7b1	-0.13253666
71	0xbe1561e6	-0.14588127
72	0x3d77c09c	0.06048642
73	0xbd837fb3	-0.06420841
74	0xbdf605f8	-0.12012857
75	0xbe1f178c	-0.15536326
76	0xbdf70cac	-0.12062964
77	0xbe34422e	-0.1760337
78	0xbd4c5a8b	-0.049891036
79	0x3d3671ec	0.044542238
80	0xbcbbe190	-0.022934705
81	0xbdeb926c	-0.11502537
82	0xbd8ce414	-0.0687944
83	0xbe240f2a	-0.1602141
84	0xbe0c05bc	-0.13674062
85	0xbdb6fc00	-0.08934784
86	0x3d23ce13	0.03999145
87	0xbdcd29f0	-0.100177646
88	0xbb87188f	-0.0041228007
89	0xbd497f70	-0.0491938
90	0xbdbf117c	-0.09329507
91	0xbe5c79a7	-0.21530782
92	0x3d30e8df	0.043190833
93	0x3df94636	0.12171595
94	0xbd86a0a8	-0.065736115
95	0x3c9884c9	0.018618004
96	0x3d0ef71a	0.034903623
97	0xbbe5a2fe	-0.0070079556
98	0xb95e574a	-0.00021204088
99	0xbe61b397	-0.22041164
100	0xbe3780a2	-0.17920163
101	0xbdc47d86	-0.09594254
102	0xbcc2e049	-0.023788588
103	0xbd602365	-0.054721255
104	0xbd10d93f	-0.035363432
105	0xbd782af8	-0.060587853
106	0xbe337caf	-0.17528032
107	0xbd457bc6	-0.048213743
108	0xbda318f0	-0.07963741
109	0xbe0c5c40	-0.13707066
110	0x3cb25228	0.02176769
111	0xbddc35c1	-0.1075244
112	0xbdd2006d	-0.102539875
113	0x3b9ad622	0.0047252337
114	0x3d4197cd	0.04726391
115	0xbda6d1bf	-0.08145475
116	0xbe1e8187	-0.15479098
117	0xbd806d62	-0.06270863
118	0x3c826538	0.015917405
119	0x3bef7fd1	0.007308938
120	0xbb5494ea	-0.0032437393
121	0xbdecc80f	-0.11561596
122	0xbd6e80c7	-0.05822828
123	0xbde009a2	-0.10939337
124	0xbd22e560	-0.03976953
125	0xbd549737	-0.051902022
126	0xbe1f83d5	-0.15577634
127	0xbe25c5d4	-0.16188747
128	0xbd1e6828	-0.03867355
129	0xbe1c77dc	-0.15280098
130	0xbc1a0f25	-0.009403025
131	0xbc3ac527	-0.011399544
132	0x3d5f0632	0.054449268
133	0x3e4267f8	0.18984973
134	0x3e11ff73	0.14257602
135	0x3d84aabf	0.0647788
136	0xbcd01dfe	-0.025404926
137	0x3dea3b61	0.11437107
138	0x3dd2d51c	0.10294554
139	0xbe1f05f7	-0.15529619
140	0xbbb87b4e	-0.0056299334
141	0xbc3bbae6	-0.011458134
142	0x3db3ab78	0.087729394
143	0xbcc305e3	-0.023806518
144	0xbfe238cd	-1.7673584
145	0x3d3ef99d	0.04662477
146	0x3e3c6826	0.18399104
147	0x3e305764	0.17220837
148	0x3e1cdf22	0.15319493
149	0x3dd84c78	0.1056146
150	0x3d2e17ff	0.042503353
151	0x3ddeff03	0.108884834
152	0x3b03b111	0.0020094553
153	0x3c117ee2	0.008880349
154	0x3d3a78cb	0.045525353
155	0xbe210d14	-0.15727645
156	0xbd3581d9	-0.044313285
157	0x3d4b8930	0.04969138
158	0x3e3c0533	0.18361358
159	0xbb94ed94	-0.004544923
160	0x3e01d770	0.12679839
161	0x3da5ed3a	0.08101888
162	0x3db553c0	0.08853865
163	0xb9ba30b6	-0.00035512977
164	0x3e492e16	0.19646487
165	0xbe7d4a04	-0.24735266
166	0x3a05b542	0.0005100557
167	0x3cc2f79b	0.023799708
168	0x3e0e2741	0.13882162
169	0x3dcd7c2e	0.10033451
170	0x3d85235c	0.06500885
171	0x3d5fd519	0.054646585
172	0x3d465506	0.04842093
173	0x3d31ac85	0.043377418
174	0xbbaca617	-0.005268823
175	0x3da5f2a8	0.08102924
176	0x3e08bd28	0.13353407
177	0x3e39e879	0.18155088
178	0x3d360c8a	0.044445552
179	0x3dc55f53	0.09637322
180	0x3e2d7c62	0.1694198
181	0xbc118475	-0.008881678
182	0xbfce38bb	-1.6111063
183	0x3e03bcbe	0.12864968
184	0x3dc960d9	0.09832925
185	0xbcbee5df	-0.02330297
186	0x3da8d47b	0.082436524
187	0xbd93adab	-0.07210859
188	0x3de70476	0.11280148
189	0x3e41620e	0.18885061
190	0x3de040f9	0.109498926
191	0x3e4d4d09	0.20048918
192	0xbd83d848	-0.06437737
193	0x3dde822a	0.108646706
194	0x3d4cf01a	0.050033666
195	0xbd80bc64	-0.06285933
196	0xbe20a663	-0.15688471
197	0xbd99ed5f	-0.07515978
198	0xbdbad55c	-0.09122726
199	0xbc7970e9	-0.015224674
200	0xbde81a4c	-0.11333141
201	0xbd16c0bc	-0.0368049
202	0xbd1d5128	-0.038407475
203	0x3cc132c5	0.02358378
204	0xbdfe753d	-0.12424705
205	0xbdae7844	-0.085190326
206	0xbe31f3cd	-0.17378159
207	0xbdf256a9	-0.11832935
208	0x3c3cac00	0.011515617
209	0x3cbeff9a	0.02331524
210	0x3d7f895d	0.06238686
211	0xbe1e50cc	-0.15460509
212	0xbbe0fbc1	-0.006865949
213	0xbde80430	-0.11328924
214	0xbe20f63e	-0.15718934
215	0xbd820477	-0.06348508
216	0xbdf4d15e	-0.11953996
217	0xbe2966df	-0.16543148
218	0xbd687f4c	-0.056762025
219	0xbce60745	-0.028079638
220	0x3d33c349	0.04388741
221	0x3d8ec5f4	0.0697135
222	0xbde04b50	-0.10951865
223	0xbe132b4b	-0.14371984
224	0xbe1d889b	-0.15384142
225	0xbe052c02	-0.13005069
226	0xbdda5708	-0.10661131
227	0x3dbb0bfa	0.09133144
228	0xbc887b15	-0.016660253
229	0xbd454f80	-0.04817152
230	0x3cdeb45b	0.02718561
231	0xbe0c9a64	-0.1373077
232	0xbdd08f64	-0.101835996
233	0xbd063dc9	-0.032773767
234	0xbe04135e	-0.12898013
235	0x3dd1e90f	0.102495305
236	0x3de4b9b8	0.111682355
237	0xbdee0c51	-0.11623443
238	0xbe16d0f6	-0.1472815
239	0x3d40b784	0.047050014
240	0xbe310e01	-0.17290498
241	0x3da9b524	0.08286503
242	0xbdf3eb72	-0.11910142
243	0x3ba11d76	0.004916842
244	0xbe201f53	-0.15636949
245	0xbdad473c	-0.084608525
246	0x3c6198c0	0.013769329
247	0xbc3b70e9	-0.011440494
248	0x3d2c8fa7	0.042129185
249	0x3d44a735	0.048011024
250	0xbbeb9140	-0.007188946
251	0xbc83a720	-0.016070902
252	0x3ca944e0	0.020662725
253	0xbc8b81ad	-0.017029608
254	0xbd4883a0	-0.048953652
255	0xbe2ee32c	-0.17078847

bias f4 [64]
0	0xbe484b8a	-0.19560066
1	0x3cd12df3	0.025534606
2	0x3e3d5fa0	0.1849351
3	0x3ce44125	0.027863095
4	0xbd737603	-0.059438717
5	0x3da623aa	0.08112271
6	0xbd942f2d	-0.072355606
7	0xbe11d105	-0.14239891
8	0xbd656b3b	-0.056010466
9	0xbd431651	-0.047628704
10	0xbcdd4735	-0.027011493
11	0x3c52af0c	0.012859117
12	0x3df9e26c	0.1220139
13	0xbc91ed5c	-0.017813377
14	0x3e160218	0.14649236
15	0x3d97d7f4	0.07414237
16	0x3e1fbc45	0.15599163
17	0xbd8037a5	-0.06260613
18	0xbdd5b9a0	-0.10435796
19	0x3b4db524	0.0031388486
20	0xbe083556	-0.13301596
21	0xbde74fde	-0.1129453
22	0xbd3562b6	-0.04428359
23	0x3e316473	0.17323475
24	0x3db61717	0.08891123
25	0x3da8ec80	0.08248234
26	0xbddb0778	-0.10694784
27	0xbddfe81e	-0.10932945
28	0xbdca73dd	-0.098853804
29	0xbcd04a72	-0.025426123
30	0xbd1c4226	-0.03814902
31	0xbda66e1d	-0.08126471
32	0x3de63104	0.11239818
33	0x3d122835	0.035682876
34	0x3ca979e3	0.020688003
35	0x3df45fdf	0.119323485
36	0xbdd5c2ae	-0.10437523
37	0x3d53cfcb	0.05171184
38	0xbe207585	-0.1566983
39	0x3e3beb2d	0.18351431
40	0x3dec385f	0.115341894
41	0x3e0c9247	0.13727675
42	0xbdb8ca3b	-0.090229474
43	0x3d5befbb	0.05369542
44	0xbaa67153	-0.0012698568
45	0xbd24d69c	-0.04024373
46	0x3e0e0fce	0.13873217
47	0x3e53fe15	0.20702393
48	0xbb517215	-0.0031958867
49	0xbddf20ae	-0.10894905
50	0xbd2909a3	-0.041268956
51	0xbda82e9a	-0.082120135
52	0xbe1887ff	-0.14895628
53	0xbde0dbd7	-0.10979431
54	0x3dd74f08	0.10513121
55	0x3d645965	0.055749316
56	0xbde4628b	-0.11151608
57	0x3cbe505b	0.023231676
58	0x3df1da18	0.11809176
59	0xbe0d5a85	-0.13804062
60	0x3d3f3058	0.046676964
61	0x3e22cf3c	0.15899366
62	0x3d6dc1f0	0.05804628
63	0x3e0ffb6f	0.14060758

weight f4 [64, 64]
0	0xbcc3a527	-0.023882462
1	0xbd5109f8	-0.051034898
2	0x3d09e39f	0.033664342
3	0x3d4eb24e	0.050463013
4	0xbb944e50	-0.004525937
5	0xbcb0b3cb	-0.021570107
6	0xbcf9b16d	-0.030480111
7	0x3c506650	0.012719706
8	0x3cbc5174	0.022988059
9	0xbcb2e8bc	-0.021839492
10	0xbe2b18d8	-0.16708696
11	0xbe091b41	-0.13389303
12	0xbe3ea0b0	-0.18615985
13	0xbdc7f6d8	-0.097638786
14	0xbd5120d4	-0.051056698
15	0xbdddf858	-0.108383834
16	0xbe3f66c6	-0.18691549
17	0xbe10bdf5	-0.14134963
18	0x3de7f515	0.113260426
19	0xbdb28464	-0.08716658
20	0xbda5f529	-0.08103401
21	0x3ca5c970	0.020237654
22	0xbdb09f60	-0.08624148
23	0xbe163bd1	-0.14671256
24	0xbdeb0545	-0.114756145
25	0xbde57c08	-0.11205298
26	0xbe354ecb	-0.17705838
27	0xbd6231bb	-0.055223208
28	0x3c501529	0.0127003575
29	0xbc5d0102	-0.01348901
30	0x3dfa5b76	0.12224476
31	0xbb7c2763	-0.0038475625
32	0x3cb78abd	0.022405023
33	0xbcb27e4a	-0.021788735
34	0xbe0ecec2	-0.1394606
35	0xbe0c5fb7	-0.13708387
36	0xbd0c7bb0	-0.034297645
37	0xbe2779a7	-0.16355
38	0xbd2c6479	-0.042088006
39	0xbd00fec6	-0.03149297
40	0xbe1bf9c0	-0.15231991
41	0xbdb0108a	-0.085969046
42	0xbe2e6646	-0.17031202
43	0x3d9fff8e	0.07812415
44	0x3c829f4b	0.015945097
45	0xbddcc750	-0.10780203
46	0x3d42a95e	0.047524802
47	0xbe0cc2a7	-0.13746129
48	0x3d2f47ec	0.0427932
49	0x3c43c979	0.01194989
50	0xbcbea00d	-0.023269678
51	0x3cdc620a	0.026902217
52	0x3d6e5fa4	0.05819668
53	0x3d928e28	0.071560204
54	0xbd9da316	-0.07697122
55	0xbd2d2c3f	-0.042278524
56	0x3dda964c	0.10673198
57	0xbf1d7d5f	-0.61519426
58	0xbdd631e7	-0.10458737
59	0x3c82db80	0.015973806
60	0xbe0ce322	-0.1375852
61	0xbdf5080c	-0.119644254
62	0xbd4e721d	-0.050401796
63	0xbc42a1d9	-0.011879408
64	0xbefa9a89	-0.48946026
65	0xbd9e2f28	-0.07723838
66	0x3caa5812	0.020793948
67	0x3c1c8736	0.009553721
68	0xbcbefcf3	-0.023313975
69	0xbd42bb44	-0.04754187
70	0x3d0a80c5	0.03381421
71	0xbce4b7e0	-0.02791971
72	0xbdd85507	-0.10563093
73	0xbccbfd50	-0.024901062
74	0xbd5f09f6	-0.05445286
75	0xbd719ed4	-0.05898936
76	0x3d02ec27	0.031963494
77	0xbdfb18f6	-0.1226062
78	0xbd0f7b18	-0.0350295
79	0xbe1a10a1	-0.15045406
80	0xbd8b69e2	-0.06807305
81	0xbcdca410	-0.0269337
82	0xbd4cd4ac	-0.050007507
83	0x3c1d95a7	0.009618199
84	0xbd657a5f	-0.056024905
85	0x3c56cee0	0.013110846
86	0x3d33cbc5	0.0438955
87	0xbdf73bf3	-0.12071981
88	0x3d2db4d2	0.04240877
89	0x3cc2b4a6	0.02376778
90	0x3d1ab8b4	0.037773803
91	0x3b1f5cc0	0.0024316758
92	0x3d8de3dc	0.06928226
93	0xbde24bb3	-0.11049595
94	0xbd3cf07b	-0.046127778
95	0xbd4f71b6	-0.050645553
96	0xbdcff22a	-0.10153611
97	0xbcf0dbd8	-0.029401705
98	0xbd56c27b	-0.052431565
99	0x3dd784a8	0.10523349
100	0x3dfea382	0.124335304
101	0xbe0f0a65	-0.13968809
102	0xbd6801cc	-0.05664234
103	0xbe20b1dd	-0.1569285
104	0x3cd3418a	0.025788087
105	0x3d8415b5	0.06449453
106	0xbd43b5ac	-0.047780678
107	0xbcf978a4	-0.030453034
108	0xbda84f5d	-0.08218262
109	0xbdad839d	-0.08472369
110	0x3d359770	0.044333875
111	0xbe2f18cb	-0.17099302
112	0xbd94fd87	-0.07274919
113	0xba066100	-0.00051261485
114	0xbde1c8ae	-0.11024605
115	0xbb894b89	-0.0041899127
116	0x3daab79a	0.083358005
117	0xbe1df894	-0.15426856
118	0xbbd4bb4a	-0.006492053
119	0xbd7ffe5e	-0.062498443
120	0x3defd7f6	0.11711113
121	0xbedc4859	-0.43023947
122	0x3d51f1b2	0.05125589
123	0xbd3e357c	-0.046437725
124	0x3d5101b0	0.051027
125	0xbdf3c711	-0.11903203
126	0xbd0cf8ca	-0.03441695
127	0xbe81be23	-0.25340375
128	0xbd50ee5f	-0.05100858
129	0xbac036b7	-0.0014664744
130	0x3bf0ae29	0.0073449803
131	0xbdb0e1c5	-0.08636812
132	0xbe22c41a	-0.1589512
133	0xbd6a7a55	-0.05724557
134	0x3d5d0619	0.053960893
135	0x3ddd70ea	0.10812552
136	0xbe21d7db	-0.15804999
137	0x3e158c87	0.14604388
138	0xbb7b5e58	-0.0038355794
139	0x3d1955e1	0.037435416
140	0x3c215e68	0.009849168
141	0x3d60a1f1	0.05484194
142	0xbd4c67e5	-0.04990377
143	0xbe135ccf	-0.14390872
144	0xbe4baa2b	-0.19889133
145	0x3e3acc30	0.18241954
146	0x3c8e6555	0.017382303
147	0xbe24d068	-0.16095126
148	0xbd897dfc	-0.06713483
149	0x3bab1983	0.005221547
150	0x3bd70bb4	0.0065626744
151	0xbda44b05	-0.08022121
152	0xbbb3e3c4	-0.0054897983
153	0x3d3a344f	0.04546004
154	0x3de84380	0.113409996
155	0xbe19f771	-0.15035798
156	0xbd6c74f8	-0.057728738
157	0x3ce7b268	0.028283313
158	0xbc1ea0e0	-0.00968191
159	0xbe1f0a20	-0.15531206
160	0x3cb1d981	0.02171016
161	0xbde25d80	-0.1105299
162	0xbbac4f86	-0.0052585034
163	0xbd525312	-0.051348753
164	0xbce13152	-0.027489338
165	0x3d560773	0.052253198
166	0xbd4bf906	-0.049798034
167	0x3c9eefcd	0.019401455
168	0xbd626975	-0.055276353
169	0x3d21ee6a	0.03953401
170	0xbead443c	-0.3384112
171	0x3def09e8	0.11671811
172	0xbde160e2	-0.11004807
173	0xbd24a1a1	-0.040193204
174	0xbd326687	-0.04355481
175	0x3d7fd122	0.062455304
176	0xbe11c866	-0.14236602
177	0xbe1865e5	-0.1488262
178	0x3c771328	0.015080251
179	0xbdf67300	-0.12033653
180	0xbdf593a3	-0.1199105
181	0x3e215e4a	0.15758625
182	0xbde51693	-0.11185946
183	0x3e1d5025	0.15362604
184	0xbd47afe8	-0.04875174
185	0x3df2e536	0.11860125
186	0x3d8102fc	0.06299397
187	0x3c8da330	0.017289728
188	0xbee2458c	-0.44193685
189	0x3be0901c	0.0068531167
190	0xbccdc120	-0.025116503
191	0x3eab5f21	0.33471015
192	0xbf0242f2	-0.508834
193	0x3d64d9d6	0.055871807
194	0x3d8602ac	0.06543478
195	0x3cc29c26	0.023756098
196	0x3d05121e	0.03248798
197	0x3c97da55	0.018536726
198	0x3d7a73e1	0.061145667
199	0x3e1e9923	0.15488105
200	0x3e067757	0.13131462
201	0x3bcc1dc0	0.0062291324
202	0x3bafbff1	0.0053634574
203	0x3d54ffad	0.052001644
204	0x3ceadc59	0.028669523
205	0x3ddb0a15	0.10695282
206	0x3d5d6987	0.054055717
207	0xbdd6b2fc	-0.10483357
208	0xbda16c91	-0.078820355
209	0x3d7891a0	0.060685754
210	0xbd06bcbe	-0.032894842
211	0x3a6d6a2e	0.00090566545
212	0xbd5add80	-0.053433895
213	0xbe87aa34	-0.26497042
214	0x3b997e45	0.004684242
215	0x3df26e52	0.11837448
216	0x3df2ce07	0.11855703
217	0xbda7ae38	-0.081875265
218	0xbc9ab7d7	-0.01888649
219	0xbd046627	-0.032323983
220	0x3d18f689	0.03734449
221	0xbd3a0b87	-0.04542115
222	0x3dcdaf9e	0.10043262
223	0xbe423882	-0.18966869
224	0x3cb75f09	0.022384183
225	0x3dd384ca	0.10328062
226	0x3e1c557c	0.15266985
227	0xbdad8da8	-0.084742844
228	0x3d282405	0.041049976
229	0x3d9e68d7	0.0773484
230	0x3e20c04e	0.15698358
231	0x3e31574f	0.17318462
232	0x3c4134b9	0.011792355
233	0x3cc7eef4	0.024405934
234	0x3e82020d	0.2539219
235	0xbab65c6a	-0.001391304
236	0xbd105ac6	-0.03524282
237	0x3d02799c	0.031854257
238	0x3dce46e5	0.10072116
239	0x3e28ffb5	0.16503794
240	0x3e1222f3	0.14271145
241	0x3e25608e	0.16150114
242	0xbd2b4ad9	-0.041819427
243	0xba911321	-0.0011068323
244	0xbcffc27b	-0.031220665
245	0x3c777214	0.015102882
246	0x3d49d0bb	0.049271327
247	0x3c862aca	0.016377825
248	0xbd032812	-0.032020636
249	0xbe895439	-0.2682207
250	0x3d8f229c	0.06989023
251	0xbcc7faed	-0.024411643
252	0x3bf4a7aa	0.007466276
253	0xbd9c7d29	-0.0764106
254	0xbd5ae306	-0.053439163
255	0xbc9fe513	-0.01951841

bias f4 [64]
0	0x3c8c396d	0.017117226
1	0xbe21121a	-0.15729561
2	0xbe30bec1	-0.17260267
3	0x3dc05d09	0.09392745
4	0x3d8f6624	0.07001904
5	0xbd39a173	-0.045319986
6	0x3e3aa89b	0.1822838
7	0x3e398b81	0.18119623
8	0x3e21a23b	0.15784542
9	0xbe353d57	-0.1769918
10	0x3d9322e1	0.07184387
11	0x3d3e2289	0.046419654
12	0xbe4d4f32	-0.20049742
13	0x3d5ee286	0.05441525
14	0x3e1819df	0.14853619
15	0xbdf14000	-0.11779785
16	0xbdb070bb	-0.08615252
17	0xbe07c503	-0.13258748
18	0xbd12c397	-0.03583106
19	0xbd1daeeb	-0.038496893
20	0x3d06099d	0.03272401
21	0xbb272762	-0.0025505652
22	0xbe055ceb	-0.13023727
23	0xbd5ee8f8	-0.054421395
24	0x3e2798ca	0.16366878
25	0xbdea2275	-0.114323534
26	0xbe46d713	-0.19417982
27	0x3bf0ffc5	0.007354709
28	0xbe0266e1	-0.12734558
29	0x3df2b818	0.11851519
30	0xbe41c845	-0.18924053
31	0x3e26da38	0.16294181
32	0xbd60b525	-0.054860253
33	0x3d168cb3	0.036755275
34	0xbe17cb48	-0.1482364
35	0x3e22eca0	0.15910578
36	0x3d762b33	0.06009979
37	0xbcc827b6	-0.024432998
38	0x3e31e67f	0.17373084
39	0xbcc43305	-0.02395011
40	0xbea29b2c	-0.31759012
41	0x3dc50527	0.09620123
42	0xbc8ba9e9	-0.017048793
43	0xbdbbed06	-0.09176068
44	0x3cab8fb7	0.020942552
45	0xbe2dd72f	-0.16976617
46	0xbc4e62d0	-0.012596801
47	0xbe21eaca	-0.15812221
48	0x3e077ff3	0.13232403
49	0x3d7eccb2	0.06220693
50	0xbc146ae0	-0.009058684
51	0x3e096ea1	0.13421108
52	0xbd6b25a8	-0.05740896
53	0xbdb69576	-0.08915226
54	0x3da58017	0.08081072
55	0x3d8345b2	0.06409778
56	0xbcf82d81	-0.030295135
57	0xbe23d77a	-0.16000167
58	0xbe31feba	-0.17382327
59	0x3b291c99	0.00258044
60	0xbd8281e7	-0.06372433
61	0xbce582aa	-0.028016407
62	0xbe18b53f	-0.1491289
63	0x3db72fd9	0.08944673

weight f4 [64, 64]
0	0x3d647ac7	0.055781152
1	0xbd1708c4	-0.036873594
2	0xbce6cdae	-0.028174248
3	0xbd6fb4d2	-0.058522053
4	0x3cb5e6b3	0.022204733
5	0xbbb06ecf	-0.005384303
6	0xbd86e2dd	-0.065862395
7	0x3c0839ff	0.008314609
8	0xbd880479	-0.06641478
9	0xbcae1480	-0.02125001
10	0x3c39a68e	0.011331214
11	0xbe25ea9e	-0.1620278
12	0x3dd5d7f0	0.104415774
13	0xbe0e9c1f	-0.13926743
14	0xbe378519	-0.17921866
15	0xbdedd12a	-0.116121605
16	0x3daeb47f	0.08530521
17	0x3d478572	0.048711248
18	0xbb4e7753	-0.0031504228
19	0x3c3d6c02	0.011561396
20	0x3c5c7100	0.013454676
21	0xbe28e44c	-0.16493338
22	0x3d50bd78	0.05096194
23	0x3aee8bc7	0.0018199616
24	0xbe048188	-0.12940037
25	0x3a1eb900	0.0006054789
26	0x3c997ab0	0.01873526
27	0x3d9b180a	0.075729445
28	0x3d895f68	0.067076504
29	0x3d3cb397	0.046069708
30	0x3dce54dc	0.100747794
31	0xbd0359f0	-0.032068193
32	0x3c55b879	0.01304447
33	0x3de8723e	0.11349915
34	0xbbf8091c	-0.0075694453
35	0x3cc0de17	0.0235434
36	0xbea4bef0	-0.32176924
37	0xbc142836	-0.00904279
38	0xbe12731f	-0.14301728
39	0x3d23a123	0.039948594
40	0x3ce48a60	0.027898014
41	0xbd01f64b	-0.031729024
42	0xbe2f5d72	-0.1712549
43	0xbc31fd40	-0.010863602
44	0xbdd48300	-0.10376549
45	0x3df1b19a	0.11801453
46	0xbe32aed2	-0.17449501
47	0xbeaee1be	-0.34156603
48	0xbd7df274	-0.0619988
49	0xbe1a493c	-0.15066999
50	0xbc443e08	-0.01197768
51	0xbe15defd	-0.14635845
52	0x3d7205b0	0.059087455
53	0x3c75d2b0	0.015003845
54	0xbe014308	-0.12623227
55	0xbc691080	-0.014225125
56	0xbd49959a	-0.049214937
57	0xbd642e30	-0.05570811
58	0xbda47b7a	-0.08031364
59	0xbc2a2f28	-0.0103872195
60	0x3cf71108	0.030159488
61	0xbe2e484e	-0.1701977
62	0x3da13288	0.07870966
63	0x3e118f46	0.1421481
64	0x3deb6612	0.11494078
65	0x3dd897be	0.105758175
66	0x3d16062b	0.036626976
67	0xbddc97a0	-0.10771108
68	0x3d1bbb46	0.038020395
69	0xbc8478d0	-0.01617089
70	0xbe14ff2d	-0.14550467
71	0xbde8235c	-0.11334869
72	0x3d0c623c	0.03427337
73	0xbdff15da	-0.1245534
74	0xbc1bb963	-0.009504649
75	0xbe21a118	-0.15784109
76	0x3da90b76	0.08254139
77	0xbc9c63db	-0.019090584
78	0x3d0625ca	0.032750882
79	0x3b8bb280	0.004263222
80	0x3d81f30e	0.06345187
81	0x3dd1c980	0.10243511
82	0xbc812d28	-0.015768602
83	0xbdc17920	-0.09446931
84	0xbe11120c	-0.1416704
85	0x3ca25a92	0.019818578
86	0xbda33f58	-0.07971066
87	0xbde017c6	-0.109420344
88	0xbe23221d	-0.15930982
89	0xbd62bf40	-0.05535817
90	0x3cbdf840	0.023189664
91	0xbde7f6e0	-0.113263845
92	0xbd6d3ef0	-0.05792135
93	0x3d879672	0.06620492
94	0xbcae2a40	-0.02126038
95	0xbdc3e575	-0.0956525
96	0x3d722778	0.05911967
97	0xbe2015c6	-0.15633306
98	0xbdc7e488	-0.09760386
99	0xbd11cf4e	-0.03559809
100	0xbe7e67d3	-0.24844293
101	0xbdfc46ac	-0.12318167
102	0x3d66d50e	0.05635553
103	0xbdd12b11	-0.102132924
104	0x3c9c6f18	0.019095942
105	0x3d10ef63	0.035384547
106	0xbbb84b5f	-0.0056242193
107	0x3d1efa30	0.038812816
108	0xbe2b89a4	-0.16751724
109	0xbdeed812	-0.11662306
110	0xbbe4d364	-0.0069832075
111	0xbe9279a6	-0.28608435
112	0x3cbebf08	0.02328445
113	0x3c14d2ed	0.009083492
114	0xbdcd60a0	-0.100281954
115	0xbcf99155	-0.030464808
116	0xbdc8d50e	-0.09806262
117	0xbd8d832a	-0.06909783
118	0xbc9c9f8e	-0.01911905
119	0xbbe4f440	-0.0069871247
120	0xbda37df6	-0.079830095
121	0x3d2d9ce0	0.042385936
122	0x3db1a700	0.08674431
123	0xbe348cab	-0.17631786
124	0x3df01f72	0.11724748
125	0x3d8d51b4	0.06900349
126	0xbc2c9ec0	-0.010535896
127	0xbe32e096	-0.17468485
128	0x3b94aff4	0.004537577
129	0xbca31a3a	-0.019909967
130	0xbe0951c5	-0.13410099
131	0x3d350a3f	0.044199225
132	0x3ce6a43d	0.028154487
133	0x3e33d5c8	0.1756202
134	0x3e481473	0.19539051
135	0xbda86758	-0.08222836
136	0x3d53e888	0.05173543
137	0x3da94679	0.08265395
138	0x3dc3e0a3	0.095643304
139	0x3c95072a	0.018191893
140	0xbe574e13	-0.21025877
141	0x3e213272	0.157419
142	0x3d79616e	0.06088393
143	0xbd6d2504	-0.05789663
144	0x3c959ffb	0.018264761
145	0x3dfa65ff	0.122264855
146	0x3d084e0e	0.033277564
147	0x3e17ef23	0.14837317
148	0x3e139637	0.14412771
149	0x3d847fdd	0.064697005
150	0x3db9cb24	0.09071949
151	0x3c996db7	0.018729074
152	0xbd9b3c28	-0.07579833
153	0xbd53191b	-0.051537614
154	0xbdc7f913	-0.09764304
155	0x3d246ea9	0.040144596
156	0xbd36797a	-0.044549443
157	0x3dce741d	0.100807406
158	0x3ecbe1d6	0.39820737
159	0x3e3629da	0.17789403
160	0x3d90e732	0.07075347
161	0x3df6036c	0.120123714
162	0x3dd60601	0.10450364
163	0x3d14b0d8	0.036301464
164	0xbf5f29cc	-0.8717315
165	0xbe3679e7	-0.1781994
166	0xbd9f6a5e	-0.0778396
167	0x3d8a376f	0.06748854
168	0x3e695b2c	0.22788686
169	0x3dfbd923	0.12297275
170	0x3d92c023	0.071655534
171	0x3dc7a96e	0.09749113
172	0x3ca58192	0.020203386
173	0xbd5d2da3	-0.0539986
174	0x3e325c53	0.17418031
175	0xbef22444	-0.47293293
176	0x3e1544c7	0.14577018
177	0x3caa5800	0.020793915
178	0xbcf75b1d	-0.030194813
179	0x3e1e39d4	0.15451747
180	0x3d0ac930	0.033883274
181	0xbdcaa33c	-0.09894416
182	0x3da81056	0.08206241
183	0xbd53f56d	-0.05174773
184	0x3d8cdd26	0.06878118
185	0xbd733b87	-0.05938294
186	0x3c9e6ffb	0.019340506
187	0xbcc88936	-0.02447949
188	0xbd292f29	-0.04130474
189	0x3e2e785a	0.17038098
190	0x3d3e60df	0.046479102
191	0x3ccbb2e3	0.024865573
192	0x3d6ee6ff	0.058325764
193	0xbbfa5171	-0.007639103
194	0x3dc5a357	0.09650295
195	0x3c34665b	0.011010732
196	0xbcacf3ca	-0.021112341
197	0xbe1773f2	-0.14790323
198	0x3d5ecb5e	0.054393165
199	0x3cb388cb	0.021915814
200	0xbe0bd914	-0.13657027
201	0xbd921b86	-0.07134156
202	0xbd90d0e7	-0.07071095
203	0xbca15567	-0.019694043
204	0x3d419840	0.047264338
205	0xbd2f71bc	-0.042833075
206	0x3c889c14	0.016675986
207	0x3d83ad82	0.06429578
208	0xbd0ca678	-0.034338444
209	0xbc35ccc6	-0.011096185
210	0x3c6d2126	0.014473235
211	0x3dadbdad	0.084834434
212	0xbdadae8f	-0.0848056
213	0x3d4ba826	0.049720906
214	0x3db0bc46	0.0862966
215	0x3ca500ea	0.020142037
216	0xbd7f27aa	-0.062293686
217	0xbd74c9f4	-0.05976291
218	0xbd8ad036	-0.06777994
219	0xbe28af77	-0.16473185
220	0xbc5013c0	-0.012700021
221	0x3b638f87	0.0034723
222	0xbc48b300	-0.012249708
223	0xbdd79d6d	-0.105280735
224	0xbda524c9	-0.08063657
225	0xbe328191	-0.17432238
226	0xbe0fb747	-0.14034759
227	0xbd4a615f	-0.049409267
228	0x3da6b549	0.08140046
229	0x3d9f8aa5	0.07790116
230	0x3d5ae635	0.0534422
231	0xbd0a9f9a	-0.033843614
232	0xbca627f3	-0.020282721
233	0xbe23cca8	-0.15996039
234	0x3c4b4ba6	0.012408173
235	0xbdfb7a5c	-0.122791976
236	0xbcea58ca	-0.028606791
237	0xbdbc965e	-0.09208368
238	0x3d991afc	0.0747585
239	0x3f4524ed	0.7700947
240	0xbc90fe3f	-0.017699359
241	0xbe074314	-0.13209182
242	0xbcc4c1ca	-0.024018187
243	0xbd4f1e88	-0.050566226
244	0x3d2258ae	0.039635353
245	0xbd46b600	-0.048513412
246	0x3cca752d	0.024714077
247	0xbdaa6eda	-0.083219245
248	0xbd4b7429	-0.049671326
249	0xbdbefe82	-0.09325887
250	0xbdba8de4	-0.09109095
251	0xbe03e712	-0.12881115
252	0x3ebd47e8	0.36968923
253	0x3d7aa8a3	0.06119598
254	0xbd6de010	-0.05807501
255	0xbd406d1f	-0.046979066

bias f4 [64]
0	0xbd22dbbf	-0.039760347
1	0xbdfef4f2	-0.12449063
2	0x3e0a602a	0.13513246
3	0xbdc2d32e	-0.095129356
4	0xbe2964e4	-0.16542393
5	0xbd03b512	-0.032155104
6	0x3e0c5f19	0.13708152
7	0xbd939ba2	-0.07207419
8	0xbe46e896	-0.19424662
9	0xbe23e422	-0.16004995
10	0xbc90c231	-0.017670723
11	0x3e1aa1fe	0.15100858
12	0xbdd4dada	-0.10393305
13	0xbb017952	-0.001975615
14	0xbde3b7c4	-0.11119035
15	0x3da3fe6e	0.08007513
16	0xbdb35716	-0.08756845
17	0x3d5e9f8b	0.05435137
18	0x3e349fb9	0.17639054
19	0xbbf5ac56	-0.0074973507
20	0xbe3e91ad	-0.18610258
21	0x3e05cb67	0.13065873
22	0xbeb0003c	-0.3437518
23	0x3e292a12	0.16519955
24	0xbe25ed70	-0.16203856
25	0xbcead71f	-0.02866703
26	0x3d86cccc	0.06582031
27	0x3c01fb10	0.007933393
28	0xbe2be7be	-0.16787621
29	0xbd230c89	-0.039806876
30	0x3cd748ce	0.026279833
31	0xbe96049b	-0.2930039
32	0x3ddc5ff6	0.107604906
33	0xbd9a65e2	-0.07538964
34	0x3df6695d	0.12031815
35	0xbda7ded3	-0.08196797
36	0x3e437b07	0.190899
37	0x3c578499	0.013154172
38	0xbdf00a7f	-0.11720752
39	0x3e445917	0.1917461
40	0xbe2574c8	-0.1615783
41	0xbdc7cdcc	-0.097560495
42	0xbd31531a	-0.043292142
43	0xbc277cd7	-0.010222635
44	0x3d21f6d8	0.03954205
45	0xbdc900f1	-0.09814633
46	0x3dd8bdc1	0.10583068
47	0xbe1653db	-0.14680426
48	0x3e44fef9	0.1923789
49	0xbd4fba71	-0.050714914
50	0xbd9ab0ed	-0.07553277
51	0xbd3495aa	-0.044088043
52	0xbd9f2387	-0.07770448
53	0x3e9afc2e	0.30270523
54	0x3e2d1a73	0.16904621
55	0xbe03ad3b	-0.12859051
56	0xbdb1c33b	-0.086798154
57	0xbc38df15	-0.011283656
58	0x3dd6e901	0.10493661
59	0xbd0066f9	-0.031348202
60	0x3e4375e2	0.19087937
61	0x3d506ea4	0.050886765
62	0x3d649a66	0.05581131
63	0xbd73c3cd	-0.059512902

weight f4 [32, 64]
0	0xbca4d930	-0.020123094
1	0xbde5afea	-0.112151936
2	0x3c90b373	0.017663693
3	0xbd66fac2	-0.056391485
4	0xbdcb8fc2	-0.09939529
5	0x3be27488	0.0069108643
6	0xbd322d69	-0.043500338
7	0xbe05dc10	-0.13072228
8	0xbe03b006	-0.12860116
9	0xbcce88f0	-0.025211781
10	0x3d6fd2d0	0.058550656
11	0xbc79d124	-0.015247617
12	0xbd9e2ba6	-0.07723169
13	0xbdb38558	-0.08765668
14	0x3dd66b92	0.10469736
15	0xbd23fd61	-0.040036563
16	0x3d79ca18	0.060983747
17	0xbe4802b5	-0.19532283
18	0xbaf10c08	-0.0018390426
19	0x3dde3666	0.108502194
20	0xbb802140	-0.0039102137
21	0x3d218013	0.03942878
22	0x3cd8f4f0	0.026483983
23	0xbd641188	-0.05568078
24	0x3d32c1bc	0.04364179
25	0xbd3340b4	-0.043762878
26	0xbd8cfe4d	-0.068844415
27	0xbcc88258	-0.024476215
28	0x3d041cd4	0.032254055
29	0xbd8910e5	-0.066926755
30	0xbd6efa08	-0.058343917
31	0x3d832020	0.06402612
32	0xbe086570	-0.13319945
33	0x3da17a94	0.07884708
34	0xbd45937d	-0.04823636
35	0xbc0311e0	-0.007999867
36	0xbd8a3bb5	-0.067496695
37	0x3ce02f28	0.027366236
38	0x3babb2a0	0.0052397996
39	0x3d43b039	0.04777548
40	0x3dcd0c54	0.10012117
41	0x3dfe86de	0.124280676
42	0x3ca6e125	0.02037103
43	0x3b2dc680	0.002651602
44	0xbe024fab	-0.12725703
45	0xbd3e134c	-0.04640512
46	0x3c794b31	0.015215681
47	0xbc221de0	-0.009894818
48	0xbde59afa	-0.112112
49	0x3b80a9e0	0.0039265007
50	0xbcf17588	-0.029474989
51	0xbdb94058	-0.09045476
52	0xbe1aba5f	-0.15110157
53	0xbc3b0880	-0.011415601
54	0xbc88dea2	-0.016707722
55	0x3c42443f	0.011857091
56	0xbdb75f0e	-0.08953677
57	0xbe3d4c44	-0.18486124
58	0xbe28d5a8	-0.16487753
59	0xbd6f8984	-0.058480754
60	0xbd92af25	-0.071623124
61	0x3ba10f5e	0.004915162
62	0xbe211f63	-0.1573463
63	0x3de8f07c	0.11373994
64	0x3cb98f2a	0.022651274
65	0xbd84f8e0	-0.06492782
66	0xbdf0c367	-0.1175602
67	0x3de1f614	0.11033264
68	0xbd7b522d	-0.061357666
69	0x3e137c3c	0.1440286
70	0xbd140910	-0.036141455
71	0x3e28605f	0.16443013
72	0x3c848ad5	0.016179482
73	0xbdcf9327	-0.10135489
74	0x3de90149	0.11377198
75	0x3d9859a7	0.07438975
76	0xbdf00ea8	-0.117215455
77	0x3cc71222	0.024300639
78	0xbc09b6ec	-0.008405428
79	0x3cc1a746	0.023639333
80	0x3d1651d6	0.03669914
81	0xbdee8aad	-0.11647544
82	0x3dec5103	0.11538889
83	0x3dd87114	0.10568443
84	0xbd43bb85	-0.047786254
85	0x3e649e9a	0.22326127
86	0xbe84b856	-0.25921887
87	0x3da2bd44	0.07946256
88	0xbd7112b7	-0.05885574
89	0x3ced1482	0.028940443
90	0x3dea9715	0.11454598
91	0x3cf44d36	0.029821973
92	0x3e803bc4	0.25045598
93	0xbde42c0b	-0.11141213
94	0xbe136603	-0.14394383
95	0x3e41fbed	0.18943758
96	0x3e01016d	0.125982
97	0x3db32f93	0.087493084
98	0xbba00b56	-0.004884164
99	0xbc745752	-0.014913397
100	0x3e181233	0.14850692
101	0x3dcec3a4	0.10095909
102	0x3e6d82a2	0.23194364
103	0xbe291ff4	-0.16516095
104	0x3c16629b	0.009178783
105	0x3d2de365	0.04245319
106	0x3e138916	0.14407763
107	0xbe849686	-0.2589609
108	0xbc5109bd	-0.012758669
109	0x3e0f090c	0.13968295
110	0x3e16c90b	0.1472513
111	0xbc8ebe93	-0.017424857
112	0x3d8dcce5	0.06923846
113	0x3f24a8cc	0.64320064
114	0xbd950a5f	-0.07277369
115	0x3d80dba4	0.06291893
116	0x3c37677c	0.011194106
117	0x3e0b7f23	0.13622718
118	0x3cf58273	0.02996943
119	0xbca5ad46	-0.020224225
120	0xbda490d6	-0.08035438
121	0xbe023a10	-0.12717462
122	0xbd5006cd	-0.050787736
123	0x3c5a0fa5	0.013309394
124	0xbd9d1b00	-0.076711655
125	0x3d23f237	0.040025916
126	0x3d138ae6	0.036021136
127	0x3dc8655e	0.09784959
128	0xbc96dc18	-0.018415496
129	0x3db6dbda	0.08928652
130	0xbe22009e	-0.15820548
131	0xbd1104cc	-0.035404965
132	0xbd8d844a	-0.06909998
133	0xbdab3098	-0.08358878
134	0xbd6da192	-0.058015414
135	0xbdf13c62	-0.11779095
136	0xbdceaac5	-0.100911655
137	0x3dd52ea0	0.10409284
138	0xbdbe1f0c	-0.092832655
139	0x3d527764	0.05138339
140	0x3cfa4428	0.030550078
141	0x3c4266a0	0.011865288
142	0x3df31e60	0.11871028
143	0xbe58e176	-0.21179757
144	0x3d966c62	0.07344891
145	0xbd7e12c0	-0.0620296
146	0xbd5325b1	-0.051549617
147	0x3c2170b0	0.009853527
148	0x3c150160	0.009094566
149	0xbe6dd26c	-0.23224801
150	0x3c697750	0.014249638
151	0xbe5ee8cc	-0.21768492
152	0xbdd4b878	-0.10386747
153	0x3d8f51d4	0.06998029
154	0x3a91f180	0.0011134595
155	0xbd038f18	-0.032118887
156	0xbca2dae8	-0.019879773
157	0xbcd49626	-0.025950503
158	0xbb1331c0	-0.0022460073
159	0xbda3de52	-0.080013886
160	0xbba5183f	-0.0050382908
161	0xbd8e4390	-0.0694648
162	0xbd107740	-0.035269976
163	0x3dd5974c	0.10429248
164	0xbdd123fd	-0.10211942
165	0xbde7d07a	-0.113190606
166	0xbd173b28	-0.03692165
167	0xbe6adb3b	-0.22935192
168	0xbde0686a	-0.109574154
169	0xbdbd2e00	-0.092372894
170	0xbd87ebd8	-0.066367805
171	0xbdec405c	-0.11535713
172	0xbe46d1a4	-0.19415909
173	0xbdca3f9a	-0.09875412
174	0xbe63ffa5	-0.2226549
175	0xbda7b6ac	-0.08189139
176	0xbdf6609a	-0.12030144
177	0x3b131080	0.0022440255
178	0x3c2fffc0	0.010742128
179	0xbcc4cc80	-0.024023294
180	0x3dfc7256	0.12326495
181	0x3d780a7c	0.060556874
182	0xbd4065be	-0.04697203
183	0x3d85a67e	0.065258965
184	0xbd872e32	-0.06600608
185	0x3d022f38	0.031783313
186	0x3df4418a	0.11926563
187	0xbdbc677a	-0.09199424
188	0xbc54f08a	-0.012996802
189	0xbe4bb9e3	-0.19895129
190	0xbc7c84c0	-0.015412509
191	0xbdfa031a	-0.12207623
192	0xbdc7f79c	-0.097640246
193	0x3dcd4d68	0.1002453
194	0xbe149bef	-0.14512609
195	0xbdba8bc3	-0.09108689
196	0x3d847620	0.06467843
197	0x3d7e65c1	0.06210876
198	0xbde5726c	-0.11203465
199	0xbe1b16a8	-0.15145361
200	0x3d4ef676	0.050528012
201	0xbd51705c	-0.051132545
202	0xbc727490	-0.0147982985
203	0x3dee882c	0.116470665
204	0xbd6803bc	-0.056644186
205	0xbd2fde00	-0.042936325
206	0x3d929244	0.07156804
207	0x3d739911	0.059472147
208	0x3bb83e80	0.005622685
209	0xbd55e104	-0.052216545
210	0x3d10c390	0.035342753
211	0xbd502718	-0.050818533
212	0x3dccd3d6	0.10001342
213	0x3ca6882a	0.0203286
214	0x3c897410	0.016778976
215	0xbdf4496c	-0.119280666
216	0x3de1be48	0.110226214
217	0xbd0798b8	-0.03310463
218	0xbd80adc8	-0.06283146
219	0xbdd4b7bd	-0.10386608
220	0x3c9fad00	0.019491673
221	0xbe358c8e	-0.17729399
222	0x3cee85e0	0.029116571
223	0xbc96e120	-0.018417895
224	0xbc802c0f	-0.015646009
225	0xbb7629c0	-0.0037561506
226	0xbdf45eea	-0.11932166
227	0xbcf43880	-0.029812098
228	0xbdb753d6	-0.08951537
229	0x3dd92fe2	0.10604836
230	0xbde2724c	-0.11056957
231	0xbc8fbad9	-0.01754515
232	0x3de7ff2a	0.113279656
233	0x3d1ea2bc	0.038729414
234	0xbd87dcfc	-0.06633946
235	0x3d169758	0.036765426
236	0xbb5769d2	-0.003286947
237	0x3d5c73a0	0.053821206
238	0xbd309990	-0.0431152
239	0xbde03c7a	-0.10949035
240	0xbcd0bf36	-0.025481801
241	0xbcd718e0	-0.026256979
242	0x3d883954	0.066515595
243	0x3de54dbc	0.11196467
244	0xbdc92049	-0.09820611
245	0x3b0b4640	0.002125159
246	0x3d48bcb4	0.049008086
247	0xbcaf5c38	-0.021406278
248	0x3c9ae710	0.018909007
249	0xbdd0cfa6	-0.10195856
250	0xbcb5751c	-0.022150569
251	0xbdd727dc	-0.105056494
252	0xbe270909	-0.1631204
253	0xbe26f6d5	-0.16305096
254	0x3abb79be	0.001430325
255	0xbc99c850	-0.018772274

bias f4 [32]
0	0xbe02c0f8	-0.12768924
1	0x3d98aeea	0.07455237
2	0xbe1cdfca	-0.15319744
3	0xbdfdc950	-0.12391913
4	0x3d8d2d33	0.06893387
5	0x3dd35183	0.103182815
6	0x3a84ed03	0.0010141436
7	0xbe9786bd	-0.29594985
8	0xbe8790d1	-0.26477674
9	0x3e791a4f	0.24326442
10	0x3e1d57e7	0.15365563
11	0xbe15146e	-0.14558575
12	0x3de5af37	0.1121506
13	0xbe1a31c7	-0.15058051
14	0xbd1eb03e	-0.038742296
15	0x3d52de48	0.051481515
16	0xbe24321d	-0.16034742
17	0x3e230546	0.1591998
18	0x3e3025a2	0.17201856
19	0x3dcbc967	0.09950524
20	0xbbf3553b	-0.0074259317
21	0xbc81f708	-0.015864864
22	0x3b92d4aa	0.004480918
23	0xbe9e45aa	-0.30912524
24	0x3d37cfcc	0.044875905
25	0xbc00308f	-0.007824077
26	0x3d86ad6e	0.06576048
27	0xbd07a559	-0.033116672
28	0x3d9bfe77	0.07616895
29	0x3e0cbba8	0.1374346
30	0xbe6c0289	-0.23047842
31	0x3e3cfdea	0.18456236

weight f4 [1, 32]
0	0xbc67ecb1	-0.014155553
1	0x3e00d230	0.1258018
2	0x3d355aac	0.044275925
3	0xbdba43ea	-0.09094985
4	0xbe825e11	-0.25462392
5	0x3e767723	0.24068885
6	0x3de6a895	0.11262623
7	0x3e6d4c0e	0.23173544
8	0x3c3521d3	0.011055428
9	0x3dc96d4e	0.09835301
10	0xbdfe65bf	-0.1242175
11	0x3d8df38c	0.069312185
12	0xbd9023d2	-0.07038082
13	0xbdede2f1	-0.11615551
14	0x3c377245	0.011196678
15	0xbd7ee1b0	-0.06222695
16	0x3d071bf7	0.032985654
17	0xbe794627	-0.24343167
18	0xbe5e81b5	-0.21729167
19	0xbe75a817	-0.23989902
20	0x3b800ab1	0.0039075245
21	0xbe5a1419	-0.21296729
22	0x3cd573f0	0.02605626
23	0xbd16b599	-0.03679428
24	0x3e472e10	0.19451165
25	0x3e70cde2	0.23516038
26	0x3e0f89c7	0.14017402
27	0xbb28c2f7	-0.0025750974
28	0x3e3199ad	0.17343779
29	0xbe68c507	-0.2273141
30	0x3dba321c	0.09091589
31	0xbdf174b7	-0.1178984
