UQ_assessment_1D/models_old/BNN_NLL/i1_nn64_nl4_o1_tr1_ep400_epr400_b50000_pr0.0003_kl0.0_ns100_s36/model.pth (torch, 151042 bytes, 26 tensors)

weight_mu f4 [32, 1]
0	0xbe4c6c5d	-0.19963212
1	0xbecd0c76	-0.4004857
2	0xc0340804	-2.8129892
3	0xbe40d220	-0.18830156
4	0x3e8a7591	0.2704282
5	0xbff7bed9	-1.9355117
6	0x3f0beb8c	0.5465629
7	0x3f88085f	1.0627555
8	0x3ecbcf17	0.39806435
9	0xbe947b6c	-0.29000413
10	0x3f7532af	0.9578046
11	0x3f77bbcd	0.96770936
12	0x3f12bad5	0.57316333
13	0xbf513dd9	-0.81735
14	0xbeebae5d	-0.46031466
15	0xbe98b869	-0.29828194
16	0xbf474d2d	-0.77852136
17	0xbf61a522	-0.881426
18	0xbf06e00f	-0.52685636
19	0xbf63964e	-0.8890122
20	0xbc8cbfc0	-0.017181277
21	0xc01e26f0	-2.4711266
22	0x3c334b00	0.010943174
23	0xbf61f4dc	-0.8826425
24	0x3f0155a7	0.5052132
25	0x3cd9a900	0.026569843
26	0xbed6f57a	-0.4198416
27	0x3f10f45f	0.5662288
28	0xbe4bf868	-0.19918978
29	0xbfa6d36b	-1.303327
30	0x3e5873c8	0.21137917
31	0xbe85ed49	-0.26157597

weight_log_sigma f4 [32, 1]
0	0xc07f7239	-3.9913466
1	0xc07ba7a2	-3.9321065
2	0xc08e90fc	-4.4551983
3	0xc06951b6	-3.6456122
4	0xc06cbb23	-3.698922
5	0xc0667820	-3.6010818
6	0xc0766340	-3.8498077
7	0xc0830cd0	-4.095314
8	0xc0720594	-3.7815905
9	0xc06176d8	-3.5228786
10	0xc0751b6c	-3.8297987
11	0xc092a5fe	-4.5827627
12	0xc07d5ce0	-3.9587936
13	0xc0886e74	-4.263483
14	0xc085c6dd	-4.1805253
15	0xc074c832	-3.824719
16	0xc088c073	-4.2734923
17	0xc08522b3	-4.1604857
18	0xc087b7e3	-4.241197
19	0xc0997b43	-4.7962966
20	0xc06176d8	-3.5228786
21	0xc0a83c50	-5.2573624
22	0xc06176d8	-3.5228786
23	0xc086d565	-4.213549
24	0xc06df233	-3.7179077
25	0xc06176d8	-3.5228786
26	0xc0809fcc	-4.0195065
27	0xc0723d73	-3.7850006
28	0xc06176d8	-3.5228786
29	0xc07f5679	-3.9896529
30	0xc06176d8	-3.5228786
31	0xc07bceeb	-3.9345043

bias_mu f4 [32]
0	0x3f0a7c6c	0.540961
1	0x3f249ead	0.6430462
2	0xbff2daae	-1.8972986
3	0xbd216f50	-0.039412796
4	0x3f03a94d	0.5143021
5	0xbf92082f	-1.1408747
6	0x3f5891f2	0.84597695
7	0x3ec6a2de	0.38796133
8	0x3efbd57a	0.49186307
9	0xbf157210	-0.5837717
10	0x3f25c795	0.64757663
11	0xbf36c1fa	-0.71389735
12	0x3eb734e2	0.35782534
13	0x3f107188	0.56423235
14	0x3ea1f14a	0.316294
15	0xbe87dec1	-0.26537135
16	0x3f0b2b12	0.54362595
17	0x3f2475c1	0.6424218
18	0x3ef14634	0.47123873
19	0xbf475011	-0.77856547
20	0xbea23e04	-0.3168794
21	0xc002f401	-2.0461428
22	0xbf1a835c	-0.6035669
23	0x3f493273	0.78592604
24	0x3f452f74	0.7702553
25	0xbf18a7b8	-0.5963092
26	0x3ee37ffe	0.44433588
27	0x3ec7deaf	0.39037082
28	0xbf6aac0e	-0.91668785
29	0xbdc73678	-0.09727186
30	0xbf6a9e1a	-0.91647494
31	0x3ed0f208	0.40809655

bias_log_sigma f4 [32]
0	0xc0e37867	-7.1084476
1	0xc0df7063	-6.982469
2	0xc0e3e87b	-7.122129
3	0xc0e1d555	-7.0572915
4	0xc0df7cca	-6.983983
5	0xc0e19158	-7.048992
6	0xc0e2cd61	-7.0875707
7	0xc0e451e8	-7.1349983
8	0xc0e1f1f7	-7.0607867
9	0xc0e00000	-7.0
10	0xc0e18d66	-7.0485106
11	0xc0e61408	-7.189945
12	0xc0e0b6d9	-7.0223203
13	0xc0e4e169	-7.152516
14	0xc0e41b31	-7.1283193
15	0xc0e22410	-7.066902
16	0xc0e30572	-7.0944147
17	0xc0e51471	-7.1587453
18	0xc0e3038f	-7.0941844
19	0xc0e6fedd	-7.2186112
20	0xc0e00000	-7.0
21	0xc0e730f0	-7.224724
22	0xc0e00000	-7.0
23	0xc0e62bd6	-7.192851
24	0xc0e05c2e	-7.0112524
25	0xc0e00000	-7.0
26	0xc0e02752	-7.0048
27	0xc0ddb66a	-6.9285173
28	0xc0e00000	-7.0
29	0xc0e4f8df	-7.15538
30	0xc0e00000	-7.0
31	0xc0deb143	-6.9591384

weight_mu f4 [64, 32]
0	0xbe0750c9	-0.13214411
1	0xbe049a30	-0.12949443
2	0xbd508b4a	-0.050914086
3	0xbc4fdcf0	-0.012686953
4	0xbd014772	-0.031562276
5	0xbd8a8e1c	-0.067653865
6	0xbd693bf7	-0.056941953
7	0x3d99f412	0.07517256
8	0xbd66729a	-0.056261636
9	0xbdc357ac	-0.095382065
10	0xbd8d6ecc	-0.069058985
11	0xbdafeed9	-0.085904785
12	0xbd85e4d1	-0.06537784
13	0xbcc8a4e3	-0.024492687
14	0xbcf1b9d9	-0.029507564
15	0xbdceeff7	-0.101043634
16	0x3c14aa50	0.009073809
17	0xbdd14791	-0.10218728
18	0xbd1dea2c	-0.0385534
19	0xbdc15985	-0.094409026
20	0x3dcb68d0	0.09932101
21	0x3d5afcc0	0.053463697
22	0xbd3ca0b2	-0.04605169
23	0xbddd7303	-0.10812952
24	0x3d80bc4b	0.06285914
25	0x3d91ea0b	0.07124718
26	0xbe612554	-0.21986896
27	0xbd8af3d6	-0.06784789
28	0xbc85a573	-0.016314244
29	0xbdea6ee7	-0.11446934
30	0xbd8666db	-0.06562587
31	0xbe3fd26c	-0.18732613
32	0xbe460462	-0.1933761
33	0xbcd791da	-0.026314665
34	0xbe2be862	-0.16787866
35	0xbe243fa1	-0.16039898
36	0xbd77e128	-0.06051746
37	0xbe0f2f15	-0.13982804
38	0xbe09efab	-0.13470332
39	0xbe37b922	-0.17941716
40	0x3d01cf10	0.03169161
41	0xbdf894d0	-0.12137759
42	0xbe46a5b6	-0.19399151
43	0x3d94a181	0.07257367
44	0xbceb98fc	-0.028759472
45	0x3d596a22	0.05307973
46	0xbe17893b	-0.14798443
47	0xbd904d03	-0.07045939
48	0xbe593243	-0.2121058
49	0xbe43ea42	-0.19132331
50	0xbdb1eac4	-0.08687356
51	0x3e1e4521	0.15456058
52	0x3c64d881	0.013967634
53	0x3d795fa0	0.06088221
54	0x3e164c1b	0.1467747
55	0x3dda0f46	0.106474444
56	0xbd8fb4eb	-0.07016929
57	0xbcd68d0c	-0.026190303
58	0x3d2dbcb7	0.0424163
59	0xbe30a31d	-0.17249723
60	0xbe0ca8e9	-0.13736309
61	0xbe6833f2	-0.22676066
62	0x3bf753c1	0.007547826
63	0x3d8edf01	0.06976128
64	0xbd44cc3b	-0.04804633
65	0xbd96a8cc	-0.07356414
66	0xbd8c129f	-0.06839489
67	0xbe1bac53	-0.15202455
68	0xbe2b6e4d	-0.16741295
69	0xbd5e2e79	-0.05424354
70	0xbe380b86	-0.17973146
71	0xbdd6b271	-0.10483254
72	0xbdb0993e	-0.08622979
73	0xbcbdcef7	-0.023169978
74	0xbbf06628	-0.0073363967
75	0xbd977e5a	-0.073971465
76	0xbd9726d4	-0.07380453
77	0x3dfc5ab2	0.12321986
78	0xbe19620a	-0.14978805
79	0xbe487a92	-0.19578007
80	0x3dcdf7dd	0.10057042
81	0xbe2fb7b6	-0.17159924
82	0x3d8e799e	0.069567904
83	0x3c658331	0.014008329
84	0xbc53b953	-0.012922603
85	0xbe4616a7	-0.19344579
86	0xbd294ac6	-0.041331075
87	0xbd1c8c8b	-0.03821997
88	0xbd8ed79b	-0.06974717
89	0x3e0eecc2	0.13957503
90	0xbd5eea4c	-0.05442266
91	0xbdbf4eb9	-0.09341187
92	0xbd5df254	-0.05418618
93	0x3e00eebc	0.1259107
94	0x3e34535f	0.17609929
95	0xbd9d0e5e	-0.07668756
96	0x3c8c06d3	0.017093098
97	0xbd376163	-0.04477061
98	0x3c923367	0.017846776
99	0x3c388217	0.011261485
100	0xbe1f7d21	-0.15575077
101	0x3ce01c88	0.027357355
102	0x3dcfe500	0.101511
103	0xbe258d4b	-0.1616718
104	0xbdccab9b	-0.09993669
105	0xbd4365d1	-0.04770452
106	0x3df64c53	0.120262764
107	0x3e1ddfcd	0.15417404
108	0x3e0d73f3	0.13813762
109	0xbde27de9	-0.11059172
110	0x3d4bb70f	0.049735125
111	0xbd856584	-0.06513503
112	0xbb6ab007	-0.0035810487
113	0x3d8fb373	0.07016649
114	0xbc730f23	-0.014835152
115	0xbd887965	-0.06663779
116	0x3dfdabbf	0.123862736
117	0x3d947052	0.07247986
118	0x3c912ab4	0.017720558
119	0xbd2778ef	-0.040886816
120	0xbcab2a40	-0.02089417
121	0x3e34e27c	0.17664522
122	0xbe15acf6	-0.1461676
123	0xbe2064b0	-0.15663409
124	0x3e1716f9	0.14754857
125	0x3cae1b35	0.021253208
126	0xbe130065	-0.14355619
127	0xbd35e845	-0.044410963
128	0x3d29d708	0.041464835
129	0xbd25b338	-0.04045412
130	0xbd20fc18	-0.039302915
131	0x3d802b03	0.06258204
132	0xbe3b1698	-0.18270338
133	0x3d245a30	0.040125072
134	0xbe36d2bc	-0.17853826
135	0xbddbcb83	-0.10732176
136	0x3e108df5	0.14116652
137	0xbc7f6eac	-0.015590351
138	0x3cd3d3f2	0.0258579
139	0xbd06027a	-0.032717206
140	0xbd247c8d	-0.040157843
141	0xbda1f107	-0.079073004
142	0x3e03a3fb	0.12855522
143	0xbd0ee53d	-0.034886587
144	0xbcf7a169	-0.030228334
145	0xbd1e0c9a	-0.038586237
146	0x3e04cadb	0.12968008
147	0xbda27e57	-0.07934254
148	0x3e31845c	0.17335647
149	0xbda1e30e	-0.07904635
150	0xbe136580	-0.14394188
151	0xbd49341d	-0.049121965
152	0xbe326326	-0.17420635
153	0x3da9309f	0.08261227
154	0xbb40715f	-0.002936445
155	0x3e017656	0.12642798
156	0x3db87b00	0.090078354
157	0xbdef3c62	-0.11681439
158	0xbdf5a679	-0.11994643
159	0xbe1c72f6	-0.15278229
160	0x3ddbbb2d	0.1072906
161	0xbd3c81db	-0.046022277
162	0xbe488be4	-0.19584614
163	0xbdabfee0	-0.08398223
164	0xbddf7bf3	-0.10912313
165	0xbd82c1cf	-0.06384622
166	0xbd2633a9	-0.04057661
167	0xbdf1bd06	-0.118036315
168	0x3c84e062	0.016220275
169	0xbbfa2802	-0.007634164
170	0xbe4e8496	-0.20167765
171	0x3d26de55	0.040739376
172	0xbe255209	-0.16144575
173	0xbe2e9a69	-0.1705109
174	0xbbfd80d4	-0.007736305
175	0xbdde70d3	-0.10861363
176	0x3c3151b6	0.010822704
177	0x3db2ad63	0.08724477
178	0xbe0853d2	-0.13313225
179	0xbe029a60	-0.12754202
180	0xbd805bd6	-0.06267516
181	0xbd349c35	-0.044094283
182	0xbd02ef83	-0.031966697
183	0x3d9bb341	0.07602549
184	0x3de61a6f	0.112355106
185	0x3da52192	0.08063044
186	0xbd4ae4ed	-0.049534727
187	0xbd0c5c3b	-0.034267645
188	0xbdd6b358	-0.10483426
189	0xbdfe8141	-0.12426997
190	0x3dd40f07	0.10354429
191	0xbe254a07	-0.1614152
192	0xbe3a1a7c	-0.18174165
193	0xbcbdb5c5	-0.023157964
194	0x3d01d5f5	0.031698186
195	0xbdef03bf	-0.116706364
196	0xbe300889	-0.17190756
197	0xbe6ea72e	-0.23305961
198	0xbd65a547	-0.056065824
199	0xbc54fb4e	-0.012999369
200	0x3d8584db	0.06519481
201	0xbe2f2f1d	-0.17107816
202	0x3d4666ed	0.048438
203	0xbdf20f76	-0.11819355
204	0xbe225f59	-0.15856685
205	0xbd75b120	-0.059983373
206	0x3d195754	0.0374368
207	0xbdd11d83	-0.10210707
208	0x3d8c9ad8	0.068654716
209	0xbdd1ecc4	-0.102502376
210	0xbb65be24	-0.003505596
211	0x3ea435d0	0.32072306
212	0xbceee002	-0.02915955
213	0x3e860cab	0.2618154
214	0xbc48d73c	-0.012258347
215	0x3d41388c	0.047173068
216	0xbdf73a54	-0.12071672
217	0x3c9198b4	0.01777301
218	0x3e0f310e	0.13983557
219	0xbd4f8545	-0.050664205
220	0xbe1c6e2a	-0.15276399
221	0xbde14376	-0.10999195
222	0xbe1b2be2	-0.15153459
223	0x3c61ea2b	0.01378874
224	0xbda8be46	-0.08239417
225	0x3d1debe3	0.038555037
226	0x3b0d5f7e	0.002157181
227	0xbce9b1ef	-0.028527228
228	0xbceef049	-0.029167311
229	0xbd9d302d	-0.076752044
230	0xbe206aa3	-0.15665679
231	0xbcd4a89d	-0.025959307
232	0xbe437ee3	-0.19091372
233	0x3e11055c	0.141622
234	0x3d180b57	0.03712019
235	0x3dacd75a	0.084395126
236	0x3d0c7a88	0.034296542
237	0x3dba6fe7	0.09103375
238	0x3d932bf6	0.07186119
239	0xbe328f63	-0.1743751
240	0xbdf926a0	-0.1216557
241	0xbd8afb5e	-0.06786226
242	0xbdcf91dc	-0.10135242
243	0xbda802c3	-0.08203652
244	0xbe0978be	-0.13424966
245	0x3dbadf2d	0.09124599
246	0x3e02fe5e	0.12792346
247	0x3dbd9e79	0.09258742
248	0xbd364ebd	-0.044508684
249	0xbe2aa169	-0.16663136
250	0xbdfc3563	-0.1231487
251	0xbdee1091	-0.116242535
252	0xbbc79e41	-0.0060918634
253	0xbe0caa02	-0.13736728
254	0x3dcd863c	0.10035369
255	0x3d35607a	0.04428146

weight_log_sigma f4 [64, 32]
0	0xc06175fc	-3.5228262
1	0xc0617bbe	-3.5231776
2	0xc06176d8	-3.5228786
3	0xc06176d8	-3.5228786
4	0xc06177a6	-3.5229278
5	0xc06176d8	-3.5228786
6	0xc0618970	-3.5240135
7	0xc0617e08	-3.5233173
8	0xc0617ed2	-3.5233655
9	0xc06176d8	-3.5228786
10	0xc061774d	-3.5229065
11	0xc061777e	-3.5229182
12	0xc0617d79	-3.5232832
13	0xc06176d8	-3.5228786
14	0xc06176d8	-3.5228786
15	0xc06176d8	-3.5228786
16	0xc06176d8	-3.5228786
17	0xc06176d8	-3.5228786
18	0xc06176d8	-3.5228786
19	0xc06176d8	-3.5228786
20	0xc06176d8	-3.5228786
21	0xc06176d8	-3.5228786
22	0xc06176d8	-3.5228786
23	0xc06176d8	-3.5228786
24	0xc0617ceb	-3.5232494
25	0xc06176d8	-3.5228786
26	0xc06176af	-3.5228689
27	0xc06170ea	-3.5225167
28	0xc06176d8	-3.5228786
29	0xc06176d8	-3.5228786
30	0xc06176d8	-3.5228786
31	0xc061782e	-3.5229602
32	0xc06176d8	-3.5228786
33	0xc06176d8	-3.5228786
34	0xc06176d8	-3.5228786
35	0xc06176d8	-3.5228786
36	0xc06176d8	-3.5228786
37	0xc06176d8	-3.5228786
38	0xc06176d8	-3.5228786
39	0xc06176d8	-3.5228786
40	0xc06176d8	-3.5228786
41	0xc06176d8	-3.5228786
42	0xc06176d8	-3.5228786
43	0xc06176d8	-3.5228786
44	0xc06176d8	-3.5228786
45	0xc06176d8	-3.5228786
46	0xc06176d8	-3.5228786
47	0xc06176d8	-3.5228786
48	0xc06176d8	-3.5228786
49	0xc06176d8	-3.5228786
50	0xc06176d8	-3.5228786
51	0xc06176d8	-3.5228786
52	0xc06176d8	-3.5228786
53	0xc06176d8	-3.5228786
54	0xc06176d8	-3.5228786
55	0xc06176d8	-3.5228786
56	0xc06176d8	-3.5228786
57	0xc06176d8	-3.5228786
58	0xc06176d8	-3.5228786
59	0xc06176d8	-3.5228786
60	0xc06176d8	-3.5228786
61	0xc06176d8	-3.5228786
62	0xc06176d8	-3.5228786
63	0xc06176d8	-3.5228786
64	0xc061d0a2	-3.528359
65	0xc061d183	-3.5284126
66	0xc061311c	-3.5186224
67	0xc061c0d6	-3.5273948
68	0xc0611ceb	-3.51739
69	0xc061b085	-3.526399
70	0xc061d0f9	-3.5283797
71	0xc06176d8	-3.5228786
72	0xc061d0c7	-3.5283678
73	0xc06176d8	-3.5228786
74	0xc061a8d5	-3.5259297
75	0xc06176d8	-3.5228786
76	0xc06176d8	-3.5228786
77	0xc061d17f	-3.5284116
78	0xc061d07d	-3.52835
79	0xc06176d8	-3.5228786
80	0xc061d1c7	-3.5284288
81	0xc0612a79	-3.5182173
82	0xc061d1ac	-3.5284224
83	0xc06176d8	-3.5228786
84	0xc06176d8	-3.5228786
85	0xc061811f	-3.523506
86	0xc06176d8	-3.5228786
87	0xc061d1c2	-3.5284276
88	0xc0612190	-3.5176735
89	0xc06176d8	-3.5228786
90	0xc061d180	-3.5284119
91	0xc0612486	-3.5178542
92	0xc06176d8	-3.5228786
93	0xc061d15b	-3.528403
94	0xc06176d8	-3.5228786
95	0xc0611d79	-3.5174239
96	0xc062fa97	-3.5465448
97	0xc0622ace	-3.5338626
98	0xc0611f41	-3.5175326
99	0xc061a0f7	-3.5254495
100	0xc060e4f9	-3.5139754
101	0xc0606965	-3.5064328
102	0xc062c02a	-3.5429788
103	0xc063cc20	-3.5593338
104	0xc06174b7	-3.5227487
105	0xc06176d8	-3.5228786
106	0xc063743d	-3.5539696
107	0xc064def0	-3.576107
108	0xc062c48d	-3.5432465
109	0xc063320c	-3.5499296
110	0xc06288d6	-3.5396018
111	0xc0617426	-3.5227141
112	0xc0634979	-3.5513594
113	0xc0639b9b	-3.5563724
114	0xc06033b2	-3.5031552
115	0xc0617660	-3.52285
116	0xc06176d8	-3.5228786
117	0xc061e518	-3.5296078
118	0xc06176d8	-3.5228786
119	0xc0635a6e	-3.5523944
120	0xc0627767	-3.5385377
121	0xc06176d8	-3.5228786
122	0xc06249f8	-3.5357647
123	0xc0612102	-3.5176396
124	0xc06176d8	-3.5228786
125	0xc061f57a	-3.5306077
126	0xc06176d8	-3.5228786
127	0xc062531f	-3.5363233
128	0xc062a416	-3.541265
129	0xc0626ffd	-3.5380852
130	0xc061bf54	-3.5273027
131	0xc06051d5	-3.5049946
132	0xc0625ab6	-3.5367866
133	0xc061969f	-3.5248182
134	0xc063134e	-3.5480533
135	0xc0617856	-3.5229697
136	0xc0623a36	-3.534803
137	0xc06176d8	-3.5228786
138	0xc061d51a	-3.5286317
139	0xc0627a4c	-3.5387144
140	0xc0632947	-3.5493944
141	0xc0632b83	-3.5495307
142	0xc062b532	-3.5423093
143	0xc0617701	-3.5228884
144	0xc063212f	-3.5489004
145	0xc061ab5b	-3.5260837
146	0xc0619918	-3.524969
147	0xc06170ce	-3.52251
148	0xc06176d8	-3.5228786
149	0xc061cb18	-3.5280209
150	0xc06176d8	-3.5228786
151	0xc062e100	-3.544983
152	0xc0621f22	-3.5331502
153	0xc06176d8	-3.5228786
154	0xc061ad93	-3.5262191
155	0xc06209ed	-3.5318558
156	0xc06176d8	-3.5228786
157	0xc060cc7a	-3.5124803
158	0xc06176d8	-3.5228786
159	0xc06313d4	-3.5480852
160	0xc062b45c	-3.5422583
161	0xc0609935	-3.509351
162	0xc06270c9	-3.5381339
163	0xc0606a5f	-3.5064924
164	0xc0661372	-3.5949368
165	0xc0617468	-3.5227299
166	0xc063bbe8	-3.558344
167	0xc0625ff3	-3.5371063
168	0xc061a294	-3.525548
169	0xc06176d8	-3.5228786
170	0xc05e7d9d	-3.4764168
171	0xc06176d8	-3.5228786
172	0xc05f732c	-3.4914045
173	0xc06067f3	-3.5063446
174	0xc06604de	-3.594047
175	0xc06176e0	-3.5228806
176	0xc06174d4	-3.5227556
177	0xc062a941	-3.5415804
178	0xc062feb7	-3.5467966
179	0xc06176e7	-3.5228822
180	0xc06176d8	-3.5228786
181	0xc06173db	-3.5226963
182	0xc06176d8	-3.5228786
183	0xc05c95c9	-3.4466422
184	0xc065550b	-3.5833156
185	0xc06176d8	-3.5228786
186	0xc0627fbb	-3.539046
187	0xc06011a6	-3.5010772
188	0xc06176d8	-3.5228786
189	0xc061af0d	-3.5263093
190	0xc06176d8	-3.5228786
191	0xc063cfd6	-3.5595603
192	0xc06259d6	-3.5367332
193	0xc06235bb	-3.5345294
194	0xc06576f4	-3.5853853
195	0xc06390d1	-3.555714
196	0xc0622a7e	-3.5338435
197	0xc0615baa	-3.5212197
198	0xc062d42a	-3.5441995
199	0xc061344d	-3.5188172
200	0xc060f33e	-3.5148463
201	0xc06176d8	-3.5228786
202	0xc05e5a81	-3.474274
203	0xc06177a5	-3.5229275
204	0xc063b756	-3.558065
205	0xc05ec760	-3.480919
206	0xc062cc10	-3.543705
207	0xc0617951	-3.5230296
208	0xc061fe7c	-3.5311575
209	0xc061f66a	-3.530665
210	0xc064d8b6	-3.575727
211	0xc0616f9e	-3.5224376
212	0xc06176d8	-3.5228786
213	0xc060494e	-3.5044742
214	0xc06176d8	-3.5228786
215	0xc06358a5	-3.5522854
216	0xc0628089	-3.5390952
217	0xc06176d8	-3.5228786
218	0xc05fac96	-3.4949088
219	0xc06422ac	-3.5646162
220	0xc06176d8	-3.5228786
221	0xc060e8ae	-3.5142016
222	0xc06176d8	-3.5228786
223	0xc06186b5	-3.5238469
224	0xc06176d8	-3.5228786
225	0xc06176d8	-3.5228786
226	0xc06176d8	-3.5228786
227	0xc06176d8	-3.5228786
228	0xc06176d8	-3.5228786
229	0xc06176d8	-3.5228786
230	0xc06176d8	-3.5228786
231	0xc06176d8	-3.5228786
232	0xc06176d8	-3.5228786
233	0xc06176d8	-3.5228786
234	0xc06176d8	-3.5228786
235	0xc06176d8	-3.5228786
236	0xc06176d8	-3.5228786
237	0xc06176d8	-3.5228786
238	0xc06176d8	-3.5228786
239	0xc06176d8	-3.5228786
240	0xc06176d8	-3.5228786
241	0xc06176d8	-3.5228786
242	0xc06176d8	-3.5228786
243	0xc06176d8	-3.5228786
244	0xc06176d8	-3.5228786
245	0xc06176d8	-3.5228786
246	0xc06176d8	-3.5228786
247	0xc06176d8	-3.5228786
248	0xc06176d8	-3.5228786
249	0xc06176d8	-3.5228786
250	0xc06176d8	-3.5228786
251	0xc06176d8	-3.5228786
252	0xc06176d8	-3.5228786
253	0xc06176d8	-3.5228786
254	0xc06176d8	-3.5228786
255	0xc06176d8	-3.5228786

bias_mu f4 [64]
0	0xbdef412e	-0.11682354
1	0xbb041cfd	-0.002015888
2	0xbddc80e4	-0.107667714
3	0xbdc4bcd3	-0.09606328
4	0x3d82487f	0.06361484
5	0xbddef607	-0.1088677
6	0xbd5682d5	-0.052370865
7	0xbe57d190	-0.21076035
8	0x3c77dee6	0.015128827
9	0xbc96d9dd	-0.018414432
10	0xbaeb0a55	-0.0017932156
11	0xbe8e12e6	-0.27748793
12	0xbd0bfe0c	-0.034177825
13	0xbe3a109d	-0.181704
14	0xbdedb687	-0.1160708
15	0xbde5f1cf	-0.11227762
16	0x3e899b62	0.2687636
17	0x3dbda13e	0.0925927
18	0xbe4619a8	-0.19345725
19	0x3d06a732	0.032874294
20	0xbe0d71b7	-0.1381291
21	0xbd87471a	-0.066053584
22	0xbdd01bf3	-0.10161581
23	0xbd99a158	-0.07501477
24	0xbe0648ea	-0.13113752
25	0xbe01e998	-0.12686765
26	0x3d3cf3bf	0.046130892
27	0x3d55ef5e	0.05223023
28	0x3e2f6045	0.17126568
29	0x3e1a827e	0.15088841
30	0x3e071465	0.13191374
31	0xbc184816	-0.00929453
32	0xbd15ca65	-0.03656997
33	0xbd7e5777	-0.06209513
34	0x3d4b7a2e	0.049677067
35	0xbe1bce34	-0.15215379
36	0x3dcf7134	0.10129014
37	0xbe3a969c	-0.18221515
38	0xbdd396d0	-0.103314996
39	0x3d4ea12f	0.050446685
40	0xbe2546f7	-0.16140352
41	0xbe453788	-0.19259465
42	0x3d4d3789	0.05010179
43	0xbd0800c6	-0.033203863
44	0xbe821d80	-0.25413132
45	0xbbabade1	-0.005239234
46	0xbe5e89f9	-0.2173232
47	0xbd81d9c0	-0.06340361
48	0x3de2de55	0.11077563
49	0xbe007db3	-0.1254795
50	0xbd19a274	-0.037508443
51	0x3e0b22b4	0.13587457
52	0xbcaa5932	-0.020794485
53	0x3d93c5b9	0.07215447
54	0xbca911c1	-0.020638349
55	0xbd8f52ce	-0.069982156
56	0xbd9c4764	-0.07630804
57	0xbd1e8e90	-0.038710177
58	0x3dbf7bc2	0.09349777
59	0xbda9c616	-0.08289735
60	0xbdb6aa93	-0.08919253
61	0xbe4ee2dd	-0.20203729
62	0x3ccce954	0.025013603
63	0x3cd6bd03	0.026213175

bias_log_sigma f4 [64]
0	0xc0e00023	-7.0000167
1	0xc0e00000	-7.0
2	0xc0e01d73	-7.003595
3	0xc0df528f	-6.978828
4	0xc0dff495	-6.998606
5	0xc0df471d	-6.977431
6	0xc0df80a5	-6.9844537
7	0xc0e00000	-7.0
8	0xc0e00000	-7.0
9	0xc0e35ac5	-7.1048303
10	0xc0e00000	-7.0
11	0xc0e00b53	-7.0013824
12	0xc0e0bc3e	-7.022979
13	0xc0e00000	-7.0
14	0xc0dfd9ea	-6.995351
15	0xc0dda18b	-6.9259696
16	0xc0ddc988	-6.930851
17	0xc0e116b2	-7.0340204
18	0xc0e00000	-7.0
19	0xc0e2a7c7	-7.0829806
20	0xc0dcceab	-6.900228
21	0xc0e00000	-7.0
22	0xc0df474e	-6.977454
23	0xc0decd2b	-6.962545
24	0xc0e00000	-7.0
25	0xc0dfc2c0	-6.992523
26	0xc0e00000	-7.0
27	0xc0df8da6	-6.986041
28	0xc0e11515	-7.0338235
29	0xc0dfff2e	-6.9999
30	0xc0e2a3b8	-7.082485
31	0xc0e00000	-7.0
32	0xc0dec314	-6.9613132
33	0xc0e017e8	-7.0029182
34	0xc0e22317	-7.0667834
35	0xc0e00000	-7.0
36	0xc0e602e5	-7.1878533
37	0xc0e03982	-7.00702
38	0xc0e0278b	-7.004827
39	0xc0e067d9	-7.0126767
40	0xc0e171a0	-7.0451202
41	0xc0e213f8	-7.0649376
42	0xc0dfa820	-6.989273
43	0xc0df8de5	-6.986071
44	0xc0e0b6bc	-7.0223064
45	0xc0dbe6ed	-6.871939
46	0xc0e0002d	-7.0000215
47	0xc0e00000	-7.0
48	0xc0e042b1	-7.008141
49	0xc0dff837	-6.9990497
50	0xc0e0beba	-7.023282
51	0xc0dcf056	-6.904338
52	0xc0e2d632	-7.088647
53	0xc0dfd183	-6.994325
54	0xc0dd4ae4	-6.915392
55	0xc0e356bd	-7.104338
56	0xc0e2cd8f	-7.0875926
57	0xc0e3cb24	-7.1185474
58	0xc0e06e11	-7.013436
59	0xc0e00e54	-7.001749
60	0xc0df51af	-6.978721
61	0xc0e00000	-7.0
62	0xc0e00000	-7.0
63	0xc0dee5fb	-6.965574

weight_mu f4 [64, 64]
0	0x3e0a7898	0.13522565
1	0xbc1ef5f9	-0.009702199
2	0x3d62f337	0.05540773
3	0x3da4e508	0.08051497
4	0xbcf567e0	-0.029956758
5	0xbdc61368	-0.0967167
6	0xbd8d48e8	-0.068986714
7	0x3b042f4e	0.0020169797
8	0x3e169422	0.14704946
9	0x3d10a803	0.03531648
10	0xbe370865	-0.17874296
11	0x3e01667b	0.1263675
12	0x3da7a56c	0.081858486
13	0x3d6fb169	0.0585188
14	0x3dec7c20	0.115471125
15	0x3d119f70	0.035552442
16	0x3c00f67c	0.007871266
17	0x3deb48b8	0.114884794
18	0xbb927575	-0.0044695684
19	0xba502d00	-0.0007941276
20	0xbd788121	-0.060670022
21	0x3c320a8d	0.010866773
22	0xbd9c99f4	-0.07646552
23	0x3cc8c20f	0.024506597
24	0x3d370303	0.044680607
25	0xbe72aecf	-0.23699497
26	0xbd37630c	-0.044772193
27	0xbe06c204	-0.13159949
28	0xbe6f3d90	-0.23363328
29	0x3dab23ce	0.083564386
30	0x3d12fbfe	0.03588485
31	0xbcede23d	-0.029038543
32	0x3d4d4264	0.050112143
33	0x3dfd7d1c	0.12377378
34	0xbe912f55	-0.28356424
35	0xbd379f28	-0.044829518
36	0xbe0bfad3	-0.136699
37	0xbd500f3a	-0.05079577
38	0x3e12d7dd	0.14340158
39	0xbd5fb55b	-0.054616313
40	0xbdbc255a	-0.09186812
41	0x3de8ec1e	0.11373161
42	0x3de8ed2d	0.11373363
43	0xbdb47270	-0.0881089
44	0xbd8ed0e7	-0.06973439
45	0xbcb88c2f	-0.022527782
46	0xbd4c0f1e	-0.049819104
47	0xbe455d96	-0.19273981
48	0x3d73dc8c	0.0595365
49	0x3d124e55	0.035719234
50	0xbe3618e0	-0.17782927
51	0xbe05c9cd	-0.13065262
52	0xbdf646c3	-0.120252155
53	0x3e50a6f7	0.20376192
54	0x3da87b0e	0.08226596
55	0x3dcf424c	0.10120067
56	0xbd0d8147	-0.034547117
57	0x3d244d1c	0.0401126
58	0xbce66505	-0.028124342
59	0xbd86404e	-0.06555234
60	0x399afc56	0.00029561174
61	0x3d8230ec	0.06356987
62	0x3d12947b	0.035786133
63	0xbdcc7674	-0.09983531
64	0xbc89a206	-0.016800892
65	0xbe019911	-0.12656046
66	0xbd9eff48	-0.07763535
67	0x3dd852e8	0.10562688
68	0x3de8b281	0.11362172
69	0xbe48604b	-0.19567983
70	0xbcc1f63a	-0.02367698
71	0xbd9f33e7	-0.077735715
72	0xbc746d9d	-0.014918712
73	0x3cd4b6cb	0.025966069
74	0xbe08bbed	-0.13352938
75	0xbd8f00ab	-0.06982549
76	0xbc419d16	-0.011817237
77	0xbe2f21d7	-0.17102753
78	0x3d65f1d4	0.05613883
79	0xbcfd1fff	-0.030899046
80	0xbe03ed5d	-0.12883516
81	0x3c92931c	0.017892413
82	0xbe20183b	-0.15634243
83	0xbd4df4d8	-0.05028233
84	0x3d093972	0.03350205
85	0xbdf7a62c	-0.12092242
86	0xbdafa4cd	-0.08576355
87	0xbd9ada61	-0.07561184
88	0xbded16ca	-0.11576612
89	0x3cf7e0f0	0.030258626
90	0xbcad89f8	-0.021183953
91	0x3d818277	0.06323712
92	0x3d1bd79f	0.03804743
93	0xbdd46605	-0.10371021
94	0x3d0671af	0.03282326
95	0xbc08e43e	-0.008355198
96	0x3d87389b	0.066025935
97	0x3d3c71a9	0.046006832
98	0xbd9d8143	-0.0769067
99	0x3b17ed4b	0.002318221
100	0xbd46dedd	-0.048552383
101	0xbe818bbf	-0.2530193
102	0x3c49855d	0.012299863
103	0xbd997ba5	-0.074942864
104	0x3dceb21b	0.10092565
105	0x3df1ce3e	0.11806916
106	0xbacf448e	-0.0015813278
107	0x3dc81ca1	0.097710855
108	0xbe97b249	-0.29628208
109	0xbe718037	-0.23584066
110	0x3d50babb	0.05095933
111	0xbdb2b31c	-0.08725569
112	0xbdf8b629	-0.12144119
113	0xbda0a9cc	-0.07844886
114	0x3d9e2168	0.077212155
115	0xbd03a334	-0.032138065
116	0xbe113ea4	-0.14184052
117	0xbe1dd1f0	-0.15412116
118	0xbda72713	-0.0816175
119	0xbe876264	-0.26442254
120	0xbe5bc6fc	-0.21462625
121	0xbd838d2d	-0.064234115
122	0x3d5a1264	0.053240195
123	0xbdb70f65	-0.08938483
124	0xbc0c7a85	-0.008574133
125	0xbd68d574	-0.05684419
126	0x3c04a614	0.008096237
127	0xbe075041	-0.13214208
128	0x3de0b54f	0.10972082
129	0xbc33d978	-0.010977142
130	0x3d7966fa	0.06088922
131	0xbd8627d0	-0.065505624
132	0x3d9872c7	0.07443767
133	0xbdebabed	-0.115074016
134	0xbdf4235c	-0.11920807
135	0x3dd2f2f9	0.103002496
136	0xbb0b54a5	-0.002126017
137	0xbddbe810	-0.10737622
138	0x3dbd7701	0.09251214
139	0x3d67c2aa	0.05658213
140	0x3c0f18fb	0.008733983
141	0x3e39f980	0.18161583
142	0xbdc0ca68	-0.09413606
143	0xbe3b48c0	-0.1828947
144	0x3e6f6fdd	0.23382516
145	0xbcb289f6	-0.0217943
146	0x3db2a13b	0.087221585
147	0xbdba9c53	-0.09111848
148	0x3d60555b	0.0547689
149	0xbcac753c	-0.021051995
150	0xbcea0dc0	-0.02857101
151	0x3d3fcc32	0.046825595
152	0x3b7ee6a9	0.0038894808
153	0xbe3541e0	-0.1770091
154	0x3e09b3ec	0.13447541
155	0x3c835882	0.016033415
156	0xbf0684e7	-0.5254654
157	0x3d75d1e4	0.06001462
158	0x3df9fb2f	0.122061126
159	0x3dc8f474	0.09812251
160	0x3cb69803	0.022289282
161	0x3cb9dbae	0.02268776
162	0xbe8b2750	-0.2717843
163	0x3d2a2b7e	0.041545384
164	0xbe151c4c	-0.14561576
165	0xbe82f97a	-0.2558096
166	0xbcfae2b0	-0.030625671
167	0x3ed41d07	0.41428396
168	0xbd5a700e	-0.05332952
169	0xbd267eec	-0.040648386
170	0x3e0b71f3	0.13617687
171	0x3d29ca57	0.041452732
172	0xbe24249d	-0.16029592
173	0xbe862ec1	-0.26207545
174	0x3dd98b82	0.10622312
175	0x3c62ac80	0.0138350725
176	0x3e1700e9	0.14746441
177	0xbace6361	-0.001574617
178	0x3d012525	0.031529564
179	0x3e65a8ee	0.22427723
180	0xbcef60a1	-0.029220881
181	0x3e05d789	0.13070501
182	0xbc743314	-0.014904756
183	0xbeb1c747	-0.3472235
184	0xbe0685ce	-0.1313698
185	0x3cbf06ac	0.023318611
186	0x3d8c7e61	0.06860042
187	0x3b02427d	0.0019876056
188	0x3b12edbe	0.0022419537
189	0x3d9e5680	0.07731342
190	0x3cc12ed5	0.023581902
191	0x3c8c7442	0.01714528
192	0x3dc89388	0.09793764
193	0xbdcd02ee	-0.100103244
194	0x3d41d3a2	0.04732097
195	0x3d8828b8	0.066483915
196	0xbc5bdf60	-0.013419956
197	0xbe26fd27	-0.16307507
198	0xbcdc7828	-0.026912764
199	0x3dbd82ba	0.0925345
200	0xbda16c8d	-0.078820325
201	0xbd619c09	-0.055080447
202	0xbd95443d	-0.07288406
203	0xbd29eaea	-0.041483797
204	0x3cff5fd9	0.031173633
205	0xbbb8ce89	-0.0056398553
206	0xbdbea864	-0.09309462
207	0xbdc9abe4	-0.09847239
208	0xbd73350c	-0.05937676
209	0x3d9a55da	0.07535906
210	0xbd907af9	-0.07054705
211	0x3d86d2c4	0.06583169
212	0xbdee21af	-0.116275184
213	0x3dd0cd58	0.10195416
214	0xbdda1422	-0.10648371
215	0xbc60e7e4	-0.013727162
216	0xbdae5fce	-0.08514367
217	0xbda7394c	-0.081652254
218	0x3b976fa0	0.004621461
219	0xbdf64963	-0.12025716
220	0xbe243051	-0.16034056
221	0xba0b6600	-0.00053176284
222	0x3da1ea8a	0.07906063
223	0xbc0e24be	-0.008675752
224	0xbd728c94	-0.059216097
225	0xbc9b2a58	-0.01894109
226	0x3d606732	0.054785915
227	0xbdb178f5	-0.08665649
228	0xbdfa11f8	-0.122104585
229	0x3c854bf3	0.016271567
230	0x3dcb7fe7	0.09936505
231	0xbb4ac8e7	-0.00309425
232	0xbcf79798	-0.030223653
233	0xbcdf4660	-0.027255237
234	0xbd3770ce	-0.044785313
235	0xbdc05e74	-0.093930155
236	0xbcc44093	-0.023956573
237	0x3d2fc5e5	0.042913336
238	0x3d043df4	0.032285646
239	0xbdab4c69	-0.083641835
240	0xbd8a0ce5	-0.06740741
241	0xbe12fffd	-0.14355464
242	0xbd85ded8	-0.06536645
243	0xbdbc8ca3	-0.09206512
244	0xbe35b085	-0.17743118
245	0x3d51ea68	0.051248938
246	0x3d6df49a	0.0580946
247	0xbcfb0bc2	-0.030645255
248	0xbc9fe37b	-0.01951765
249	0xbd9383ce	-0.07202874
250	0xbd73c261	-0.059511546
251	0xbcfdc468	-0.030977443
252	0x3de5b7fd	0.112167336
253	0x3d634400	0.05548477
254	0x3c9c5d37	0.019087417
255	0xbc518770	-0.0127886385

weight_log_sigma f4 [64, 64]
0	0xc06176d8	-3.5228786
1	0xc06176d8	-3.5228786
2	0xc06176d8	-3.5228786
3	0xc06176d8	-3.5228786
4	0xc06176d8	-3.5228786
5	0xc06176d8	-3.5228786
6	0xc06176d8	-3.5228786
7	0xc06176d8	-3.5228786
8	0xc06176d8	-3.5228786
9	0xc06176d8	-3.5228786
10	0xc06176d8	-3.5228786
11	0xc06176d8	-3.5228786
12	0xc06176d8	-3.5228786
13	0xc06176d8	-3.5228786
14	0xc06176d8	-3.5228786
15	0xc06176d8	-3.5228786
16	0xc06176d8	-3.5228786
17	0xc06176d8	-3.5228786
18	0xc06176d8	-3.5228786
19	0xc06176d8	-3.5228786
20	0xc06176d8	-3.5228786
21	0xc06176d8	-3.5228786
22	0xc06176d8	-3.5228786
23	0xc06176d8	-3.5228786
24	0xc06176d8	-3.5228786
25	0xc06176d8	-3.5228786
26	0xc06176d8	-3.5228786
27	0xc06176d8	-3.5228786
28	0xc06176d8	-3.5228786
29	0xc06176d8	-3.5228786
30	0xc06176d8	-3.5228786
31	0xc06176d8	-3.5228786
32	0xc06176d8	-3.5228786
33	0xc06176d8	-3.5228786
34	0xc06176d8	-3.5228786
35	0xc06176d8	-3.5228786
36	0xc06176d8	-3.5228786
37	0xc06176d8	-3.5228786
38	0xc06176d8	-3.5228786
39	0xc06176d8	-3.5228786
40	0xc06176d8	-3.5228786
41	0xc06176d8	-3.5228786
42	0xc06176d8	-3.5228786
43	0xc06176d8	-3.5228786
44	0xc06176d8	-3.5228786
45	0xc06176d8	-3.5228786
46	0xc06176d8	-3.5228786
47	0xc06176d8	-3.5228786
48	0xc06176d8	-3.5228786
49	0xc06176d8	-3.5228786
50	0xc06176d8	-3.5228786
51	0xc06176d8	-3.5228786
52	0xc06176d8	-3.5228786
53	0xc06176d8	-3.5228786
54	0xc06176d8	-3.5228786
55	0xc06176d8	-3.5228786
56	0xc06176d8	-3.5228786
57	0xc06176d8	-3.5228786
58	0xc06176d8	-3.5228786
59	0xc06176d8	-3.5228786
60	0xc06176d8	-3.5228786
61	0xc06176d8	-3.5228786
62	0xc06176d8	-3.5228786
63	0xc06176d8	-3.5228786
64	0xc06176d8	-3.5228786
65	0xc06176d8	-3.5228786
66	0xc06176d8	-3.5228786
67	0xc0625fde	-3.5371013
68	0xc05e3b56	-3.4723716
69	0xc0610674	-3.5160189
70	0xc064cfb7	-3.575178
71	0xc06176d8	-3.5228786
72	0xc06176d8	-3.5228786
73	0xc06ad86d	-3.6694596
74	0xc06176d8	-3.5228786
75	0xc05e8bf6	-3.4772925
76	0xc06176d8	-3.5228786
77	0xc06176d8	-3.5228786
78	0xc0627e0b	-3.538943
79	0xc06239bc	-3.5347738
80	0xc0607c2f	-3.5075796
81	0xc062e685	-3.5453198
82	0xc06176d8	-3.5228786
83	0xc05e2836	-3.4712043
84	0xc0617129	-3.5225317
85	0xc06176d8	-3.5228786
86	0xc061c8ec	-3.5278883
87	0xc067c447	-3.6213548
88	0xc06176d8	-3.5228786
89	0xc061f3e3	-3.5305107
90	0xc06176d8	-3.5228786
91	0xc069b093	-3.6514022
92	0xc06d6e0c	-3.7098417
93	0xc0617785	-3.52292
94	0xc0698941	-3.6490023
95	0xc06176d8	-3.5228786
96	0xc060c149	-3.5117972
97	0xc0632422	-3.5490804
98	0xc06fe90c	-3.748599
99	0xc06176d8	-3.5228786
100	0xc067eed6	-3.6239524
101	0xc06afa9f	-3.6715467
102	0xc06176d8	-3.5228786
103	0xc0632602	-3.5491948
104	0xc05ff3e0	-3.49926
105	0xc06176d8	-3.5228786
106	0xc06176d8	-3.5228786
107	0xc06062a7	-3.5060213
108	0xc062f429	-3.5461524
109	0xc062520c	-3.5362577
110	0xc06176d8	-3.5228786
111	0xc06176d8	-3.5228786
112	0xc06218b4	-3.5327578
113	0xc069e048	-3.654314
114	0xc06d252b	-3.7053936
115	0xc05f6305	-3.4904187
116	0xc0693c4d	-3.6443055
117	0xc06176e5	-3.5228817
118	0xc063c654	-3.55898
119	0xc0602809	-3.5024436
120	0xc062495a	-3.535727
121	0xc0641ce7	-3.564264
122	0xc05d3387	-3.45627
123	0xc05f828d	-3.4923432
124	0xc0650ce8	-3.5789127
125	0xc06176d8	-3.5228786
126	0xc06176d8	-3.5228786
127	0xc061436e	-3.5197406
128	0xc06176dc	-3.5228796
129	0xc06176d8	-3.5228786
130	0xc06176d8	-3.5228786
131	0xc0622774	-3.533658
132	0xc06172cc	-3.5226316
133	0xc06176d8	-3.5228786
134	0xc0618581	-3.5237734
135	0xc06176d8	-3.5228786
136	0xc06176d8	-3.5228786
137	0xc06176d8	-3.5228786
138	0xc06176d8	-3.5228786
139	0xc0636627	-3.55311
140	0xc06176d8	-3.5228786
141	0xc06176d8	-3.5228786
142	0xc061dd86	-3.5291457
143	0xc06257ce	-3.5366092
144	0xc067b4a1	-3.6203997
145	0xc061dc39	-3.5290663
146	0xc06176d8	-3.5228786
147	0xc0604bee	-3.5046344
148	0xc065dd5a	-3.5916352
149	0xc06176d8	-3.5228786
150	0xc06176d8	-3.5228786
151	0xc06a8b81	-3.6647646
152	0xc06176d8	-3.5228786
153	0xc0601016	-3.5009818
154	0xc06176d8	-3.5228786
155	0xc06659e7	-3.5992372
156	0xc0646356	-3.568563
157	0xc0617779	-3.522917
158	0xc062f9c0	-3.5464935
159	0xc06176d8	-3.5228786
160	0xc0613955	-3.5191243
161	0xc061c88c	-3.5278654
162	0xc06176d8	-3.5228786
163	0xc06176d8	-3.5228786
164	0xc06176d8	-3.5228786
165	0xc06176d8	-3.5228786
166	0xc06176d8	-3.5228786
167	0xc061ecac	-3.5300703
168	0xc05f4259	-3.4884245
169	0xc06176d8	-3.5228786
170	0xc06176d8	-3.5228786
171	0xc064d2eb	-3.5753734
172	0xc061b90d	-3.5269196
173	0xc06176d8	-3.5228786
174	0xc06176d8	-3.5228786
175	0xc06176d8	-3.5228786
176	0xc06307ed	-3.5473588
177	0xc06176d8	-3.5228786
178	0xc06a4821	-3.6606524
179	0xc0640ba9	-3.5632117
180	0xc06176d8	-3.5228786
181	0xc061d75c	-3.5287695
182	0xc06eb7d8	-3.729971
183	0xc062514f	-3.5362127
184	0xc05e5f96	-3.474584
185	0xc0670e3c	-3.6102438
186	0xc0625ddd	-3.536979
187	0xc0640bef	-3.5632284
188	0xc060587a	-3.5054002
189	0xc06176d8	-3.5228786
190	0xc06176d8	-3.5228786
191	0xc06175f6	-3.5228248
192	0xc06176d8	-3.5228786
193	0xc06176d8	-3.5228786
194	0xc06176d8	-3.5228786
195	0xc06176d8	-3.5228786
196	0xc06176d8	-3.5228786
197	0xc06176d8	-3.5228786
198	0xc06176d8	-3.5228786
199	0xc06176d8	-3.5228786
200	0xc06176d8	-3.5228786
201	0xc06176d8	-3.5228786
202	0xc06176d8	-3.5228786
203	0xc06176d8	-3.5228786
204	0xc06176d8	-3.5228786
205	0xc06176d8	-3.5228786
206	0xc06176d8	-3.5228786
207	0xc06182e5	-3.5236142
208	0xc0616b03	-3.5221565
209	0xc06176d8	-3.5228786
210	0xc06176d8	-3.5228786
211	0xc0618239	-3.5235732
212	0xc0619b57	-3.5251062
213	0xc06176d8	-3.5228786
214	0xc06176d8	-3.5228786
215	0xc0629fc9	-3.5410025
216	0xc06176d8	-3.5228786
217	0xc06176d8	-3.5228786
218	0xc06176d8	-3.5228786
219	0xc062ee6f	-3.5458028
220	0xc06165e0	-3.521843
221	0xc06176d8	-3.5228786
222	0xc0619f8a	-3.5253625
223	0xc06176d8	-3.5228786
224	0xc06176d8	-3.5228786
225	0xc06176d8	-3.5228786
226	0xc06176d8	-3.5228786
227	0xc06176d8	-3.5228786
228	0xc06176d8	-3.5228786
229	0xc06176d8	-3.5228786
230	0xc06176d8	-3.5228786
231	0xc0616dbd	-3.522323
232	0xc06176d8	-3.5228786
233	0xc06176d8	-3.5228786
234	0xc06176d8	-3.5228786
235	0xc06176d8	-3.5228786
236	0xc0617709	-3.5228903
237	0xc06176d8	-3.5228786
238	0xc06176d8	-3.5228786
239	0xc06176d8	-3.5228786
240	0xc0619f75	-3.5253575
241	0xc06176d8	-3.5228786
242	0xc0630c07	-3.547609
243	0xc0615167	-3.5205934
244	0xc06176d8	-3.5228786
245	0xc06176d8	-3.5228786
246	0xc0614486	-3.5198073
247	0xc061f014	-3.5302782
248	0xc0619c4d	-3.5251648
249	0xc061a068	-3.5254154
250	0xc0615fdb	-3.5214756
251	0xc06176d8	-3.5228786
252	0xc0619634	-3.5247927
253	0xc06176d8	-3.5228786
254	0xc06176d8	-3.5228786
255	0xc06176d8	-3.5228786

bias_mu f4 [64]
0	0xbe01db5d	-0.12681337
1	0x3dd7235d	0.10504792
2	0xbcaadf6c	-0.020858489
3	0xbe210c4e	-0.1572735
4	0xbe1823e3	-0.1485744
5	0xbe255900	-0.16147232
6	0xbd386fe4	-0.045028582
7	0x3c06e25d	0.00823268
8	0x3d26abe1	0.04069126
9	0xbe172105	-0.1475869
10	0xbe56cabb	-0.20975773
11	0xbdc30150	-0.09521735
12	0x3c07f370	0.008297786
13	0xbcdf49cd	-0.02725687
14	0x3db101de	0.08642934
15	0x3df3b591	0.118998654
16	0x3cdf3ce8	0.027250722
17	0xbd2cc8cc	-0.042183682
18	0x3dcc612e	0.09979473
19	0xbd0b955c	-0.034077987
20	0x3dfaf1c9	0.12253148
21	0x3dd8d3ca	0.105872706
22	0xbcec5556	-0.028849285
23	0xbd9c84c6	-0.07642512
24	0x3db5f5e7	0.08884793
25	0xbd265169	-0.040604983
26	0xbe109ec9	-0.14123072
27	0xbe490692	-0.19631413
28	0xbd5be9fc	-0.05368994
29	0x3d92f8bc	0.071763486
30	0xbdcf31ed	-0.101169445
31	0xbe0412a7	-0.1289774
32	0xbe40320e	-0.18769094
33	0xbd50af3c	-0.050948367
34	0xbda1ef9a	-0.079070285
35	0x3e1395e7	0.14412652
36	0xbdc09723	-0.09403827
37	0x3e5fc657	0.21853004
38	0xbdc42fd6	-0.095794365
39	0xbba36460	-0.004986331
40	0x3da0386e	0.07823263
41	0x3e10a926	0.14127025
42	0xbe57ab99	-0.21061553
43	0xbda01d83	-0.07818129
44	0xbbebeb3e	-0.007199674
45	0xbe7e4b12	-0.24833325
46	0x3d560708	0.0522528
47	0xbe162836	-0.14663777
48	0x3cce61e1	0.025193157
49	0xbdbf6e41	-0.09347201
50	0xbe0a4609	-0.13503279
51	0xbe2afb7f	-0.166975
52	0xbe3b3c7d	-0.18284793
53	0x3c88a646	0.016680848
54	0xbd996407	-0.07489782
55	0xbc6e4d29	-0.014544764
56	0x3d8733d1	0.0660168
57	0x3e393e69	0.18090214
58	0x3dba2d5f	0.09090685
59	0x3cf959a4	0.030438252
60	0xbc56ee10	-0.013118282
61	0xbdf99fab	-0.121886574
62	0xbdf919ff	-0.121631615
63	0xbd91648c	-0.07099256

bias_log_sigma f4 [64]
0	0xc0e00000	-7.0
1	0xc0df065a	-6.9695253
2	0xc0dfbd1a	-6.9918337
3	0xc0e00389	-7.0004315
4	0xc0dfffd1	-6.9999776
5	0xc0e00000	-7.0
6	0xc0df8f18	-6.9862175
7	0xc0e3fcd6	-7.124614
8	0xc0df30aa	-6.9746904
9	0xc0e00000	-7.0
10	0xc0e00000	-7.0
11	0xc0e02f0b	-7.0057425
12	0xc0dfd2b8	-6.9944725
13	0xc0e00039	-7.000027
14	0xc0e2849a	-7.0786867
15	0xc0dfa9f1	-6.989495
16	0xc0e0f039	-7.029324
17	0xc0e00000	-7.0
18	0xc0e11549	-7.0338483
19	0xc0e01747	-7.0028415
20	0xc0e2f6e4	-7.092638
21	0xc0e291b5	-7.0802865
22	0xc0dfe791	-6.9970174
23	0xc0e02066	-7.003955
24	0xc0e00f16	-7.0018415
25	0xc0dfbe87	-6.9920077
26	0xc0dfffd2	-6.999978
27	0xc0e2e6ca	-7.0906725
28	0xc0e32aaf	-7.0989604
29	0xc0e0217f	-7.004089
30	0xc0e0003f	-7.00003
31	0xc0e00083	-7.0000625
32	0xc0e00000	-7.0
33	0xc0dc4614	-6.8835545
34	0xc0e004b6	-7.000575
35	0xc0dfba1e	-6.9914694
36	0xc0e002e5	-7.0003533
37	0xc0e04c44	-7.00931
38	0xc0dd1c37	-6.909694
39	0xc0e05014	-7.009775
40	0xc0e16f44	-7.044832
41	0xc0e2b69f	-7.0847926
42	0xc0dfa294	-6.988596
43	0xc0df9b55	-6.9877114
44	0xc0e00000	-7.0
45	0xc0e00000	-7.0
46	0xc0e0b452	-7.0220118
47	0xc0e0e3ad	-7.0277925
48	0xc0e1f9fa	-7.0617647
49	0xc0e00000	-7.0
50	0xc0e00000	-7.0
51	0xc0e00000	-7.0
52	0xc0df3e64	-6.976366
53	0xc0dd7f35	-6.921778
54	0xc0df07bf	-6.9696956
55	0xc0df3c13	-6.9760833
56	0xc0df92ce	-6.9866705
57	0xc0e149be	-7.0402517
58	0xc0dea98c	-6.9581966
59	0xc0decc70	-6.9624557
60	0xc0de82e8	-6.95348
61	0xc0dfcf94	-6.994089
62	0xc0e0059b	-7.0006843
63	0xc0e13b4a	-7.0384874

weight_mu f4 [64, 64]
0	0xbd8973fa	-0.06711574
1	0x3da837f7	0.082137994
2	0x3db75ca7	0.08953219
3	0xbd89c19d	-0.06726382
4	0x3d8ad144	0.067781955
5	0x3c720a16	0.0147729125
6	0xbc46df7d	-0.012138245
7	0xbd9e1ded	-0.07720552
8	0xbdd84dce	-0.10561715
9	0x3e0e59de	0.13901469
10	0xbb580226	-0.0032960265
11	0xbe86652b	-0.2624906
12	0x3d6e3e85	0.058165092
13	0x3dd076c4	0.10178903
14	0x3e5e8750	0.21731305
15	0xbd5b8319	-0.05359182
16	0x3e4c6762	0.19961312
17	0xbd7f2f6f	-0.062301096
18	0xbd3d5141	-0.046220068
19	0xbd3583a2	-0.044314988
20	0x3e84631a	0.25856858
21	0xba0e318c	-0.0005424253
22	0xbdff1f5e	-0.12457155
23	0xbd0f1890	-0.034935534
24	0x3c814a32	0.01578245
25	0x3e17f2dc	0.14838737
26	0xbc79b5dc	-0.015241113
27	0xbe2b1adc	-0.16709465
28	0xbe5b70d9	-0.21429767
29	0xbe84b6f1	-0.25920823
30	0x3dd3552a	0.10318978
31	0xbd23eb90	-0.04001957
32	0xbc6a3927	-0.014295853
33	0x3c2403c1	0.010010661
34	0x3a94e921	0.0011360982
35	0x3e4a024b	0.19727437
36	0x3c44905d	0.0119973095
37	0x3e0e833d	0.13917251
38	0x3c8df360	0.017327964
39	0xbd5ac139	-0.053406928
40	0x3c9615df	0.018320976
41	0x3e730bcf	0.23734973
42	0x3d0166cd	0.03159218
43	0xbdc6e405	-0.0971146
44	0x3e142708	0.14468014
45	0x3e10ab7e	0.14127919
46	0x3e296c2a	0.16545168
47	0x3e18aaee	0.14908955
48	0x3e17270c	0.14760989
49	0x3dfef354	0.12448755
50	0x3e022872	0.12710741
51	0x3e19c781	0.15017511
52	0xbeb298c9	-0.3488219
53	0x3ded6479	0.11591429
54	0x3daab93b	0.08336111
55	0xbc966a88	-0.018361345
56	0x3e4c4125	0.19946726
57	0xbe2ad966	-0.16684493
58	0xbd355960	-0.044274688
59	0xbd9f586a	-0.077805355
60	0x3e3e410c	0.18579501
61	0x3cac57ba	0.021037925
62	0xbe3900b9	-0.18066682
63	0xbbfd5f9c	-0.007732345
64	0xbe39284c	-0.18081778
65	0xbdcb619e	-0.099307284
66	0xbe1ce07c	-0.15320009
67	0x3cbb984d	0.022899771
68	0xbd9b15cd	-0.075725175
69	0x3d9953ea	0.074867085
70	0x3e148963	0.14505534
71	0xbe620968	-0.220739
72	0xbd50eb63	-0.051005732
73	0x3d9969e5	0.07490901
74	0xbcf4bdce	-0.029875662
75	0xbc538fea	-0.01291273
76	0x3db5a6a4	0.08869675
77	0x3d647a36	0.055780612
78	0x3ddcd572	0.10782899
79	0xbdfc098a	-0.12306507
80	0x3e277e1a	0.16356698
81	0xbdb20b93	-0.08693614
82	0xbe1cc928	-0.1531111
83	0xbe0a5c6d	-0.1351182
84	0x3cd06a3f	0.025441287
85	0xbe114981	-0.14188196
86	0xbcca34ba	-0.024683345
87	0x3dd3e1aa	0.103457764
88	0x3d1b9804	0.03798677
89	0xbd833cc1	-0.06408072
90	0xbde8c228	-0.11365157
91	0xbdb63e94	-0.088986546
92	0x3c952c78	0.01820968
93	0x3d36f3e7	0.044666197
94	0xbe1db28d	-0.15400143
95	0xbd20e1b3	-0.039277744
96	0xbe12aca0	-0.14323664
97	0xbbe994e3	-0.0071283444
98	0xbd0a2a0f	-0.033731516
99	0xbe497781	-0.19674493
100	0x3d881844	0.06645253
101	0xbdb13b26	-0.0865386
102	0x3e023301	0.12714769
103	0xbe35e59c	-0.1776337
104	0xbde38c27	-0.11110716
105	0xbd917015	-0.07101456
106	0x3c9cb114	0.019127406
107	0xbd44bca4	-0.048031464
108	0xbd468047	-0.04846218
109	0xbd092bac	-0.033488914
110	0xbceeee0f	-0.02916625
111	0x3d05ff6a	0.032714285
112	0xba49c879	-0.0007697414
113	0x3de314ca	0.110879496
114	0x3cd51541	0.026011111
115	0xbddbb728	-0.10728294
116	0xbda38dcd	-0.07986031
117	0x3b7b4764	0.0038342113
118	0x3e00ccf9	0.12578191
119	0xbcc31377	-0.023812992
120	0xbde84b9c	-0.11342546
121	0xbe0ca152	-0.13733414
122	0xbd854a8b	-0.065083586
123	0xbd115c4a	-0.035488404
124	0x3b98616a	0.0046502845
125	0xbbca90c0	-0.0061818063
126	0x3c4a17eb	0.012334804
127	0xbd420cb8	-0.04737541
128	0x3dc0ce95	0.094144024
129	0x3c48ac9e	0.012248186
130	0x3e221541	0.1582842
131	0x3e163ec8	0.14672387
132	0x3d832e59	0.064053245
133	0x3d270f7a	0.040786244
134	0x3d95c4b6	0.0731291
135	0xbe0d466d	-0.13796397
136	0xbd9d112c	-0.07669291
137	0xbd165818	-0.036705106
138	0x3d777dae	0.060422592
139	0xbea0b200	-0.31385803
140	0x3e3820e1	0.17981292
141	0xbbd8cf49	-0.006616507
142	0x3e1c9b96	0.15293726
143	0xbd1b35c5	-0.037893075
144	0xbc0bb71c	-0.008527543
145	0x3d88d7e1	0.06681801
146	0xbe4d3ae7	-0.20042
147	0xbb9deaa8	-0.004819233
148	0x3e2bbc4b	0.16771047
149	0x3d981005	0.074249305
150	0xbe9345a6	-0.28764075
151	0xbcf8b163	-0.030358022
152	0x3e3cd9c8	0.18442452
153	0xbd5b2484	-0.05350162
154	0x3e1c10be	0.15240762
155	0xbde78694	-0.113049656
156	0xbe3a998f	-0.1822264
157	0xbdec5eb0	-0.11541498
158	0x3e31e5a1	0.17372753
159	0x397b3a8e	0.00023959039
160	0x3c09a6ee	0.008401616
161	0xbce670f7	-0.028130038
162	0x3d6e9382	0.058246143
163	0x3e1120e7	0.14172707
164	0x3d39aa05	0.04532816
165	0x3e2ca25a	0.16858807
166	0x3dcc56a8	0.09977466
167	0xbd03f65c	-0.03221737
168	0x3e21ec98	0.1581291
169	0x3e5b6af0	0.21427512
170	0xbd10c877	-0.03534743
171	0xbd7f9a5f	-0.06240308
172	0x3dfa9c7f	0.122368805
173	0x3e8171cc	0.25282133
174	0x3d65293d	0.05594753
175	0x3e4506d7	0.1924089
176	0x3d97cbb5	0.07411901
177	0x3e3c8808	0.18411267
178	0x3b38492e	0.002811979
179	0x3d72e486	0.05929997
180	0xbe4148de	-0.18875453
181	0x3d578c89	0.05262426
182	0xbcde8319	-0.027162122
183	0xbd7a49dc	-0.061105594
184	0x3e470b3e	0.19437882
185	0xbe48a0b2	-0.1959255
186	0xbe71c3b6	-0.23609814
187	0x3c61a25a	0.013771618
188	0xbc2d43c0	-0.010575235
189	0xbdd02585	-0.10163406
190	0xbe8bc62e	-0.27299637
191	0x3d02696a	0.031838812
192	0xbdcbba55	-0.099476494
193	0xbcd77543	-0.026301032
194	0xbc9f810e	-0.019470718
195	0x3de890f9	0.11355776
196	0xbc761716	-0.015020153
197	0x3d1eff33	0.038817596
198	0x3cb48e1f	0.022040425
199	0x3d5b2414	0.053501204
200	0x3d1e49c4	0.038644567
201	0xbdb5ca37	-0.0887646
202	0xbccc9dfb	-0.024977675
203	0xbe62112d	-0.22076865
204	0x3dc5d29f	0.096593134
205	0xbdbae260	-0.09125209
206	0x3e186ee9	0.14886059
207	0x3db0a0de	0.08624433
208	0xbd8f7460	-0.07004619
209	0x3e31c6f2	0.17361048
210	0x3e0aeb29	0.13566269
211	0xbd1a5e92	-0.037687846
212	0xbf212bb1	-0.6295729
213	0x3e576694	0.21035224
214	0x3e12bfd0	0.14330983
215	0x3d7196d4	0.05898173
216	0x3d7932da	0.06083951
217	0xbc93c2ce	-0.018037226
218	0xbdf0faaf	-0.11766564
219	0xbe8dfcd7	-0.27731964
220	0xbe6c66e7	-0.23086129
221	0x3de190fb	0.11013981
222	0xbd2b9f31	-0.041899864
223	0x3d88e533	0.06684341
224	0x3da90768	0.08253366
225	0xbdf116f9	-0.1177196
226	0x3d4ca3fd	0.04996108
227	0x3e263c14	0.16233855
228	0xbddcb092	-0.107758656
229	0x3e23d9d8	0.1600107
230	0x3dc375bb	0.0954394
231	0xbbe4782d	-0.006972334
232	0x3dc8b93c	0.09800956
233	0xbee90c87	-0.4551737
234	0xbe3cf036	-0.18451008
235	0xbe993260	-0.29921246
236	0xbdca263e	-0.09870575
237	0x3c4992ad	0.012303037
238	0x3dd11bdc	0.10210392
239	0xbca9e3eb	-0.020738563
240	0x3e2e6ea4	0.17034394
241	0xbd63097c	-0.055428967
242	0x3c026464	0.007958505
243	0xbe275c87	-0.1634389
244	0xbeb23c0f	-0.34811446
245	0xbe9166a8	-0.28398633
246	0xbdf9d4be	-0.121987805
247	0xbd63a047	-0.055572774
248	0xbe46691f	-0.19376038
249	0x3e20ecb2	0.15715292
250	0xbe067216	-0.13129458
251	0xbdb7d13a	-0.08975454
252	0xbe358700	-0.1772728
253	0xbd5cd2e1	-0.053912047
254	0x3cb92670	0.022601336
255	0x3d136e6c	0.03599398

weight_log_sigma f4 [64, 64]
0	0xc06176d8	-3.5228786
1	0xc0635a6a	-3.5523934
2	0xc062a07d	-3.5410454
3	0xc0617471	-3.522732
4	0xc06176d8	-3.5228786
5	0xc06176d8	-3.5228786
6	0xc061333d	-3.5187523
7	0xc0613a2e	-3.519176
8	0xc062ac53	-3.5417678
9	0xc06176d8	-3.5228786
10	0xc06176d8	-3.5228786
11	0xc06176d8	-3.5228786
12	0xc062a768	-3.5414677
13	0xc06176de	-3.52288
14	0xc0682d1a	-3.6277528
15	0xc069ca98	-3.6529903
16	0xc06188dc	-3.5239782
17	0xc06176d8	-3.5228786
18	0xc0618382	-3.5236516
19	0xc0614703	-3.5199592
20	0xc0683d78	-3.6287518
21	0xc06a940d	-3.6652863
22	0xc06367d1	-3.5532115
23	0xc0611004	-3.5166025
24	0xc0650d8a	-3.5789514
25	0xc05e9e44	-3.4784098
26	0xc06176d8	-3.5228786
27	0xc05e013a	-3.4688249
28	0xc0677811	-3.6167033
29	0xc073bb6f	-3.808315
30	0xc061785d	-3.5229714
31	0xc06176d8	-3.5228786
32	0xc06176d8	-3.5228786
33	0xc06f02fd	-3.7345574
34	0xc0617d2d	-3.5232651
35	0xc0633507	-3.5501115
36	0xc0617704	-3.5228891
37	0xc065cc4f	-3.590595
38	0xc061674c	-3.5219297
39	0xc0613c75	-3.519315
40	0xc066d714	-3.6068773
41	0xc0697e00	-3.6483154
42	0xc05ef89f	-3.4839246
43	0xc0637d0d	-3.5545075
44	0xc06176d8	-3.5228786
45	0xc06176d8	-3.5228786
46	0xc066f3b3	-3.6086242
47	0xc06176d8	-3.5228786
48	0xc06a1bd8	-3.6579494
49	0xc06176d8	-3.5228786
50	0xc06176d8	-3.5228786
51	0xc06176d8	-3.5228786
52	0xc06176d8	-3.5228786
53	0xc0664a4d	-3.598285
54	0xc061fad3	-3.530934
55	0xc06175b2	-3.5228086
56	0xc05eef05	-3.4833386
57	0xc07069d0	-3.7564583
58	0xc06725fb	-3.6116931
59	0xc06762ab	-3.6153972
60	0xc06b819c	-3.6797857
61	0xc06048af	-3.5044363
62	0xc05d8b50	-3.461628
63	0xc06176d8	-3.5228786
64	0xc06176d8	-3.5228786
65	0xc06176d8	-3.5228786
66	0xc06176d8	-3.5228786
67	0xc06176d8	-3.5228786
68	0xc0617390	-3.5226784
69	0xc06176d8	-3.5228786
70	0xc06176d8	-3.5228786
71	0xc063b6f8	-3.5580425
72	0xc0631567	-3.5481813
73	0xc06176d8	-3.5228786
74	0xc06176d8	-3.5228786
75	0xc0624923	-3.535714
76	0xc06176d8	-3.5228786
77	0xc06176d8	-3.5228786
78	0xc06176d8	-3.5228786
79	0xc06176d8	-3.5228786
80	0xc06176d8	-3.5228786
81	0xc06176d8	-3.5228786
82	0xc06176d8	-3.5228786
83	0xc06176d8	-3.5228786
84	0xc06168c3	-3.5220191
85	0xc060f5c6	-3.5150008
86	0xc061ac1a	-3.5261292
87	0xc06176d8	-3.5228786
88	0xc06176ea	-3.522883
89	0xc06176d8	-3.5228786
90	0xc06176d8	-3.5228786
91	0xc0649357	-3.571493
92	0xc062c463	-3.5432365
93	0xc0625001	-3.536133
94	0xc06176d8	-3.5228786
95	0xc06176d8	-3.5228786
96	0xc06176d8	-3.5228786
97	0xc061a126	-3.5254607
98	0xc06176d8	-3.5228786
99	0xc06176d8	-3.5228786
100	0xc06176d8	-3.5228786
101	0xc06176d8	-3.5228786
102	0xc0646620	-3.5687332
103	0xc06176d8	-3.5228786
104	0xc06168a7	-3.5220125
105	0xc061a63c	-3.5257711
106	0xc06176d8	-3.5228786
107	0xc061729c	-3.5226202
108	0xc06176d8	-3.5228786
109	0xc06176d8	-3.5228786
110	0xc0621d98	-3.5330563
111	0xc061785e	-3.5229716
112	0xc0617615	-3.5228322
113	0xc06176d8	-3.5228786
114	0xc06176d8	-3.5228786
115	0xc06176d8	-3.5228786
116	0xc066501e	-3.59864
117	0xc06176d8	-3.5228786
118	0xc0616c19	-3.5222228
119	0xc061b12d	-3.526439
120	0xc06178e1	-3.5230029
121	0xc05fcbe4	-3.4968195
122	0xc061779f	-3.522926
123	0xc06176d8	-3.5228786
124	0xc06176d8	-3.5228786
125	0xc06176d8	-3.5228786
126	0xc061eff7	-3.5302713
127	0xc06176d8	-3.5228786
128	0xc06176d8	-3.5228786
129	0xc058a50a	-3.3850732
130	0xc05b97bb	-3.431136
131	0xc061749a	-3.5227418
132	0xc06176d8	-3.5228786
133	0xc06176d8	-3.5228786
134	0xc064f2e5	-3.577325
135	0xc063503b	-3.5517719
136	0xc0635679	-3.5521529
137	0xc06176d8	-3.5228786
138	0xc06176d8	-3.5228786
139	0xc06176d8	-3.5228786
140	0xc05e8c8c	-3.4773283
141	0xc06176dd	-3.5228798
142	0xc064f9c7	-3.5777452
143	0xc0616eed	-3.5223954
144	0xc06176d8	-3.5228786
145	0xc06176d8	-3.5228786
146	0xc0628af4	-3.539731
147	0xc06284ce	-3.5393558
148	0xc05eb3dd	-3.479728
149	0xc06c8c67	-3.6960695
150	0xc068920a	-3.6339135
151	0xc060f4ac	-3.5149336
152	0xc0673463	-3.6125724
153	0xc0673bd2	-3.6130261
154	0xc06176d8	-3.5228786
155	0xc05fc97c	-3.4966726
156	0xc05edc77	-3.482206
157	0xc06db645	-3.7142498
158	0xc06176d8	-3.5228786
159	0xc06176d8	-3.5228786
160	0xc06176d8	-3.5228786
161	0xc05f35ee	-3.4876666
162	0xc0617a4d	-3.5230896
163	0xc0674d7c	-3.6141043
164	0xc061763d	-3.5228417
165	0xc066da40	-3.607071
166	0xc06171e2	-3.5225759
167	0xc0600d4f	-3.5008123
168	0xc06f1e55	-3.7362263
169	0xc0654bca	-3.5827508
170	0xc0605701	-3.5053103
171	0xc06487d1	-3.5707896
172	0xc06176d8	-3.5228786
173	0xc06176d8	-3.5228786
174	0xc06a8b0d	-3.664737
175	0xc06176d8	-3.5228786
176	0xc06a3205	-3.659303
177	0xc06176d8	-3.5228786
178	0xc06176d8	-3.5228786
179	0xc06176d8	-3.5228786
180	0xc06176d8	-3.5228786
181	0xc06520b2	-3.5801206
182	0xc0666923	-3.600167
183	0xc06176d8	-3.5228786
184	0xc0653ee6	-3.581964
185	0xc069ee9c	-3.6551886
186	0xc064c5a7	-3.5745637
187	0xc065a697	-3.5882928
188	0xc0694631	-3.6449091
189	0xc0615356	-3.5207114
190	0xc05956dd	-3.3959267
191	0xc06176d8	-3.5228786
192	0xc06176d8	-3.5228786
193	0xc0667c9d	-3.6013558
194	0xc05df8d5	-3.4683125
195	0xc06176d8	-3.5228786
196	0xc06176d8	-3.5228786
197	0xc06176d8	-3.5228786
198	0xc063b0b1	-3.5576594
199	0xc06dbd50	-3.7146797
200	0xc06d5c54	-3.7087603
201	0xc06176d8	-3.5228786
202	0xc06176d8	-3.5228786
203	0xc0634039	-3.5507948
204	0xc05cecd6	-3.4519553
205	0xc06176f5	-3.5228856
206	0xc0686f6f	-3.6318014
207	0xc05ce136	-3.4512458
208	0xc061fd74	-3.5310946
209	0xc06176d8	-3.5228786
210	0xc0670e8d	-3.610263
211	0xc06230cc	-3.5342283
212	0xc070800b	-3.7578151
213	0xc06ffb22	-3.749703
214	0xc06284d6	-3.5393577
215	0xc06175c3	-3.5228126
216	0xc0645ac9	-3.568041
217	0xc062368e	-3.5345798
218	0xc06164e2	-3.5217824
219	0xc06898a5	-3.6343167
220	0xc06e5975	-3.72421
221	0xc06f2c3d	-3.737075
222	0xc06176d8	-3.5228786
223	0xc06176d8	-3.5228786
224	0xc06176d8	-3.5228786
225	0xc06ae2f8	-3.670103
226	0xc0617667	-3.5228517
227	0xc068eb7a	-3.6393723
228	0xc06176d8	-3.5228786
229	0xc05a1e8a	-3.408114
230	0xc0610fd9	-3.5165923
231	0xc06176cb	-3.5228755
232	0xc067f7d7	-3.624502
233	0xc068c899	-3.6372435
234	0xc0624b02	-3.535828
235	0xc0610309	-3.5158103
236	0xc06176d8	-3.5228786
237	0xc06176d8	-3.5228786
238	0xc06600e4	-3.5938044
239	0xc060edbc	-3.5145102
240	0xc06262c8	-3.5372791
241	0xc06176d8	-3.5228786
242	0xc06176d8	-3.5228786
243	0xc06176d8	-3.5228786
244	0xc0606ddc	-3.5067053
245	0xc06744c3	-3.613572
246	0xc0611354	-3.5168047
247	0xc05f2ffb	-3.4873035
248	0xc06217e5	-3.5327084
249	0xc078a056	-3.8847861
250	0xc0626893	-3.5376327
251	0xc05fad6a	-3.4949594
252	0xc066d97f	-3.607025
253	0xc0607442	-3.5070958
254	0xc0641328	-3.5636692
255	0xc0619fe0	-3.525383
