UQ_assessment_1D/models_old/MCD/i1_nn64_nl4_o1_tr1_ep400_b50000_dr0.02_s36/model.pth (torch, 80584 bytes, 13 tensors)

weight f4 [32, 1]
00000000: 42d1 e53d 13f2 12bf 8b47 64bf 8075 65be
00000010: 2ff1 413f 2558 b7bf d012 823f 94b7 963f
00000020: 393a bd3e 6c7b 94be 9e96 a13f 0c6f 4d3f
00000030: 63e2 383f b3ee d7bf e163 4fbf 0f74 ecbe
00000040: b96c 4ebf ee98 82bf c41b f8be a412 3abf
00000050: c0bf 8cbc 62d1 36bf 004b 333c 2505 70bf
00000060: 8717 803f 00a9 d93c 2b55 06bf 5f69 483f
00000070: 68f8 4bbe 952f b1bf c873 583e 432f 43be
0.112215534 -0.57400626 -0.89171666 -0.22408104 0.7575864 -1.4323775 1.0161991 1.1774774
0.36958483 -0.29000413 1.262409 0.8024757 0.7222044 -1.686972 -0.8101178 -0.46182296
-0.8063465 -1.020292 -0.48458683 -0.72684693 -0.017181277 -0.7141324 0.010943174 -0.9375785
1.000718 0.026569843 -0.52473706 0.78285784 -0.19918978 -1.3842646 0.21137917 -0.19060998

bias f4 [32]
00000000: 80f1 92be 09bc 8a3c b832 68bf f9b9 7bbc
00000010: 16ff 8a3e 199b aebe 5fe4 b83e fbbb a63e
00000020: 7def 97be 1072 15bf 4290 c43e d04f 4fbf
00000030: 5647 283e 031a c53e 73f4 25be 9eca 46bf
00000040: 5ed3 c13e 632c fa3e 497e 2c3d 164d 4abf
00000050: 043e a2be 827c 76bf 5c83 1abf bbd9 c13e
00000060: a797 b73e b8a7 18bf bdc6 953d f7c3 7c3e
00000070: 0eac 6abf e59e a1be 1a9e 6abf 8c42 02bd
-0.28699875 0.016935365 -0.9070239 -0.015364164 0.2714774 -0.34102705 0.36111733 0.32565293
-0.29674903 -0.5837717 0.3839131 -0.8098116 0.16433463 0.38496408 -0.16206531 -0.7765292
0.37856573 0.4886199 0.042112622 -0.79023874 -0.3168794 -0.96283734 -0.6035669 0.37861428
0.3585789 -0.5963092 0.07313297 0.2468413 -0.91668785 -0.3156654 -0.91647494 -0.031801745

weight f4 [64, 32]
00000000: f960 fdbd 7541 fcbd 4a8b 50bd f50c 04bc
00000010: 90f8 f0bc 1c8e 8abd f1a0 33bd f28f 9c3d
00000020: 0f8f 56bd ac57 c3bd 5ddb 5bbd e1a3 abbd
00000030: 1f9a 62bd 28e7 9dbd 0fbb e1bc f7ef cebd
00000040: 97a1 153c 7f2a d8bd 663f 0cbd 8559 c1bd
00000050: d068 cb3d c0fc 5a3d b2a0 3cbd dd1c d5bd
00000060: fb11 863d 0bea 913d d38e 5dbe 4b0b 8cbd
00000070: 73a5 85bc 8a04 12be db66 86bd 5a00 38be
00000080: b556 4abe f50e 37be 9774 2bbe 4b03 8abe
00000090: 3624 b6be 1e12 40bf 5998 d6be 81ea 1cbf
000000a0: 17f8 da3c d094 f8bd 20bf 0bbf 81a1 943d
000000b0: 96aa 97be ee06 63bd 4ba8 80be 8a14 9bbd
000000c0: d793 c2be 711a ccbe e992 63be c04d 1f3e
000000d0: 81d8 643c 7cda 603d 1b4c 163e 677a 3cbc
000000e0: 5dd8 b9be 0c8d d6bc 0b49 b9bd 9977 fabe
000000f0: e9a8 0cbe 0ae6 9fbe c153 f73b 70bb debd
00000100: 180e 91bd 3bdd 85be 584d 4cbd f45f 7fbe
00000110: 7c81 62bf a580 63be 4135 4cbf 7074 acbd
00000120: 358d 2dc0 f7ce bdbc a79f 94bd 5a7e 97bd
00000130: b27f eabe 2f74 6abe dbf2 67be 03c8 433f
00000140: 5e9e 80be 6fe0 79be 6413 8fbe 794c 083c
00000150: 53b9 53bc 27fb 9e3f c64a 29bd f7b4 89be
00000160: d53c d8bf c2ec 0e3e 81b4 8abe 409c 50bf
00000170: 54f2 5dbd 253d f1bd 5f53 343e 8d49 74be
00000180: 1745 203d 3d1d 82be b11f dc3d d567 94be
00000190: 305c c7be 675e f03d ee73 39be c375 aebe
000001a0: bd67 99be d165 43bd 4cd0 6d3d 73d4 98bd
000001b0: 69cd f43d 5ed0 5fbf ce91 39bc 771c 273f
000001c0: a881 f6bd 4a63 48bd ce6b b8be 3664 fc3c
000001d0: bfab fd3d 3d03 f73d b42a 913c ab89 9abe
000001e0: 9711 8abe 7ce2 343e d71f 90be 0343 21be
000001f0: f916 173e fe72 1ebe 6500 13be a76a b0be
00000200: 5ab2 03bc 3a94 bcbd 7a10 a73c 0821 e73b
00000210: e3cf 47be e51a 3b3d 9be5 5fbe 696a 13be
00000220: ea32 993d ac6e 7fbc 558e 51bd 2464 c2bc
00000230: 94ab eabd 3c22 f4bd 9b8a b13d ae53 82bd
00000240: eb99 95bd b769 a1bd d192 ae3d 1e78 10bd
00000250: 5c84 313e 1721 25bd 8065 13be 9f31 bdbd
00000260: b680 73be 9f30 a93d 457f 4fbd 20d3 6c3d
00000270: 007b b83d fada 21be 79a6 f5bd e9cf 4dbe
00000280: 0e1d 653d 7947 babd 4193 d0bd 9cc2 05be
00000290: 1192 07be fdba 0fbc 980a d4bd 2560 55be
000002a0: 5d85 c8bc 0228 fabb ad3b 99be 55de 263d
000002b0: 37cf 0abe a577 6fbe e289 1cbd c893 d3bd
000002c0: 9b98 04bd 2044 a33c 33c0 3bbe d9fe ebbd
000002d0: d65b 80bd 4468 27bd 83ef 02bd 126a c73c
000002e0: 7aca a03d 9221 a53d 3a5c 9dbd b979 67bd
000002f0: 58b3 d6bd 4030 12be 070f d43d 9f36 3fbe
00000300: 0325 66be 75d6 20be 6a16 cf3d 1ef0 63be
00000310: 2e33 d5be 60cf bfbe 779f 90be aded 5ebe
00000320: 9309 623d 1d2f 2fbe ae6e 25be ee86 f5bd
00000330: e1bf 3cbe d3a3 88be 4859 203d 92c2 2abe
00000340: e899 be3c 3f0e 02bf cef7 d7bd 40e9 6d3d
00000350: 02e0 eebc 5d7c 893c 3cd7 48bc c652 acbc
00000360: 09b4 9ebe b498 913c 152a 953c f44c 8ebe
00000370: 2a6e 1cbe 5c63 97be e22b 1bbe dc7c abbd
00000380: fdb3 aabd 763c 1a3d 7e5f 0d3b 4eb7 f0bc
00000390: bbcb f6bc eef0 c3bd 3745 21be c677 dcbc
000003a0: b2b4 43be 5c05 113e 5e1f 143d 5ad7 ac3d
000003b0: 159a 083d 1b29 c13d 673e 923d 1259 6fbe
000003c0: 194d f9bd 6944 80bd de3a d1bd c302 a8bd
000003d0: be78 09be bcba 013d 5efe 023e 14ec bb3d
000003e0: 9956 3abd 69a1 2abe 98fc fdbd 080b f0bd
000003f0: 419e c7bb 6dab 24be 3c86 cd3d e270 313d
-0.12372012 -0.123171724 -0.050914086 -0.00805973 -0.029415399 -0.067653865 -0.043854658 0.07644643
-0.052382525 -0.095382065 -0.053675998 -0.08380867 -0.055322763 -0.07710105 -0.027555017 -0.101043634
0.009132764 -0.105549805 -0.03424015 -0.094409026 0.09932101 0.053463697 -0.04605169 -0.10405896
0.06546398 0.07124718 -0.21636514 -0.068380915 -0.016314244 -0.14259544 -0.06562587 -0.17968884
-0.19759639 -0.178768 -0.16743694 -0.26955637 -0.35574502 -0.75027645 -0.41913107 -0.61295325
0.026729627 -0.12137759 -0.5458851 0.07257367 -0.29622334 -0.05542653 -0.25128397 -0.07572277
-0.38003418 -0.39863923 -0.2222401 0.15557003 0.013967634 0.054895863 0.1467747 -0.011503792
-0.36297885 -0.026190303 -0.09047135 -0.4891937 -0.13736309 -0.31230193 0.007547826 -0.108755946
-0.07082766 -0.26145348 -0.04987845 -0.24938947 -0.8847883 -0.22217043 -0.7976876 -0.08420646
-2.7117436 -0.023169978 -0.07257014 -0.073971465 -0.4580055 -0.22895883 -0.22651236 0.7647707
-0.25120825 -0.24402021 -0.2794448 0.008319014 -0.012922603 1.2420396 -0.041331075 -0.26895878
-1.6893564 0.13957503 -0.2709084 -0.8148842 -0.05418618 -0.117792405 0.17609929 -0.23856182
0.03912839 -0.25412932 0.10748232 -0.28985468 -0.3893752 0.11736756 -0.1811063 -0.3407422
-0.2996196 -0.04770452 0.058059976 -0.074623965 0.119532414 -0.8742732 -0.011326266 0.6527781
-0.12036449 -0.048922814 -0.36019748 0.030809503 0.123862736 0.120611645 0.017720558 -0.30183157
-0.26966545 0.17664522 -0.28149292 -0.15748219 0.14754857 -0.15473554 -0.14355619 -0.3445637
-0.008038128 -0.092079595 0.020393599 0.007053498 -0.19512896 0.045679945 -0.21864931 -0.14396061
0.07480414 -0.015590351 -0.05116113 -0.023729391 -0.11458507 -0.11920592 0.08669015 -0.06363617
-0.07304748 -0.07881492 0.08524097 -0.035270803 0.17335647 -0.04031476 -0.14394188 -0.0923798
-0.23779568 0.08261227 -0.050658483 0.057818532 0.090078354 -0.15806189 -0.11994643 -0.20098843
0.05593591 -0.090956636 -0.101843365 -0.13062519 -0.13239314 -0.008772609 -0.10353583 -0.20837457
-0.024477655 -0.007634164 -0.29928342 0.040739376 -0.13555609 -0.23385485 -0.038217433 -0.103309214
-0.0323721 0.019929945 -0.18335037 -0.11523218 -0.06267516 -0.04087092 -0.031966697 0.02434257
0.07851119 0.08063044 -0.076836064 -0.05651257 -0.10483426 -0.14276218 0.10354429 -0.1867318
-0.22475056 -0.15706809 0.10111697 -0.22259566 -0.4164061 -0.37462902 -0.28246662 -0.21770354
0.055184912 -0.17107816 -0.16155502 -0.119886264 -0.18432571 -0.26687488 0.039147645 -0.16675785
0.023266748 -0.5080299 -0.10545312 0.058083773 -0.02915955 0.016782934 -0.012258347 -0.021035563
-0.3099673 0.01777301 0.018208543 -0.27793086 -0.15276399 -0.29567993 -0.15153459 -0.083734244
-0.08335111 0.037655316 0.002157181 -0.029384281 -0.030126443 -0.09567438 -0.1574906 -0.026912581
-0.19111899 0.141622 0.036162727 0.084395126 0.03335007 0.09431668 0.071408086 -0.23373821
-0.12172908 -0.06263048 -0.10216306 -0.08203652 -0.13424966 0.031672224 0.12792346 0.09175888
-0.045492742 -0.16663136 -0.12401694 -0.11720854 -0.0060918634 -0.16081019 0.10035369 0.043320544

bias f4 [64]
00000000: b4b5 ebbd b2a4 f4bd 4e07 ddbe fc24 86be
00000010: 48ae 713c 2c7b 37be 2d48 38be 1cc6 58be
00000020: 3099 c7bd b8e4 23bd 0c77 803e e295 1bbf
00000030: f660 6ebd 96e5 39be 1696 a0bc 3643 2abe
00000040: ce60 be3d c493 9abc 5cef 4cbe a341 58bd
00000050: db31 33be 3fee 9abd d06d 90be 8e88 65bd
00000060: 9fa9 e6bd a887 88be 386c d3bd 1de1 02bf
00000070: 2535 af3e dcc0 ae3e 3231 583e 414b 14bd
00000080: c3fd 2ebd 4759 03be 6a4e 8e3c 546b 28be
00000090: 1fb6 e1bc d59a 953d 893d 3ebf 86e0 a4bc
000000a0: e1f6 4cbe a782 48be aedc d33e b1fa 4dbe
000000b0: db71 6bbe 0202 0abe 61e3 6bbe 0fde 1cbe
000000c0: 06dc a5bd 462a 66be cae0 f4bd 5b7c 2dbc
000000d0: 2065 0e3d a99b 283e 9076 c0be 5ebf 48bd
000000e0: 2a38 ee3d 70da 843d e2e8 e6bd ae49 02be
000000f0: 53f6 8a3d 24cd e7be 1786 76be 6399 f53d
-0.115092665 -0.11945476 -0.43169636 -0.26200092 0.014751025 -0.1791808 -0.17996283 -0.21169323
-0.09746015 -0.040013045 0.25090826 -0.6077558 -0.058197938 -0.18153986 -0.019602817 -0.16627201
0.09295808 -0.018869288 -0.20013183 -0.05279697 -0.17499487 -0.07564973 -0.2820878 -0.05603843
-0.112628214 -0.26665998 -0.103233755 -0.51124746 0.34220234 0.34131515 0.21112517 -0.03620458
-0.042722475 -0.12827025 0.017371375 -0.16447192 -0.027552662 0.073049225 -0.74312645 -0.020126592
-0.20016052 -0.1958109 0.41379303 -0.20115162 -0.22992651 -0.13477328 -0.23035957 -0.15319084
-0.08098607 -0.22477064 -0.119569376 -0.010588731 0.03476441 0.1646563 -0.37590456 -0.049010627
0.11631806 0.06486976 -0.112748876 -0.12723419 0.06785264 -0.45273697 -0.24074589 0.11992147

weight f4 [64, 64]
00000000: c37e 0a3e f025 0bbc ab45 353d 40cd b63d
00000010: caf5 4dbd b045 12be 4526 15be d023 1d3b
00000020: c863 cc3d 9907 56bd 16fc 0c3d 69a9 013d
00000030: 6947 0c3e 73ff 5d3d ab2d 01be 3acf 113d
00000040: 4516 53bd c05c 6a3d 97d3 90bb 2786 63bc
00000050: d411 113c e9ab 3d3c e962 9cbd 24a6 5ebe
00000060: 24ee 3f3d 55ec 2fbe dd58 25be 4cb7 a1be
00000070: 39c6 bdbe 4c48 623d 4d86 95be e5ab 55bd
00000080: e9d2 11bd 1c7d fd3d 9a94 e3be dc14 febd
00000090: a084 0dbf 224f 59bd db90 21bd d575 313e
000000a0: 1b06 bebd 78e2 7d3d 5943 0fbb dfb7 81be
000000b0: 23e4 08bc 946c d6be 0987 65bd 6453 6bbd
000000c0: 1b0d 5bbe 0f4e 3f3d c8da aebe 990c 2d3d
000000d0: b353 67be d19e c5bd 2e93 adbd 0162 21be
000000e0: 8b31 c9be 7033 51be 9d7d 2fbd 9e78 a7bb
000000f0: 78f4 aebe 120b 2c3d b98c 0a3d 971a cf3d
00000100: 5035 86bc f3de 01be 2b9e 263c 0171 f63d
00000110: f381 bf3d d84c 37be f1fc 95bc 9a9e 9cbd
00000120: a01a 143a d055 8b3c a84b 34be 1050 febc
00000130: c6f2 6fbc b987 1abe d811 a23e ff9c fcba
00000140: 70c8 39be 5ed7 12bd 9153 20be f973 d0bd
00000150: af74 b3bd 22a3 f8bd c0a5 e4bc 5866 5dbe
00000160: 463e ebbd 00e7 01be a529 843c cc55 9b3c
00000170: 93db 3abd 3e2c 98be c54a 2f3c 12be f03a
00000180: e536 98be c03a ed3b 3a20 f0bd 7b07 aebc
00000190: 0aca 8abd 5840 46be 99f7 6d3c af92 afbd
000001a0: 825d 963d fda5 873d 1696 573c 6820 28be
000001b0: 9280 4abe 0a07 6dbe dd48 513d cee3 07be
000001c0: 71fb bfbd 56f5 d7bd 4efe 56bc af02 fabd
000001d0: 3c29 13be ebb5 dbbd 455b 01be 25bf 72bd
000001e0: 870c 10be 80b5 23be 0bce f83c ab2d 37be
000001f0: cf15 3e3c 2530 3dbd 0977 3ebc 816f dabe
00000200: d036 e53d 8084 a6bb 7c90 5a3d 29dc 7ebe
00000210: 6f76 c53d e6c7 f6bd 27a4 ecbd 5121 d83d
00000220: 535a aabd 7f61 abbe 1bed aebd c7c6 083d
00000230: 833f 8c3d ea1d 3a3e 0694 fabc 836b aabd
00000240: 5e23 ecbd 5de9 a1bd 2eba b53d d470 13bd
00000250: bdfe 05be 3d54 86bc a13d e6bc 4cb2 febd
00000260: 24bc fbbc ee79 7c3d 3061 1dbd 6ebd 0cbd
00000270: 830a f6bd 95f7 4a3e 9753 3dbe fb88 823d
00000280: b26f 4c3e 10b1 0c3c 0458 01be d8c8 4fbd
00000290: 336b bebc 20ad c0be bc44 f4bd a91c 77be
000002a0: a62f 28bd 58e0 c8bd bc3b fc3c 3cf9 40be
000002b0: e978 07bd 4c8a c3bc 9734 cd3d fdcd 0bbe
000002c0: 05f9 12be 9e5b bbbe ff41 40be ffad e23d
000002d0: f6d5 f2bd a5d3 d03e eb71 76ba 8599 9cbd
000002e0: 24eb 0dbe 1444 22be 8693 41be da5c 6c3d
000002f0: b81e 5cbe d257 603d 1cc6 c63c 21fc 5ebe
00000300: cd62 1c3d 340b cebd 4cf4 4c3d 74e9 963c
00000310: 61bb b03c 9112 27be 2878 dcbc 0dcd 0f3d
00000320: 7b69 a1bd 334f 60bd eab4 97bd fa90 28bd
00000330: 2d3c 013d 73de b8bb f360 bebd 72fd 92bd
00000340: 88c0 cfbd ec96 ba3d 5764 91bd 075d 003d
00000350: 7697 b0bd 028e 3a3d 2214 dabd a2f6 e8bd
00000360: 0ace 13be be9b 04be 5834 62bd c5fb cabd
00000370: 026f 1abe 640d 20bc c7cb bbbd cf62 0dbc
00000380: 948c 72bd 582a 9bbc f8d5 623d 407d b1bd
00000390: 3652 f9bd 5b78 793c 5b31 28bb 2c02 4ebd
000003a0: 9897 f7bc 04ee a1bd b809 37bd 27d6 10be
000003b0: 2878 adba 54b3 303d 952e 053d 8152 aabd
000003c0: d360 e8bd dbd0 12be eeb8 6ebd 8139 9bbd
000003d0: 7676 35be 381c 9fbd 44b1 6f3c 6636 28bb
000003e0: c92a 0abe e880 31be 6abd 27be 2a68 b8bd
000003f0: 8228 b8bd 4e83 c43d 44b7 9e3c 7087 51bc
0.13524918 -0.008492932 0.044255894 0.08925867 -0.05028323 -0.14284396 -0.1456538 0.0023977645
0.09979969 -0.05225334 0.034420095 0.031655703 0.13699116 0.054198693 -0.12615077 0.035598017
-0.05153491 0.05721736 -0.0044197547 -0.013886965 0.008854348 0.011576631 -0.07636053 -0.21743065
0.046857968 -0.17179997 -0.1614718 -0.31585157 -0.37065294 0.05524473 -0.29204026 -0.052165885
-0.03560153 0.12377378 -0.44449311 -0.12406322 -0.55280495 -0.053053983 -0.039444786 0.17330106
-0.09278508 0.061983556 -0.002186021 -0.25335595 -0.008355173 -0.41879714 -0.056036983 -0.057452574
-0.21391718 0.0467053 -0.34151292 0.042248342 -0.22590522 -0.096494325 -0.08475338 -0.15760042
-0.3929561 -0.20429778 -0.042844404 -0.0051108142 -0.3417089 0.042002745 0.03382561 0.101124935
-0.016382843 -0.12682705 0.010169546 0.120332725 0.09350958 -0.17900407 -0.018309088 -0.07647438
0.00056497194 0.017008692 -0.17606986 -0.031044036 -0.014645284 -0.15090837 0.3165424 -0.0019272863
-0.18142867 -0.03584992 -0.15656878 -0.1017837 -0.0876249 -0.1214049 -0.027911067 -0.21621072
-0.11486487 -0.12685776 0.016133139 0.01896181 -0.04561956 -0.29721254 0.010698979 0.0018367192
-0.2972938 0.0072396696 -0.11724897 -0.021243801 -0.06776817 -0.19360483 0.014524364 -0.085728996
0.07342054 0.066234566 0.013158342 -0.16418612 -0.19775608 -0.23147216 0.05109488 -0.13270494
-0.093741305 -0.10544841 -0.013122154 -0.12207543 -0.14371198 -0.107280575 -0.12632473 -0.05926432
-0.14067279 -0.15987206 0.030371686 -0.17888515 0.011601879 -0.046188492 -0.01162506 -0.42663196
0.11192095 -0.005081713 0.053360447 -0.24888672 0.0964173 -0.12049846 -0.11554747 0.105532296
-0.08318009 -0.3347282 -0.08541318 0.033392694 0.068480514 0.18175474 -0.030588161 -0.083212875
-0.11530183 -0.07905839 0.088734016 -0.035996273 -0.13085456 -0.01639759 -0.028105559 -0.12436351
-0.03072936 0.06163972 -0.038422763 -0.03436034 -0.12013724 0.19821008 -0.18488918 0.06373783
0.19964483 0.008587137 -0.12631232 -0.05072865 -0.023244476 -0.37632084 -0.119271725 -0.24132027
-0.041061066 -0.09808415 0.030790202 -0.18845075 -0.033074293 -0.023869656 0.10019796 -0.13652797
-0.14352806 -0.36593336 -0.18775176 0.11068343 -0.11857216 0.40786472 -0.00094011304 -0.07646469
-0.1385923 -0.15846282 -0.18903932 0.057705738 -0.21496093 0.054771252 0.024264388 -0.21775867
0.03818016 -0.100607306 0.050037667 0.018421866 0.021573724 -0.16315676 -0.026912764 0.03510766
-0.07881447 -0.05476303 -0.074075535 -0.041153885 0.03155153 -0.0056417524 -0.09295835 -0.07177247
-0.10144144 0.09110817 -0.070992164 0.031338718 -0.08622639 0.045545585 -0.10648371 -0.113751665
-0.14434066 -0.12950036 -0.0552257 -0.099113025 -0.15081409 -0.009768818 -0.09169727 -0.008629515
-0.059216097 -0.01894109 0.055379838 -0.08666468 -0.121738836 0.015226449 -0.0025664184 -0.05029504
-0.030223653 -0.07906726 -0.044687003 -0.14144193 -0.0013234662 0.04313977 0.032515127 -0.083165176
-0.11346593 -0.14337485 -0.05828183 -0.075793274 -0.1772097 -0.07769054 0.014629666 -0.002566719
-0.13492884 -0.1733433 -0.1638085 -0.09004243 -0.08992101 0.09595357 0.019374497 -0.0127886385

bias f4 [64]
00000000: bd77 89be 4e5f a4bc 33f5 abbc 5324 10be
00000010: 6151 85be eab7 ddbe 94d6 95be 1ad5 db3c
00000020: c348 72bd de56 04bf 11f8 86be ae84 a33e
00000030: 72d0 0abe f63c 1fbd 0a33 24bc 6131 b8bd
00000040: e5e7 79be efd8 4ebe 1a21 2bbe 476e 21bd
00000050: 2f46 33be 01d0 4dbd 277e 80be f291 08be
00000060: 4e5f 13be 34fd 82be b515 04be 6dd8 68be
00000070: b5de 3dbe 1eaf 0d3e 325b 98be 33f7 febd
00000080: 1b39 7bbe ace1 273e d962 a5bd a9cf 2d3c
00000090: 7abe f3bd f740 573d 528a 93be 8471 d2bc
000000a0: 8a07 1b3d 38c6 81be a945 c7be f79a cdbd
000000b0: bdea 93bd da4a bdbe ece2 0dbe f25b b5be
000000c0: 06c5 2ebc 209e 8dbd 4014 0abe 8fcc 6cbe
000000d0: 3abb 3fbe 237a c83d a036 40be 2599 1dbe
000000e0: e0a3 9bbe 9638 d2bd 8880 cc3c 01f2 d2bd
000000f0: aa06 12be 799e 0dbe 0558 3cbe 65f9 923d
-0.26849166 -0.020064976 -0.020990944 -0.14076357 -0.2603865 -0.43304378 -0.29265273 0.026835013
-0.059151422 -0.5169505 -0.26361135 0.31937164 -0.13556078 -0.038876496 -0.010021934 -0.08993793
-0.24404867 -0.20199941 -0.16711846 -0.03941181 -0.17507242 -0.050247196 -0.25096247 -0.13336924
-0.14391825 -0.25583804 -0.12898906 -0.2273881 -0.18541987 0.13836333 -0.29757077 -0.12449493
-0.24533503 0.1639468 -0.08075494 0.010608592 -0.11901565 0.05255219 -0.28816468 -0.025688894
0.037848987 -0.2534654 -0.38920334 -0.10039323 -0.07222507 -0.3697117 -0.13856095 -0.3542171
-0.010667091 -0.069149256 -0.13484287 -0.23124908 -0.18723765 0.09788921 -0.18770838 -0.15390451
-0.30398464 -0.10264699 0.024963632 -0.10300065 -0.14260355 -0.13829984 -0.18392952 0.071764745

weight f4 [64, 64]
00000000: 6ce4 a1be 65b7 cb3d 50f4 0ebe 000c 83bd
00000010: b219 e9bf 1d13 debc 27af 14be 50e7 8abe
00000020: 1e91 e13d 1b6e 3c3d 09c3 2cbd d609 bfbd
00000030: 70eb 2fbe 2e98 49be 5c2d f3bd 52cc c8bd
00000040: 97bb 073e c177 65bd f891 9ebd ebbd 44bd
00000050: df90 ecbd 88ae 91bd 00ef 76be b6c4 033d
00000060: be24 5abb f7ee 01bd cf3a 09bc ef6e 23bc
00000070: c8ba 553d d05c 72be 4e65 eabd 4913 23bc
00000080: 4f72 e9bb cd7d c4bd 2b2a 72bd d851 bbbd
00000090: 3021 2d3c e7ed 80be 5bd8 073e 38fd 0cbd
000000a0: 5b71 91be eefe 15be 9e80 2fbd 8c87 d7bd
000000b0: a1cd dd3d a744 43bc 684b 3bbb e8fb 28be
000000c0: e82c cebd 0f6b 5cbe 752d 023e 4598 82be
000000d0: 500c 85be bfea ecbc f738 de3d 5570 9cbf
000000e0: a20a 463c fae1 79be faf9 453d 1add d3bb
000000f0: 3b9e bdbd ac12 57be f23f ebbd 097e 2abe
00000100: 7251 8dbe 623e 4d3d 62bc edbd adbc cf3c
00000110: a4ac 10bf 688d 093c 8f37 1f3d 58f6 8bbd
00000120: e79d a13e a72d 51be 0eba f93d 8d87 f4bc
00000130: cccf d33d 87e9 e53c 7ebf a0bd 07b7 f1bd
00000140: 5552 7b3e 5b47 373c a8c0 8e3f 572c b0bd
00000150: cdb2 63be 4f82 87bd 0b74 0440 2c94 c33c
00000160: d4b7 c33d dc16 93bd 33ed 66bd 068c 2dbe
00000170: 61b0 563d 8566 65bf 83ed cabe 23d7 0cbe
00000180: 3a76 aebd 0fc6 0e3c 8b01 59bd bbe2 26be
00000190: c539 843d 54db cfbd a6b7 313e f176 eabd
000001a0: 1bd0 b0be 3d60 03be b46c 23be b858 17bd
000001b0: 23da 5bbd 5640 c9bb 51c5 c93c e401 dabd
000001c0: 20d2 5c3d c07a 293d 91b1 dd3c a796 62be
000001d0: ef66 56be 0609 363e 23ba bb3d e728 edbf
000001e0: 1747 d1bb 3d73 40be 1f07 a63d bcff 0abd
000001f0: 6d4f d2bd 7533 09be 9e57 a1bd 7d39 2a3e
00000200: 6077 5b3c 191a 393d 0b6f 25bc 66ba 173e
00000210: 2487 16c0 6de6 d53c 8a63 be3a 730d 91bd
00000220: 995d 0a3d 0631 e6bd 63af 1b3d 04f5 353d
00000230: b545 fbbc 0f17 dabd d163 d1bd 1011 0cbd
00000240: 84f8 95bd 6808 40bd d96f 2bbe e2c7 3b3d
00000250: 789f 9cbd 36b6 6abc 96a1 f7bd 5db6 703c
00000260: 5846 323e 4a12 11be ebfb 223e a383 92be
00000270: ad60 27bd a6e5 2dbd 4396 c63d 1419 fe3c
00000280: 5c96 d03c 86be 2fbd 48e2 a33b bee8 9fbd
00000290: 8e58 3a3d 615a 6f3c 77ba 193e 2722 b63b
000002a0: 5793 37bd 0c40 dcbd 053e 0dbe 0675 86bd
000002b0: 4a78 a43d 9a94 ca3d a1ae 8abd 0d63 e43c
000002c0: 56e9 d2bd 3add aabb 05b7 393b 26ed 12be
000002d0: da5b e8be c8a4 463d b2d4 1a3d db98 f1bf
000002e0: 02be 083e 83a2 d7be bc34 143c bb74 073e
000002f0: 9696 52be 149b 29be a788 4abe 64f6 39be
00000300: 59f2 19be cf79 a3bd c9a9 cb3d 7fc2 f8bb
00000310: 506f 223f 0473 2f3d 70b1 c83d c721 33be
00000320: 27a2 fe3c b44d 79bd 64f9 3ebe a319 153f
00000330: ea5e 2fbe 1ada 97be a3d0 403e 8f59 2b3d
00000340: 928e 6cbd 442c b83d 68c7 383c 1611 19be
00000350: 26be d3bd da2e 373e 8068 93be 136f 0a3d
00000360: fa9b 59bd 046b f63d 2331 22be d02f 1dbf
00000370: df9e bbbe d161 243d 84d1 3bbe 7d0f 9e3c
00000380: eb8a 6a3c 84f8 e0be f2a9 b23d 272a 373e
00000390: 92b0 dcbd abef 073f cf41 38be 2b3b 13bd
000003a0: 7d4b 26bf 9ffb 953d 24db 3cbd ac0c e8bd
000003b0: cb4d cebb e588 c03d 5fe0 bfbd aa54 8a3e
000003c0: d6fa 18bf 76d8 0dbe 2136 f53b 55f3 6bbe
000003d0: 7612 03bf b252 69bf a11b ea3c 8301 20bf
000003e0: 2563 01bf 9b72 8b3e d21f a8be 09d2 0cbd
000003f0: 3a1e 2bbe 0d6c 10bf 649a 913d 247c afbe
-0.31619585 0.09947089 -0.13960385 -0.06398773 -1.8210967 -0.027108723 -0.1451994 -0.27129602
0.11014007 0.046003442 -0.042178188 -0.09328048 -0.17179656 -0.19686958 -0.11873886 -0.09804596
0.13255154 -0.05602241 -0.07742685 -0.048032682 -0.115510695 -0.07113367 -0.24114609 0.03217002
-0.003328606 -0.031722035 -0.0083758375 -0.009975179 0.05218008 -0.23668218 -0.114451036 -0.009953328
-0.0071242223 -0.09594307 -0.059122246 -0.0914647 0.010566995 -0.25181505 0.13266127 -0.034421176
-0.28406796 -0.14648029 -0.04284727 -0.105239004 0.10830236 -0.011918223 -0.0028578881 -0.16502345
-0.10067159 -0.21525215 0.12712653 -0.25506797 -0.25985956 -0.02892053 0.10850709 -1.2221781
0.012087496 -0.2440261 0.0483341 -0.0064655663 -0.09258696 -0.21003217 -0.11486806 -0.16649641
-0.276012 0.05010832 -0.11608197 0.025358522 -0.5651343 0.00839553 0.038871344 -0.06834096
0.31565782 -0.20427571 0.1219369 -0.029849792 0.103423685 0.028065456 -0.07849024 -0.11802488
0.24543126 0.011186446 1.1152544 -0.08602207 -0.22236176 -0.06616651 2.0695827 0.023874365
0.09556547 -0.071820945 -0.056378555 -0.16947946 0.0524143 -0.8960956 -0.39634332 -0.13753943
-0.08518644 0.008714213 -0.052979987 -0.16297428 0.06456331 -0.101492554 0.17355213 -0.114484675
-0.34533772 -0.1282968 -0.15959436 -0.036949843 -0.05367483 -0.0061417026 0.02463022 -0.10644892
0.05391133 0.04137683 0.02706221 -0.22127782 -0.20937704 0.1777688 0.09166362 -1.8528107
-0.0063866484 -0.1879396 0.08106827 -0.033935294 -0.102690555 -0.13398536 -0.0787804 0.16623493
0.01339516 0.045190904 -0.0100972755 0.14817199 -2.3519983 0.026110852 0.0014525515 -0.07082643
0.033780668 -0.11239819 0.03800906 0.04442312 -0.030672887 -0.10648929 -0.102241166 -0.03419596
-0.07322791 -0.046883017 -0.16741885 0.04584492 -0.07647604 -0.014325669 -0.12091367 0.014691916
0.17409647 -0.14167133 0.15916412 -0.28616056 -0.04086368 -0.042455338 0.09696629 0.031017818
0.025462322 -0.042906307 0.00500134 -0.07808064 0.04549461 0.01460895 0.15012537 0.0055582705
-0.04481825 -0.107544035 -0.1379319 -0.06565289 0.08030756 0.09891625 -0.06771589 0.027879262
-0.102984115 -0.0052143605 0.0028337848 -0.14348277 -0.45382577 0.04849699 0.0378005 -1.8874773
0.13353732 -0.42116174 0.009045776 0.13228123 -0.20565256 -0.16563064 -0.19778691 -0.18160397
-0.15033855 -0.079822175 0.09944493 -0.007591545 0.634511 0.042834297 0.097994685 -0.17493354
0.03108318 -0.06086512 -0.18649822 0.58242244 -0.1712605 -0.29658586 0.18829589 0.041833457
-0.057753153 0.08992818 0.011278011 -0.14947924 -0.10339002 0.17888966 -0.28790665 0.033797335
-0.053127266 0.1203213 -0.15839057 -0.6140108 -0.36644647 0.040132347 -0.18341643 0.019294495
0.014315347 -0.43939602 0.08723821 0.17887174 -0.107758656 0.5310008 -0.17993854 -0.0359451
-0.64958936 0.073233835 -0.046107426 -0.11330542 -0.0062958947 0.094011106 -0.09368967 0.2701772
-0.59757745 -0.13852105 0.0074832593 -0.23042043 -0.51200044 -0.9114181 0.028577628 -0.62502307
-0.5054191 0.27235875 -0.32836777 -0.034379993 -0.1671075 -0.5641487 0.07109526 -0.342744

bias f4 [64]
00000000: 05a6 00be 2777 503e babf dabd cc7e 113e
00000010: e250 babe 1ffa 253e ce4c a53e 8792 30bf
00000020: 8efe 73be 9bbf 9abc e33c d9bc bce6 51bd
00000030: 794c b6bd 8b44 b9be 1c15 41bf bc7e 1c3d
00000040: 4499 16be e98d 47be 6256 8cbd 1788 09be
00000050: b4df 49be bffa a4be 2865 7e3e 754b f9bd
00000060: ab37 89be 188b 53be e081 6c3e 40ce 5abe
00000070: 944d 4cbe 7473 b5be ac1a 20bf 579d 80bd
00000080: a0e9 3e3e 0635 ebbd 04e8 c53d 976f a9bb
00000090: 81f3 3e3e 858c 173e 4064 2e3e 775c 64bd
000000a0: 7b69 b2bc a644 2bbe 5d3b 90be dc1d bbbe
000000b0: 5880 73bf f54d 05bd c970 24be 1963 85be
000000c0: 799c 5d3e 85f9 ebbc d792 97bc 25cc 843e
000000d0: 73bb 5b3e 7c61 133e 7cd2 37bb 8cf2 8bbe
000000e0: 7f3a c2bd c784 013f 71a4 dbbd 17d6 703e
000000f0: 6a12 5fbe 9314 36bd ad66 03be 54b5 debe
-0.12563331 0.20357953 -0.106811 0.14208525 -0.36389834 0.16208695 0.3228516 -0.68973583
-0.23827574 -0.018890193 -0.02651829 -0.051245436 -0.08901305 -0.36185107 -0.75422835 0.0382068
-0.14706904 -0.19487728 -0.06852414 -0.1343082 -0.19714242 -0.32222554 0.24843276 -0.121725954
-0.26800284 -0.20658529 0.23096418 -0.2136774 -0.19951469 -0.35439646 -0.625407 -0.0628001
0.18643808 -0.11484723 0.09663394 -0.0051707732 0.18647577 0.14799698 0.1703043 -0.055752244
-0.021778813 -0.16725406 -0.2817029 -0.36546218 -0.9511771 -0.03254505 -0.16058649 -0.26052168
0.21641721 -0.028805504 -0.018502636 0.25937 0.21458225 0.14392656 -0.0028049042 -0.27333486
-0.094838135 0.5059323 -0.10724724 0.23519169 -0.21784368 -0.044453215 -0.12832136 -0.43497717

weight f4 [64, 64]
00000000: 3cc7 a03e ce96 58be 82b2 8d3e 70e3 53bf
00000010: 9dad 303d 93f2 d13d 26dd c03c 15a3 e1be
00000020: 83a1 80bf 1ba5 2f3e dac0 743e 19b3 14c0
00000030: 3ac2 54bd 585d 27bd cb68 0ec0 a77e 6cbf
00000040: 7da6 81be c285 133e 0941 c03d 7baa cb3d
00000050: c8ab 973d 7ede 87bb 4aca 353e 5792 81bd
00000060: b28c e2bd 8248 763d f6db 80bf 7d13 ac3c
00000070: b00c 3dbd ca7b c4bd ccae 22be a90b 883d
00000080: f797 c43e 8b74 c33d ba7d 023d 155b 253c
00000090: 27d9 50bf b54d 183e ca9e ce3d 531f d83d
000000a0: d7c4 5e3d e4b7 eb3d b024 b5bd 3b33 a4bd
000000b0: baca dfbe 3ed6 203e 4ca5 4fbe 8f87 8e3d
000000c0: 314a 7e3e b1a2 403e 867b efbb 6309 d6bf
000000d0: f071 183e e843 1fbe 7bdc 0abe c488 0abd
000000e0: 806d e13d 7fde 3fc0 6826 65bc b87a 28be
000000f0: 4806 acbe 8b38 2e3e 5c5b f6bd 127f 1fbc
00000100: 1a3d aabd 6b24 afbe 48b8 093d c54b 87be
00000110: 4344 71be 2fe8 93be 2f9c 6abe 305d 8abe
00000120: 35cb 48be 50f0 3e3d caa8 9bbd daed aabe
00000130: ba41 df3d baf6 c1bd a5fe bfbe a314 4ebe
00000140: 245d 5e3d aa0b 1dbe 4003 0cbd e9ab 25bd
00000150: 449e 6f3e 1338 383e bc26 99be 20ba 953b
00000160: 42f8 f2bd 055c 363e dcdc cabe 3107 bebd
00000170: 52f7 ee3d d434 3fbd 491e af3e c110 c7be
00000180: 5478 75be 4845 073d 9f54 a2be e0fd 4ebd
00000190: 45b1 bfbe 51e5 56be 6fae 5ebe 26de c7bd
000001a0: 95fc 8abe 1d39 ca3e e4e0 953d 8a1b cc3d
000001b0: d0b7 133c 943f f3bd 804d 09bd 412f 3ebd
000001c0: 5bf0 aabe 5b27 b8be b0c9 54bd 701d 72be
000001d0: 6309 ddbe 680b e2be 529b 69be 23ad 37bd
000001e0: aaec c9bd 672e 9f3d be80 d53d 613a 66be
000001f0: 0c90 04be f4fc abbd 59a9 8ebe 0af8 cdbd
00000200: 3158 32be d2dd c7bd 62ea 5dbe 0d13 8dbd
00000210: c0ad cbbd 3e6e b1be fbf3 c6be 62f6 433d
00000220: 3671 1dbe 8b95 fa3c 48d7 7dbd 39df 84bd
00000230: 44a7 94bb fd0e 6cbe 6cc7 0b3d 7af6 a2be
00000240: 1029 b3be f74c dfbd e032 12be b409 82bd
00000250: de75 bdbe 8b37 58be ab63 4cbe 780d 2f3d
00000260: 2c30 913d 1bd2 4bbe 7742 81be c55b 6fbe
00000270: 8ee2 a9bc 5081 653e b9a1 07bf 96bf 14be
00000280: 9f9d 733d c3fb 17bd aa79 f93c daac b43d
00000290: 50bb f2be 0900 9dbe 3e2a bdbe 5999 8d3d
000002a0: 2486 f4be d57c babe 6f35 71bd b094 0b3d
000002b0: b460 ad3d 7785 e73c 31b8 87bd ed97 4fbe
000002c0: 0c42 5ebe 9dac 14bf eaa5 9bbd 5f1f 03be
000002d0: efa2 2ebd 6efa b7bd af22 7ebe 1fb2 a13d
000002e0: af30 80bc a62e d6be efcb 5abd 0248 82be
000002f0: bab3 31bd fdf1 46be c653 ff3d ef47 2b3e
00000300: 7cc3 b3be 88d6 49be 05e9 76be f015 1139
00000310: fae6 1cbe f316 94be 7a6f b8be 630e 9fbc
00000320: f7f9 31be d895 983d 326b ccbd be74 afbc
00000330: 1e72 ff3d 489b 6d3d c868 8d3c d9dc afbd
00000340: dea7 24bd 93f4 08be 3903 80bd 1d5e 11be
00000350: 6f0e 50be 0dfe 74be f788 90be 8087 f23d
00000360: 5fdc 52be 2255 81be ca53 a7be b0cf 85bd
00000370: c455 95bd a0e8 ffbd d29e 8cbe 43e4 03bd
00000380: 1542 0f3b 5cba bcbd 8dbd 8cbe 3418 44bd
00000390: b6cf 0cbd 095f afbe df13 52be fe32 933d
000003a0: ac0c 67be cf75 94be e750 20bd 248d c3bd
000003b0: f085 b33d f680 bbbd 68e1 59bc 2edb 60be
000003c0: 8146 9dbe 2c90 9cbe f663 83bd edde 433d
000003d0: bc6b 97be 5b73 debe 3dd9 91be 1a4d 19be
000003e0: c262 b6bd abf6 98be 9a32 d23d a355 5bbe
000003f0: 16b1 19be 072a 89bd 186d 1a3d 84a5 f3bd
0.31402004 -0.21151277 0.27675253 -0.8276892 0.04313432 0.102513455 0.023542952 -0.44069734
-1.004929 0.17152826 0.23901692 -2.3234313 -0.05194304 -0.040860504 -2.225146 -0.92380756
-0.25322333 0.14406493 0.093874045 0.09944626 0.074058115 -0.004146396 0.17752948 -0.0632674
-0.11061992 0.060127743 -1.0067127 0.021005386 -0.046154678 -0.095939234 -0.15886992 0.06642849
0.3839719 0.09543713 0.031858183 0.010092516 -0.8158135 0.14873393 0.1008888 0.105528496
0.05438694 0.11509684 -0.08844888 -0.08017584 -0.43709356 0.15706727 -0.202779 0.069594495
0.2483299 0.18812062 -0.0073084263 -1.6721615 0.14887214 -0.15553248 -0.13560669 -0.033821836
0.110072136 -2.997955 -0.013986208 -0.16453063 -0.33598542 0.17013757 -0.12029144 -0.009734886
-0.083124354 -0.34207472 0.03362301 -0.26424995 -0.23561196 -0.2888808 -0.22911142 -0.2702422
-0.19608767 0.0466159 -0.07600553 -0.3338459 0.10901208 -0.094708875 -0.37498966 -0.2012506
0.054288045 -0.1533648 -0.034182787 -0.04044715 0.23400217 0.1799014 -0.29912364 0.004569307
-0.11863758 0.1780854 -0.39621627 -0.092787154 0.11668266 -0.04668124 0.34202793 -0.3887997
-0.23971683 0.033025056 -0.31705186 -0.050535083 -0.37439933 -0.20985915 -0.21746229 -0.09759168
-0.2714583 0.394967 0.07318285 0.0996619 0.009015992 -0.11877361 -0.033521175 -0.046431784
-0.33386502 -0.35967526 -0.051950157 -0.23644042 -0.43171224 -0.44149327 -0.22813156 -0.04484285
-0.09859593 0.077725224 0.10424946 -0.22483207 -0.12945575 -0.08397856 -0.27863577 -0.10057075
-0.17416455 -0.09759106 -0.21671441 -0.06888399 -0.099452496 -0.3465442 -0.38858017 0.04784239
-0.15375218 0.030588886 -0.061972886 -0.06487889 -0.004536541 -0.23052593 0.03412573 -0.31828672
-0.34992266 -0.10903352 -0.1427722 -0.06349507 -0.37003988 -0.21114938 -0.19959895 0.042737454
0.07089266 -0.19904368 -0.2524602 -0.23374851 -0.020737913 0.2241261 -0.52981144 -0.14526209
0.05947649 -0.037105333 0.030453522 0.08822031 -0.47408533 -0.3066409 -0.3694629 0.06914014
-0.4775859 -0.36423364 -0.05888885 0.034077346 0.0846571 0.028261883 -0.066269286 -0.20272799
-0.21704882 -0.58075887 -0.07600005 -0.12804936 -0.042635854 -0.089833125 -0.24817918 0.07895302
-0.015648214 -0.41832465 -0.053417142 -0.25445563 -0.04338429 -0.19428249 0.124671504 0.16726659
-0.3511008 -0.19710743 -0.24112327 0.0001383645 -0.15322486 -0.2892376 -0.3602255 -0.01941604
-0.1738051 0.074504554 -0.099813834 -0.021417972 0.12472938 0.058009416 0.017261878 -0.08587045
-0.040199153 -0.13374548 -0.06250615 -0.14196058 -0.20318006 -0.23925038 -0.28229496 0.11842251
-0.20591877 -0.25260264 -0.32681113 -0.06533754 -0.07291749 -0.124955416 -0.2746492 -0.03220011
0.0021859456 -0.09215233 -0.27488366 -0.047874644 -0.034377776 -0.34252194 -0.20515393 0.0718746
-0.22563428 -0.2899613 -0.039139654 -0.09548405 0.08765781 -0.09155457 -0.01329837 -0.2195861
-0.30717853 -0.30578744 -0.064155504 0.04782002 -0.29574382 -0.43447384 -0.28486052 -0.14970818
-0.08905555 -0.29875693 0.10263558 -0.21419387 -0.15008959 -0.06697469 0.037701696 -0.11896804

bias f4 [64]
00000000: 0758 103f 2ab6 03bf 7251 46be c7fe bcbe
00000010: 3120 b03e e96e 70be 1d01 5bbe 306d 913e
00000020: 6909 1bbc 9d82 4ebe fb41 08bd f721 e3be
00000030: e731 95be af8c df3e 26e4 713e c4d4 7bbd
00000040: 5fc6 4cbe 80e7 8c3c fbc3 0bbe c89a 07bf
00000050: adfb 9abe ffbb 68bd e25c 10be b124 1fbe
00000060: efc4 aebe 2378 38bd 3190 483e e056 0abe
00000070: 4838 4ebe a76e 523d 21b5 66be ea9a 103f
00000080: d570 60be fbd0 6cbe 9639 58be 9b7d aabd
00000090: 8068 e7be ec42 81be f493 d2be e406 8e3d
000000a0: 582a 90be 976b 4c3e c69e c0bd c53f 0ebe
000000b0: ad4a 74be 0ee6 a439 f819 86be 0942 06be
000000c0: 38bd 623d f1e1 8dbe 02c8 bfbc e75a 1dbe
000000d0: 8ce5 9dbd ef78 003d 94bb 96bd 1d5e 03be
000000e0: 01d7 78be f455 63bf ef0c 97be 6b83 e2bc
000000f0: 5e20 97bd 32ba c03e e53b d3bd 0ab8 84be
0.5638432 -0.51449835 -0.19367006 -0.3691313 0.3439956 -0.23479809 -0.21387143 0.28403616
-0.009462693 -0.20167013 -0.03326605 -0.4436185 -0.29139635 0.4366202 0.23622188 -0.061482206
-0.19997548 0.017200232 -0.1364898 -0.5297055 -0.30270138 -0.056819912 -0.14097932 -0.1554134
-0.34134623 -0.045036446 0.19586255 -0.13509703 -0.20138657 0.051375058 -0.22530033 0.5648638
-0.21918042 -0.23126595 -0.21115717 -0.083247386 -0.45196915 -0.2524637 -0.41128504 0.06934908
-0.28157306 0.19962917 -0.09405284 -0.13891514 -0.23856612 0.00031451922 -0.26191688 -0.13111128
0.055356234 -0.27711442 -0.0234108 -0.15366708 -0.07709798 0.03136533 -0.073599964 -0.1282887
-0.24300767 -0.8880303 -0.29502055 -0.027650556 -0.073792204 0.37642056 -0.10314158 -0.2592166

weight f4 [32, 64]
00000000: 1ae2 5ebe 6c87 08be 2a86 9abd 37c3 a83d
00000010: 0617 13be bc48 86be 964a ba3d b7d2 19bd
00000020: 755d 90bc 687d 923c 6a52 203e 5c33 35be
00000030: 11fa 15bd ce2f 1e3f a1d4 febe d5fe 2f3e
00000040: 2aa4 bfbd 42b9 3abe dc1f 7f3c ad95 ebbd
00000050: 8995 a3be 6a96 88bc 0b74 5a3c f251 36be
00000060: dceb 9bbe dc64 00bb b2aa 3abe c8c3 763d
00000070: eec4 03be 1047 b9be 0dab 3dbe ecda 49bf
00000080: aafe 8ebd 55b4 e2bd 6509 e2bd 167c aa3d
00000090: cf5a 72be 3d3a 1cbe 3853 033c 733a 80bd
000000a0: 9019 86bd efa2 5cbe aaf1 c0be 55f0 05bc
000000b0: 07bc 49bd 454e 79be e29e 09bf 9949 a7be
000000c0: be76 5abe 1d71 9f3d 3181 013e 4b4b 6ebe
000000d0: 1b7a 11bc 9cbd a2be c3bc 87be 58cf aebc
000000e0: 5576 0fbe d075 11be b131 913c 648a b2bc
000000f0: a590 b83d 47c4 1b3f a086 06bd 2b3a 2fbe
00000100: 26eb d5bd 7d3e 55be f096 81be 6504 80bd
00000110: b2dd 52be cd7b 77be a426 0dbb 28a9 1bbe
00000120: 0964 63bd 564e acbd 2c93 803d 6998 cf3e
00000130: 8574 ce3d 618c 4e3e e00a 643f a447 753d
00000140: 1614 423d 4262 0bbe 6c9e d3bb 863a 0a3e
00000150: fb28 7ebe 7646 d43c 5c4b 17bd 38bc 5fbd
00000160: f2c6 acbe 9d96 7c3c 995f ccbe 0113 313d
00000170: 43e4 ffbd 82b4 d7bd 626a d8bd 3dcc 91be
00000180: 9472 60bd f699 debd 2750 abbc cf1f bcbc
00000190: 1638 97bd 19f6 1ebe 42ce 35be b77d bcbd
000001a0: f74c 033d a98c 1ebe 9564 92be 52bb a63c
000001b0: 153f 893d 6598 5abd 8dc1 fabe d5c1 4cbe
000001c0: b2f1 c9bd b41f 9abd 3b7a b7bc 6e8d 5fbe
000001d0: 3991 bf3d b5c6 3bbe ccf0 7fbe 0b99 a53b
000001e0: 4637 80be e935 d53e 348f fa3c 7da1 d03d
000001f0: 75c8 47bd bde4 01bf ccd1 383e b848 01be
00000200: dcaa cfbe 18c1 bbbc 79fd efbe 88e8 a4be
00000210: b2e7 f9be 898c 5abf 2003 803b b169 723d
00000220: 6d52 2b3d c34b 7b3f 7e25 8f3d 772e e6be
00000230: 6d25 5cbe 4a9e 1bbf f6ce fbbe e60d 66be
00000240: e8b4 1c3d 306e 4cbe 1d6a 1a3f 6e6b c53d
00000250: cded e2bd 04d7 57bc 21b9 763d e0c4 c4be
00000260: 30f8 f5bd 8484 36be c00f 9ebe 0472 233e
00000270: 94e0 e3bd 6e18 8fbe eec1 3cbf 4db8 7fbe
00000280: 66c7 b3be 75b4 1bbd 3bcf a3be 54cf 903d
00000290: da4a a0bd b80e 18be 82d7 c03c 7ba3 623d
000002a0: d0ab 5abd f336 34be 4c29 ccbe f05a d0bd
000002b0: 105d 3f3c cd7a 25bf e3ff 49be 97aa 8cbe
000002c0: dd6e 16bf 0410 a23e 572a b8bd 6a09 69bf
000002d0: 8703 593d 0beb e6bd 622a 53bf ce5f bfbb
000002e0: 1a83 a5be 78b6 60bc d63a d13d b317 10bd
000002f0: 92fe 273f 738f babe 3d7a 2b3d 14a8 f8be
00000300: 1db5 cebd ae30 bcbd a570 26be 8026 653c
00000310: 1a82 83ba 1c86 e8be ac10 67be 35cc 8b3d
00000320: 7c14 4ebd 0a48 fcbd ed22 6bbd 45f4 5dbe
00000330: 7034 a43c dd00 20be cc2f c9bd 6544 83bd
00000340: 7064 39bc 9d85 d6bd 38c0 c73d 3204 b0bd
00000350: ac2f a9bc 8c83 96bd 1c8a 5a3d b3fa c53b
00000360: bc51 0b3d e43c 303d 0012 bebe da35 f5bd
00000370: a0b8 91bb a605 8bbe b3c1 91be e9cc b7bd
00000380: a5c3 8d3b 4cea ea3d 5ade dfbd 4432 2a3d
00000390: 60eb 8fbc 5b27 28bd 4ce8 e0bd c48b 413d
000003a0: d4fb 973b c82e 2b3d 8df2 38bd ac6d 06bd
000003b0: 800e ebbb 8bed 2dbd a6a5 c6bc fe4d 9dbe
000003c0: 187d 36bd 2ed7 efbd 10c2 163c b3da f1be
000003d0: 844f bcbd d0a6 d3bd 28ee abbe 0889 6cbd
000003e0: b9e3 8a3d 74ce 253d 0092 06bd 0648 a43d
000003f0: 6435 fbbd a951 febc 7cee 03be 7cca 29be
-0.21765938 -0.1333291 -0.07545121 0.08240359 -0.14364251 -0.26227367 0.090962574 -0.03755447
-0.017622689 0.017882064 0.15656438 -0.17695373 -0.036615435 0.61791694 -0.49771598 0.17187054
-0.09357484 -0.18234733 0.015571561 -0.11503158 -0.31950024 -0.016673286 0.013333331 -0.17804697
-0.30453384 -0.0019591367 -0.18229178 0.060245305 -0.12868091 -0.3618703 -0.18522282 -0.78849673
-0.06982167 -0.11069552 -0.11036948 0.08324449 -0.23667453 -0.15256591 0.008015446 -0.06261148
-0.065478444 -0.21546529 -0.37684375 -0.008174975 -0.049251582 -0.24346264 -0.5375806 -0.32673338
-0.21334359 0.077852465 0.12646939 -0.2327091 -0.00887921 -0.31785285 -0.265112 -0.021339104
-0.14009984 -0.14205098 0.01772389 -0.021794505 0.09011964 0.6084637 -0.032843232 -0.17112033
-0.10445242 -0.20824619 -0.2531047 -0.06250838 -0.20592383 -0.2416832 -0.0021537924 -0.15201247
-0.055515323 -0.08413379 0.06278071 0.40545967 0.10080818 0.20170738 0.89079094 0.059882775
0.047382437 -0.13611701 -0.0064580943 0.13498887 -0.2482032 0.025912505 -0.036937103 -0.05462286
-0.33745533 0.015416768 -0.39916685 0.043231014 -0.12494709 -0.10532476 -0.10567166 -0.28476134
-0.05479677 -0.108692095 -0.020912243 -0.022964386 -0.073837444 -0.15523566 -0.17754462 -0.09203666
0.03205582 -0.15483345 -0.28592363 0.020352993 0.06701485 -0.05336799 -0.48975793 -0.19995816
-0.09860553 -0.07525578 -0.022397151 -0.21831295 0.09353871 -0.1833752 -0.249942 0.0050536445
-0.2504217 0.41642693 0.030585863 0.101870514 -0.048775155 -0.5073965 0.18048781 -0.12625396
-0.40560043 -0.022919223 -0.46873072 -0.32208657 -0.48809582 -0.8537069 0.0039066225 0.059182826
0.041826654 0.9816248 0.06989573 -0.44957325 -0.21498652 -0.60788405 -0.49181336 -0.2246624
0.038258463 -0.19963908 0.60318166 0.09639631 -0.11080513 -0.013173822 0.060235146 -0.38431454
-0.12010229 -0.17823988 -0.3087139 0.15961462 -0.11126819 -0.27948326 -0.73733413 -0.24972649
-0.35113066 -0.038013894 -0.31994042 0.07070795 -0.07826777 -0.14849365 0.023540262 0.05533169
-0.05338651 -0.17599086 -0.39875257 -0.10173595 0.011679903 -0.64640504 -0.1972652 -0.274739
-0.58762914 0.31652844 -0.08992451 -0.9102999 0.05298188 -0.112753 -0.82486546 -0.005840278
-0.32326585 -0.013715379 0.102163 -0.03517885 0.6562282 -0.36437568 0.041864622 -0.48565733
-0.10093138 -0.091889724 -0.16253908 0.01398623 -0.001003328 -0.45414817 -0.22564954 0.06826059
-0.050312504 -0.12318428 -0.057406355 -0.21675213 0.020044535 -0.1562533 -0.0982357 -0.064095296
-0.01131545 -0.104747035 0.0975346 -0.0859455 -0.020652615 -0.07349309 0.053354368 0.0060418486
0.034013495 0.04302682 -0.37123108 -0.11973162 -0.004447058 -0.27152747 -0.28468093 -0.089746304
0.004326301 0.1147047 -0.10931082 0.041551843 -0.01756829 -0.041053157 -0.10981807 0.04725243
0.0046381745 0.04179266 -0.04515319 -0.032819435 -0.0071733594 -0.042462867 -0.02424891 -0.30723566
-0.044552892 -0.11710964 0.009201542 -0.47237167 -0.09194854 -0.10334551 -0.33580136 -0.05774787
0.06781716 0.040480092 -0.03285408 0.0802155 -0.12266043 -0.031044798 -0.12883943 -0.16581148

bias f4 [32]
00000000: 20d3 173e 8c96 813e 4c2c 0abe b809 f4be
00000010: e097 f73e d28e e43e 06df 903e b508 42be
00000020: 648d de3e d40e 7b3e bed0 9ebe 8312 c83e
00000030: a2ee 7ebe 8e38 0a3e 071c 8ebe fb95 743e
00000040: 0e5f 2dbe 9c85 413f 45d7 72bd 7390 e0bc
00000050: 24c6 023d e9ff 8cbe 04e7 3ebe 5e12 a2bd
00000060: e6e1 3a3c 08aa b13e 71e2 83bf ed08 383f
00000070: 858a 303e b4df 69bd 186c 9b3e 10ac 37be
0.14826632 0.2531017 -0.1349346 -0.47663665 0.4835806 0.44640213 0.28295153 -0.18948634
0.43467247 0.24517375 -0.31018633 0.39076623 -0.24895719 0.13498136 -0.27755758 0.23885338
-0.16930792 0.75594497 -0.05928733 -0.027412629 0.031927243 -0.27538994 -0.18642813 -0.079136595
0.011406397 0.34700036 -1.030348 0.7188862 0.17240341 -0.057098106 0.30355906 -0.1793673

weight f4 [1, 32]
00000000: dffa 42be c466 51be 9a76 04bf c3d9 2cbe
00000010: 5f39 78be f56b 0b3e a036 fbbd 49f8 25be
00000020: 4542 29be 380e 903e db90 b53d 60bd 43be
00000030: ef86 a3bd f1d6 a8bf f11e bbbd 355b 3bbe
00000040: ac34 29be 7437 153f d840 2cbe b84c 083d
00000050: b6e1 abbe cf8e fd3d fdc0 a9b8 4fea 85be
00000060: 15a0 20be d834 51be 07ae 2240 bab6 5e3e
00000070: 8a22 32be 867a 1ebe b21c 5c3e c4f5 443d
-0.19041012 -0.20449358 -0.5174347 -0.16879945 -0.24240635 0.13615401 -0.12266278 -0.16207995
-0.16529186 0.28135848 0.088655196 -0.1911521 -0.07984721 -1.3190595 -0.09136761 -0.18296511
-0.16523999 0.5828774 -0.16821611 0.03327629 -0.3357064 0.12380754 -8.094495e-05 -0.26155326
-0.15686066 -0.20430315 2.5418718 0.21749392 -0.17395988 -0.15476426 0.21495321 0.048085943
