UQ_assessment_1D/models_old/BNN/i1_nn64_nl4_o1_tr1_ep400_epr400_b50000_pr0.0003_kl0.0_s36/model.pth (torch, 151042 bytes, 26 tensors)

weight_mu f4 [32, 1]
-0.19281052 -0.3955293 -2.7970915 -0.25719044 0.28877658 -1.965123 0.57185745 1.0676644
0.4339276 -0.29000413 0.9831753 0.9999198 0.58696663 -0.8067235 -0.45972222 -0.19740106
-0.77790594 -0.9009451 -0.5195347 -0.8749805 -0.017181277 -2.4417856 0.010943174 -0.8770127
0.5207461 0.026569843 -0.4114575 0.60050166 -0.19918978 -1.3435004 0.21137917 -0.25809643
00000000: 1f70 45be d182 cabe 8c03 33c0 77ae 83be
00000010: 86da 933e 2789 fbbf 4065 123f 3aa9 883f
00000020: c22b de3e 6c7b 94be 60b1 7b3f befa 7f3f
00000030: 7243 163f 6e85 4ebf b660 ebbe 8123 4abe
00000040: d824 47bf 57a4 66bf 3a00 05bf b9fe 5fbf
00000050: c0bf 8cbc 3746 1cc0 004b 333c e883 60bf
00000060: 9e4f 053f 00a9 d93c 8faa d2be 7aba 193f
00000070: 68f8 4bbe d2f7 abbf c873 583e 3725 84be

weight_log_sigma f4 [32, 1]
-3.7048135 -3.6900458 -4.2327886 -3.5451577 -3.5503492 -4.229537 -3.6779594 -3.9076262
-3.6100042 -3.5228786 -3.8560104 -4.3257627 -3.6558237 -4.139113 -4.011325 -3.5228786
-4.175057 -4.158926 -4.0470376 -4.005463 -3.5228786 -4.099645 -3.5228786 -4.0897527
-3.5971553 -3.5228786 -3.792804 -3.7539134 -3.5228786 -3.825887 -3.5228786 -3.676916
00000000: aa1b 6dc0 b629 6cc0 0173 87c0 dde3 62c0
00000010: ec38 63c0 5e58 87c0 b063 6bc0 8c16 7ac0
00000020: 4f0a 67c0 d876 61c0 e0c8 76c0 a66c 8ac0
00000030: 04f9 69c0 9d73 84c0 c65c 80c0 d876 61c0
00000040: 119a 85c0 ec15 85c0 5581 81c0 c12c 80c0
00000050: d876 61c0 4b30 83c0 d876 61c0 41df 82c0
00000060: cb37 66c0 d876 61c0 4dbd 72c0 1e40 70c0
00000070: d876 61c0 55db 74c0 d876 61c0 9752 6bc0

bias_mu f4 [32]
0.49343127 0.603494 -1.9380745 -0.04566663 0.46585906 -1.1155632 0.80976194 0.4057758
0.46807483 -0.5837717 0.6355252 -0.7206572 0.3508164 0.57198954 0.31667462 -0.27760544
0.55065924 0.63250726 0.46633595 -0.7348183 -0.3168794 -2.0423174 -0.6035669 0.7805757
0.72378606 -0.5963092 0.41162217 0.37861592 -0.91668785 -0.10426934 -0.91647494 0.37773368
00000000: 06a3 fc3e 957e 1a3f d312 f8bf ef0c 3bbd
00000010: 1485 ee3e c6ca 8ebf 8f4c 4f3f d8c1 cf3e
00000020: 81a7 ef3e 1072 15bf c8b1 223f fe7c 38bf
00000030: 359e b33e e86d 123f 2d23 a23e 4d22 8ebe
00000040: 01f8 0c3f ffeb 213f 96c3 ee3e 0d1d 3cbf
00000050: 043e a2be 54b5 02c0 5c83 1abf cfd3 473f
00000060: 0b4a 393f b8a7 18bf 24c0 d23e f2d9 c13e
00000070: 0eac 6abf 2a8b d5bd 1a9e 6abf 4f66 c13e

bias_log_sigma f4 [32]
-7.009938 -6.910443 -7.0912423 -6.9685726 -6.9640784 -7.105268 -7.0577965 -7.06458
-6.952089 -7.0 -7.010971 -6.993822 -6.9600897 -7.038339 -7.166487 -7.0
-7.0228763 -7.1682034 -7.096364 -7.100398 -7.0 -6.9393835 -7.0 -7.056731
-6.9568 -7.0 -7.063223 -7.0171447 -7.0 -7.0820327 -7.0 -7.0535483
00000000: 6951 e0c0 5922 ddc0 75eb e2c0 8cfe dec0
00000010: bbd9 dec0 5b5e e3c0 78d9 e1c0 0a11 e2c0
00000020: 8377 dec0 0000 e0c0 e059 e0c0 64cd dfc0
00000030: 0eb9 dec0 133a e1c0 dd53 e5c0 0000 e0c0
00000040: 67bb e0c0 ec61 e5c0 6a15 e3c0 7636 e3c0
00000050: 0000 e0c0 6e0f dec0 0000 e0c0 bed0 e1c0
00000060: 1b9e dec0 0000 e0c0 ec05 e2c0 738c e0c0
00000070: 0000 e0c0 03a0 e2c0 0000 e0c0 abb6 e1c0

weight_mu f4 [64, 32]
-0.12894072 -0.12617835 -0.050914086 -0.012686953 -0.02505485 -0.067653865 -0.048630405 0.08383069
-0.049324773 -0.095382065 -0.059846915 -0.08380867 -0.05881279 -0.024492687 -0.029507564 -0.101043634
0.009073809 -0.10218728 -0.0385534 -0.094409026 0.09932101 0.053463697 -0.04605169 -0.10812952
0.07118507 0.07124718 -0.219576 -0.061021395 -0.016314244 -0.11446934 -0.06562587 -0.18546918
-0.1933761 -0.026314665 -0.16787866 -0.16039898 -0.06051746 -0.13982804 -0.13470332 -0.17941716
0.03169161 -0.12137759 -0.19399151 0.07257367 -0.028759472 0.05307973 -0.14798443 -0.07045939
-0.2121058 -0.19132331 -0.08687356 0.15456058 0.013967634 0.06088221 0.1467747 0.106474444
-0.07016929 -0.026190303 0.0424163 -0.17249723 -0.13736309 -0.22676066 0.007547826 0.06976128
-0.00072054734 -0.021772638 -0.2925602 0.062934384 -0.14711237 -0.054030947 -0.16001031 -0.2891788
-0.07205572 -0.023169978 -0.035933826 -0.073971465 -0.13534865 0.18809739 -0.085002 -0.19578007
0.16473451 -0.10774355 0.1302484 0.7256117 -0.012922603 0.75461054 -0.041331075 0.02251767
-0.04998764 0.13957503 0.005654472 -0.11750904 -0.05418618 0.2718403 0.17609929 -0.024975482
0.02049387 -0.041956183 0.11002046 -0.061973233 -0.15074344 0.08358507 0.10517705 -0.15937875
-0.09524025 -0.04770452 0.12312029 0.25858185 0.1415285 -0.10315756 0.058481798 -0.062398534
0.0025681444 0.07585624 -0.010415621 -0.043562677 0.123862736 0.03231033 0.017720558 -0.037977073
-0.015916971 0.17664522 -0.14208293 -0.15338305 0.14754857 0.0129890395 -0.14355619 -0.04026514
0.03928181 -0.04298779 0.0022181598 0.06907734 -0.18374032 0.051720623 -0.17890245 -0.099785656
0.14216083 -0.015590351 0.026698422 0.00026823938 -0.040175237 -0.08152272 0.12645787 -0.033818588
-0.03285053 -0.041341566 0.12753886 -0.09086103 0.17335647 -0.09670144 -0.14394188 -0.051511448
-0.17475733 0.08261227 -0.0055746436 0.12613983 0.090078354 -0.12607273 -0.11994643 -0.15473989
0.11032491 -0.042512804 -0.17253152 -0.067453384 -0.10332107 -0.061136015 -0.03688648 -0.12200255
0.020727612 -0.007634164 -0.19358242 0.040739376 -0.15256986 -0.16662867 -0.0043598474 -0.108548336
0.014404892 0.090769514 -0.12896563 -0.12791567 -0.06267516 -0.044321112 -0.031966697 0.07920748
0.11602093 0.08063044 -0.04629159 -0.028914317 -0.10483426 -0.120398946 0.10354429 -0.15691084
-0.18575197 -0.027376844 0.113055415 -0.11213496 -0.1772756 -0.10955671 -0.062345322 -0.0106156105
0.05934788 -0.17107816 0.03698898 -0.119886264 -0.16859715 -0.06344249 0.03400292 -0.10993331
0.0648214 -0.106122196 -0.007492806 0.06333778 -0.02915955 0.09355049 -0.012258347 0.04351857
-0.12618856 0.01777301 0.13539585 -0.06190305 -0.15276399 -0.11140654 -0.15153459 0.010552413
-0.08239417 0.038555037 0.002157181 -0.028527228 -0.029167311 -0.076752044 -0.15665679 -0.025959307
-0.19091372 0.141622 0.03712019 0.084395126 0.034296542 0.09103375 0.07186119 -0.1743751
-0.1216557 -0.06786226 -0.10135242 -0.08203652 -0.13424966 0.09124599 0.12792346 0.09258742
-0.044508684 -0.16663136 -0.1231487 -0.116242535 -0.0060918634 -0.13736728 0.10035369 0.04428146
00000000: 0909 04be e634 01be 4a8b 50bd f0dc 4fbc
00000010: d43f cdbc 1c8e 8abd ad30 47bd 6daf ab3d
00000020: c608 4abd ac57 c3bd 0a22 75bd e1a3 abbd
00000030: aee5 70bd e3a4 c8bc d9b9 f1bc f7ef cebd
00000040: 50aa 143c 9147 d1bd 2cea 1dbd 8559 c1bd
00000050: d068 cb3d c0fc 5a3d b2a0 3cbd 0373 ddbd
00000060: 7ac9 913d 0bea 913d 88d8 60be 92f1 79bd
00000070: 73a5 85bc e76e eabd db66 86bd a2eb 3dbe
00000080: 6204 46be da91 d7bc 62e8 2bbe a13f 24be
00000090: 28e1 77bd 152f 0fbe abef 09be 22b9 37be
000000a0: 10cf 013d d094 f8bd b6a5 46be 81a1 943d
000000b0: fc98 ebbc 226a 593d 3b89 17be 034d 90bd
000000c0: 4332 59be 42ea 43be c4ea b1bd 2145 1e3e
000000d0: 81d8 643c a05f 793d 1b4c 163e 460f da3d
000000e0: ebb4 8fbd 0c8d d6bc b7bc 2d3d 1da3 30be
000000f0: e9a8 0cbe f233 68be c153 f73b 01df 8e3d
00000100: 1de3 3cba 885c b2bc 73ca 95be bee3 803d
00000110: a0a4 16be 8e4f 5dbd bed9 23be 3e0f 94be
00000120: f391 93bd f7ce bdbc 592f 13bd 5a7e 97bd
00000130: d698 0abe 9a9c 403e 8715 aebd 927a 48be
00000140: 2ab0 283e a6a8 dcbd d65f 053e b0c1 393f
00000150: 53b9 53bc 282e 413f c64a 29bd fa76 b83c
00000160: d7bf 4cbd c2ec 0e3e 2649 b93b 94a8 f0bd
00000170: 54f2 5dbd a72e 8b3e 5f53 343e 6299 ccbc
00000180: c3e2 a73c 3fda 2bbd 6852 e13d a5d7 7dbd
00000190: 7d5c 1abe a62e ab3d 1167 d73d 2f34 23be
000001a0: 520d c3bd d165 43bd 7e26 fc3d d764 843e
000001b0: d9ec 103e 4544 d3bd 9c8a 6f3d 9b95 7fbd
000001c0: 504e 283b 845a 9b3d 48a6 2abc c76e 32bd
000001d0: bfab fd3d d657 043d b42a 913c d98d 1bbd
000001e0: 4f64 82bc 7ce2 343e 307e 11be 7210 1dbe
000001f0: f916 173e fbcf 543c 6500 13be 0fed 24bd
00000200: f7e5 203d f713 30bd 8c5e 113b 6c78 8d3d
00000210: 6c26 3cbe 01d9 533d 3432 37be 6c5c ccbd
00000220: 9c92 113e ac6e 7fbc a6b6 da3c 7ba2 8c39
00000230: ca8e 24bd 62f5 a6bd 2c7e 013e 5c85 0abd
00000240: 478e 06bd c655 29bd 8c99 023e 5915 babd
00000250: 5c84 313e 680b c6bd 8065 13be abfd 52bd
00000260: 96f3 32be 9f30 a93d 80ab b6bb cd2a 013e
00000270: 007b b83d 3619 01be 79a6 f5bd 2274 1ebe
00000280: 07f2 e13d e821 2ebd 1aac 30be 0025 8abd
00000290: ff99 d3bd c269 7abd 4716 17bd 79dc f9bd
000002a0: f4cc a93c 0228 fabb 783a 46be 55de 263d
000002b0: 463b 1cbe b5a0 2abe 0ddd 8ebb 974e debd
000002c0: 7f02 6c3c 5ee5 b93d 910f 04be 53fc 02be
000002d0: d65b 80bd 0e8a 35bd 83ef 02bd 8837 a23d
000002e0: 629c ed3d 9221 a53d 409c 3dbd b8dd ecbc
000002f0: 58b3 d6bd b993 f6bd 070f d43d 3cad 20be
00000300: c435 3ebe 6745 e0bc 9989 e73d 04a7 e5bd
00000310: bc87 35be 455f e0bd cf5d 7fbd 19ed 2dbc
00000320: c316 733d 1d2f 2fbe c281 173d ee86 f5bd
00000330: bba4 2cbe 23ee 81bd a546 0b3d b724 e1bd
00000340: 15c1 843d 9856 d9bd 3686 f5bb 3db7 813d
00000350: 02e0 eebc 6697 bf3d 3cd7 48bc 8740 323d
00000360: 9337 01be b498 913c 36a5 0a3e 0d8e 7dbd
00000370: 2a6e 1cbe 1d29 e4bd e22b 1bbe 07e4 2c3c
00000380: 46be a8bd e3eb 1d3d 7e5f 0d3b efb1 e9bc
00000390: 49f0 eebc 2d30 9dbd a36a 20be 9da8 d4bc
000003a0: e37e 43be 5c05 113e 570b 183d 5ad7 ac3d
000003b0: 887a 0c3d e76f ba3d f62b 933d 638f 32be
000003c0: a026 f9bd 5efb 8abd dc91 cfbd c302 a8bd
000003d0: be78 09be 2ddf ba3d 5efe 023e 799e bd3d
000003e0: bd4e 36bd 69a1 2abe 6335 fcbd 9110 eebd
000003f0: 419e c7bb 02aa 0cbe 3c86 cd3d 7a60 353d

weight_log_sigma f4 [64, 32]
-3.5228786 -3.5228786 -3.5228786 -3.5228786 -3.5228786 -3.5228786 -3.5228786 -3.5228786
-3.5228786 -3.5228786 -3.5228786 -3.5228786 -3.5228786 -3.5228786 -3.5228786 -3.5228786
-3.5228786 -3.5228786 -3.5228786 -3.5228786 -3.5228786 -3.5228786 -3.5228786 -3.5228786
-3.5228786 -3.5228786 -3.5228786 -3.5228786 -3.5228786 -3.5228786 -3.5228786 -3.5228786
-3.5228786 -3.5228786 -3.5228786 -3.5228786 -3.5228786 -3.5228786 -3.5228786 -3.5228786
-3.5228786 -3.5228786 -3.5228786 -3.5228786 -3.5228786 -3.5228786 -3.5228786 -3.5228786
-3.5228786 -3.5228786 -3.5228786 -3.5228786 -3.5228786 -3.5228786 -3.5228786 -3.5228786
-3.5228786 -3.5228786 -3.5228786 -3.5228786 -3.5228786 -3.5228786 -3.5228786 -3.5228786
-3.59463 -3.543956 -3.568452 -3.5556448 -3.4519496 -3.4993658 -3.459106 -3.584857
-3.4964664 -3.5228786 -3.5194666 -3.5228786 -3.6091542 -3.6067097 -3.6170127 -3.5228786
-3.498842 -3.5108922 -3.3696043 -3.5151622 -3.5228786 -3.5311997 -3.5228786 -3.510435
-3.353979 -3.5228786 -3.437436 -3.4531145 -3.5228786 -3.5833142 -3.5228786 -3.538136
-3.5635679 -3.4713902 -3.5550966 -3.5181196 -3.505721 -3.51576 -3.6287894 -3.5903075
-3.5420594 -3.5228786 -3.5125036 -3.4928942 -3.4803805 -3.5524364 -3.5455868 -3.5228786
-3.499083 -3.5335839 -3.5290523 -3.5163126 -3.5228786 -3.5164828 -3.5228786 -3.579943
-3.5589657 -3.5228786 -3.51235 -3.5405853 -3.5228786 -3.5828438 -3.5228786 -3.505928
-3.5799189 -3.5139616 -3.5529923 -3.5560834 -3.5610988 -3.5225205 -3.522625 -3.5949554
-3.4811969 -3.5228786 -3.494609 -3.532299 -3.519568 -3.5088606 -3.538754 -3.5228786
-3.5129013 -3.490963 -3.507348 -3.5239716 -3.5228786 -3.5241807 -3.5228786 -3.4923952
-3.554058 -3.5228786 -3.496715 -3.4637635 -3.5228786 -3.5481217 -3.5228786 -3.5416684
-3.5228786 -3.5228786 -3.5228786 -3.5228786 -3.5228786 -3.5228786 -3.5228786 -3.5228786
-3.5228786 -3.5228786 -3.5228786 -3.5228786 -3.5228786 -3.5228786 -3.5228786 -3.5228786
-3.5228786 -3.5228786 -3.5228786 -3.5228786 -3.5228786 -3.5228786 -3.5228786 -3.5228786
-3.5228786 -3.5228786 -3.5228786 -3.5228786 -3.5228786 -3.5228786 -3.5228786 -3.5228786
-3.5140362 -3.5339236 -3.5183387 -3.5159342 -3.5130818 -3.5148091 -3.540346 -3.5228786
-3.5449834 -3.5228786 -3.5152833 -3.5228786 -3.5375698 -3.5236716 -3.5345442 -3.5228786
-3.5248938 -3.5424416 -3.5460544 -3.5230548 -3.5228786 -3.5196333 -3.5228786 -3.5436163
-3.5319948 -3.5228786 -3.5398984 -3.531856 -3.5228786 -3.525634 -3.5228786 -3.5403848
-3.5228786 -3.5228786 -3.5228786 -3.5228786 -3.5228786 -3.5228786 -3.5228786 -3.5228786
-3.5228786 -3.5228786 -3.5228786 -3.5228786 -3.5228786 -3.5228786 -3.5228786 -3.5228786
-3.5228786 -3.5228786 -3.5228786 -3.5228786 -3.5228786 -3.5228786 -3.5228786 -3.5228786
-3.5228786 -3.5228786 -3.5228786 -3.5228786 -3.5228786 -3.5228786 -3.5228786 -3.5228786
00000000: d876 61c0 d876 61c0 d876 61c0 d876 61c0
00000010: d876 61c0 d876 61c0 d876 61c0 d876 61c0
00000020: d876 61c0 d876 61c0 d876 61c0 d876 61c0
00000030: d876 61c0 d876 61c0 d876 61c0 d876 61c0
00000040: d876 61c0 d876 61c0 d876 61c0 d876 61c0
00000050: d876 61c0 d876 61c0 d876 61c0 d876 61c0
00000060: d876 61c0 d876 61c0 d876 61c0 d876 61c0
00000070: d876 61c0 d876 61c0 d876 61c0 d876 61c0
00000080: d876 61c0 d876 61c0 d876 61c0 d876 61c0
00000090: d876 61c0 d876 61c0 d876 61c0 d876 61c0
000000a0: d876 61c0 d876 61c0 d876 61c0 d876 61c0
000000b0: d876 61c0 d876 61c0 d876 61c0 d876 61c0
000000c0: d876 61c0 d876 61c0 d876 61c0 d876 61c0
000000d0: d876 61c0 d876 61c0 d876 61c0 d876 61c0
000000e0: d876 61c0 d876 61c0 d876 61c0 d876 61c0
000000f0: d876 61c0 d876 61c0 d876 61c0 d876 61c0
00000100: 6b0e 66c0 2dd0 62c0 8461 64c0 af8f 63c0
00000110: beec 5cc0 9cf5 5fc0 fe61 5dc0 4c6e 65c0
00000120: 1bc6 5fc0 d876 61c0 f13e 61c0 d876 61c0
00000130: 62fc 66c0 55d4 66c0 237d 67c0 d876 61c0
00000140: 07ed 5fc0 75b2 60c0 99a7 57c0 6bf8 60c0
00000150: d876 61c0 2dff 61c0 d876 61c0 f8aa 60c0
00000160: 98a7 56c0 d876 61c0 f4fe 5bc0 d4ff 5cc0
00000170: d876 61c0 0555 65c0 d876 61c0 d270 62c0
00000180: 7f11 64c0 422b 5ec0 b486 63c0 df28 61c0
00000190: bc5d 60c0 3602 61c0 163e 68c0 99c7 65c0
000001a0: 1ab1 62c0 d876 61c0 dccc 60c0 948b 5fc0
000001b0: 8ebe 5ec0 1e5b 63c0 e5ea 62c0 d876 61c0
000001c0: faf0 5fc0 3d26 62c0 fedb 61c0 440b 61c0
000001d0: d876 61c0 0e0e 61c0 d876 61c0 c91d 65c0
000001e0: 18c6 63c0 d876 61c0 58ca 60c0 f398 62c0
000001f0: d876 61c0 504d 65c0 d876 61c0 2061 60c0
00000200: 641d 65c0 bfe4 60c0 3a64 63c0 df96 63c0
00000210: 0be9 63c0 fa70 61c0 b072 61c0 c013 66c0
00000220: eecb 5ec0 d876 61c0 ada7 5fc0 3011 62c0
00000230: 9a40 61c0 2c91 60c0 f27a 62c0 d876 61c0
00000240: 60d3 60c0 f06b 5fc0 6478 60c0 c088 61c0
00000250: d876 61c0 2d8c 61c0 d876 61c0 6783 5fc0
00000260: b075 63c0 d876 61c0 2eca 5fc0 4dae 5dc0
00000270: d876 61c0 6d14 63c0 d876 61c0 b2aa 62c0
00000280: d876 61c0 d876 61c0 d876 61c0 d876 61c0
00000290: d876 61c0 d876 61c0 d876 61c0 d876 61c0
000002a0: d876 61c0 d876 61c0 d876 61c0 d876 61c0
000002b0: d876 61c0 d876 61c0 d876 61c0 d876 61c0
000002c0: d876 61c0 d876 61c0 d876 61c0 d876 61c0
000002d0: d876 61c0 d876 61c0 d876 61c0 d876 61c0
000002e0: d876 61c0 d876 61c0 d876 61c0 d876 61c0
000002f0: d876 61c0 d876 61c0 d876 61c0 d876 61c0
00000300: f8e5 60c0 ce2b 62c0 762c 61c0 1105 61c0
00000310: 55d6 60c0 a2f2 60c0 0795 62c0 d876 61c0
00000320: 02e1 62c0 d876 61c0 67fa 60c0 d876 61c0
00000330: 8b67 62c0 d683 61c0 f935 62c0 d876 61c0
00000340: dc97 61c0 5db7 62c0 8ef2 62c0 bb79 61c0
00000350: d876 61c0 ac41 61c0 d876 61c0 9cca 62c0
00000360: 340c 62c0 d876 61c0 b28d 62c0 ee09 62c0
00000370: d876 61c0 fda3 61c0 d876 61c0 aa95 62c0
00000380: d876 61c0 d876 61c0 d876 61c0 d876 61c0
00000390: d876 61c0 d876 61c0 d876 61c0 d876 61c0
000003a0: d876 61c0 d876 61c0 d876 61c0 d876 61c0
000003b0: d876 61c0 d876 61c0 d876 61c0 d876 61c0
000003c0: d876 61c0 d876 61c0 d876 61c0 d876 61c0
000003d0: d876 61c0 d876 61c0 d876 61c0 d876 61c0
000003e0: d876 61c0 d876 61c0 d876 61c0 d876 61c0
000003f0: d876 61c0 d876 61c0 d876 61c0 d876 61c0

bias_mu f4 [64]
-0.10938487 -0.002015888 -0.0688847 -0.093539484 0.06253613 -0.1054148 -0.057001986 -0.21076035
0.015128827 -0.031655565 -0.0017932156 -0.277238 -0.037843265 -0.181704 -0.09144541 -0.1298066
0.2730116 0.09197805 -0.19345725 0.021684635 -0.14218906 -0.066053584 -0.10102647 -0.063632585
-0.13113752 -0.15771115 0.046130892 0.022730825 0.12910824 0.15709403 0.13270211 -0.00929453
-0.012240794 -0.08508993 0.0028595703 -0.15215379 0.08734687 -0.1830763 -0.09239785 0.057040486
-0.15431012 -0.22897409 0.058283098 -0.023194069 -0.24671876 -0.022039413 -0.21204841 -0.06340361
0.11636614 -0.12765048 -0.07233335 0.14085895 -0.02184319 0.05523609 -0.025404155 -0.07692718
-0.0857468 -0.028182724 0.09820361 -0.09103421 -0.096202716 -0.20203729 0.025013603 0.124105215
00000000: 2d05 e0bd fd1c 04bb 6c13 8dbd a191 bfbd
00000010: f112 803d b7e3 d7bd ea7a 69bd 90d1 57be
00000020: e6de 773c 44a9 01bd 550a ebba 24f2 8dbe
00000030: 8a01 1bbd 9d10 3abe bb47 bbbd 05ec 04be
00000040: 2dc8 8b3e fd5e bc3d a819 46be faa3 b13c
00000050: 029a 11be 1a47 87bd f7e6 cebd cd51 82bd
00000060: ea48 06be 087f 21be bff3 3c3d ff35 ba3c
00000070: f334 043e 42dd 203e 10e3 073e 1648 18bc
00000080: 9c8d 48bc a143 aebd a167 3b3b 34ce 1bbe
00000090: eae2 b23d 5b78 3bbe 153b bdbd 49a3 693d
000000a0: 7903 1ebe 2f78 6abe 42ba 6e3d 7d01 bebc
000000b0: d8a3 7cbe 008c b4bc 3823 59be c0d9 81bd
000000c0: 5f51 ee3d cfb6 02be 8223 94bd 543d 103e
000000d0: 7df0 b2bc 3d3f 623d 601c d0bc ff8b 9dbd
000000e0: 059c afbd 75df e6bc f91e c93d 2570 babd
000000f0: ee05 c5bd dde2 4ebe 54e9 cc3c e02a fe3d

bias_log_sigma f4 [64]
-7.0 -7.0 -6.996973 -7.0325494 -6.975901 -7.0 -7.0000944 -7.0
-7.0 -6.9774094 -7.0 -6.9964695 -7.0 -7.0 -7.000191 -7.009583
-7.031626 -7.0080895 -7.0 -7.0002394 -7.003994 -7.0 -6.964272 -6.972017
-7.0 -7.0872517 -7.0 -7.023245 -6.970848 -6.999988 -6.9927387 -7.0
-7.0 -7.007816 -7.0290613 -7.0 -6.984951 -7.0155635 -6.993696 -7.04914
-7.0085683 -6.9999924 -7.0 -7.017504 -6.969479 -6.9538784 -7.0 -7.0
-6.9834313 -7.0393643 -7.0938654 -7.029738 -6.9768267 -6.9940567 -6.9460807 -6.981177
-7.0304174 -6.954569 -7.069539 -6.9930916 -6.9682546 -7.0 -7.0 -7.0113926
00000000: 0000 e0c0 0000 e0c0 34e7 dfc0 a50a e1c0
00000010: 953a dfc0 0000 e0c0 c600 e0c0 0000 e0c0
00000020: 0000 e0c0 f046 dfc0 0000 e0c0 14e3 dfc0
00000030: 0000 e0c0 0000 e0c0 9101 e0c0 814e e0c0
00000040: 1503 e1c0 4542 e0c0 0000 e0c0 f601 e0c0
00000050: b820 e0c0 0000 e0c0 51db dec0 c31a dfc0
00000060: 0000 e0c0 c4ca e2c0 0000 e0c0 6cbe e0c0
00000070: 3011 dfc0 e7ff dfc0 84c4 dfc0 0000 e0c0
00000080: 0000 e0c0 0740 e0c0 12ee e0c0 0000 e0c0
00000090: b884 dfc0 7f7f e0c0 5ccc dfc0 8e92 e1c0
000000a0: 3146 e0c0 f0ff dfc0 0000 e0c0 658f e0c0
000000b0: f905 dfc0 2c86 dec0 0000 e0c0 0000 e0c0
000000c0: 4578 dfc0 7942 e1c0 f200 e3c0 9df3 e0c0
000000d0: 2a42 dfc0 50cf dfc0 4b46 dec0 cd65 dfc0
000000e0: 2ef9 e0c0 d48b dec0 aa39 e2c0 68c7 dfc0
000000f0: f1fb dec0 0000 e0c0 0000 e0c0 545d e0c0

weight_mu f4 [64, 64]
0.13522565 -0.009702199 0.05540773 0.08051497 -0.029956758 -0.0967167 -0.068986714 0.0020169797
0.14704946 0.03531648 -0.17874296 0.1263675 0.081858486 0.0585188 0.115471125 0.035552442
0.007871266 0.114884794 -0.0044695684 -0.0007941276 -0.060670022 0.010866773 -0.07646552 0.024506597
0.044680607 -0.23699497 -0.044772193 -0.13159949 -0.23363328 0.083564386 0.03588485 -0.029038543
0.050112143 0.12377378 -0.28356424 -0.044829518 -0.136699 -0.05079577 0.14340158 -0.054616313
-0.09186812 0.11373161 0.11373363 -0.0881089 -0.06973439 -0.022527782 -0.049819104 -0.19273981
0.0595365 0.035719234 -0.17782927 -0.13065262 -0.120252155 0.20376192 0.08226596 0.10120067
-0.034547117 0.0401126 -0.028124342 -0.06555234 0.00029561174 0.06356987 0.035786133 -0.09983531
-0.016800892 -0.12656046 -0.13382395 0.13560374 0.1714106 -0.18762013 -0.022430211 -0.077735715
-0.014918712 -0.15475391 -0.13352938 -0.048824694 -0.011817237 -0.17102753 0.036944773 0.014103224
-0.3012249 0.03792111 -0.15634243 -0.064495996 -0.08436826 -0.12092242 -0.027911067 -0.00357935
-0.11576612 0.0102282865 -0.021183953 0.041780293 0.020112714 -0.10567857 -0.16789603 -0.008355198
0.09395036 0.0072396696 -0.22837242 0.002318221 -0.19286178 -0.41222158 0.012299863 -0.1385711
0.15352984 0.11806916 -0.0015813278 0.09998905 -0.30778104 -0.377786 0.05095933 -0.08725569
-0.2224038 -0.23123983 0.070793554 -0.22106569 -0.29685193 -0.13648923 0.05222719 -0.060838684
-0.058515973 0.0054608895 -0.115661554 -0.12131986 -0.047717858 -0.05684419 0.008096237 -0.039993443
0.10957896 -0.010977142 0.06088922 -0.052510694 0.09929129 -0.115074016 -0.10502237 0.103002496
-0.002126017 -0.10737622 0.09251214 0.072950445 0.008733983 0.18161583 -0.111592785 -0.10592729
0.20111601 -0.013545542 0.087221585 -0.0106059965 0.049359884 -0.021051995 -0.02857101 0.05086399
0.0038894808 -0.14648095 0.13447541 0.020179797 -0.50956535 0.058499575 0.11124982 0.09812251
0.055051565 0.008587137 -0.2717843 0.041545384 -0.14561576 -0.2558096 -0.030625671 0.38254306
-0.0355628 -0.040648386 0.13617687 0.0060186964 -0.012206893 -0.26207545 0.10622312 0.0138350725
0.13918582 -0.001574617 0.035658527 0.1900032 -0.029220881 0.1130423 -0.008811813 -0.24628149
-0.013233122 0.02853172 0.04109408 -0.0008954078 0.017956795 0.07731342 0.023581902 -0.017451618
0.09793764 -0.100103244 0.04732097 0.066483915 -0.013419956 -0.16307507 -0.026912764 0.0925345
-0.078820325 -0.055080447 -0.07288406 -0.041483797 0.031173633 -0.0056398553 -0.09309462 -0.07177247
-0.042785272 0.07535906 -0.07054705 0.0833731 -0.086405635 0.10195416 -0.10648371 0.003267485
-0.08514367 -0.081652254 0.004621461 -0.09966288 -0.15005744 -0.00053176284 0.098915756 -0.008675752
-0.059216097 -0.01894109 0.054785915 -0.08665649 -0.122104585 0.016271567 0.09936505 0.007348925
-0.030223653 -0.027255237 -0.044785313 -0.093930155 -0.0015317516 0.042913336 0.032285646 -0.083641835
-0.053606108 -0.14355464 -0.046103384 -0.07620299 -0.17743118 0.051248938 0.074550495 -0.0027928045
0.004435162 -0.05382242 -0.04859823 -0.030977443 0.120296866 0.05548477 0.019087417 -0.0127886385
00000000: 9878 0a3e f9f5 1ebc 37f3 623d 08e5 a43d
00000010: e067 f5bc 6813 c6bd e848 8dbd 4e2f 043b
00000020: 2294 163e 03a8 103d 6508 37be 7b66 013e
00000030: 6ca5 a73d 69b1 6f3d 207c ec3d 709f 113d
00000040: 7cf6 003c b848 eb3d 7575 92bb 002d 50ba
00000050: 2181 78bd 8d0a 323c f499 9cbd 0fc2 c83c
00000060: 0303 373d cfae 72be 0c63 37bd 04c2 06be
00000070: 903d 6fbe ce23 ab3d fefb 123d 3de2 edbc
00000080: 6442 4d3d 1c7d fd3d 552f 91be 289f 37bd
00000090: d3fa 0bbe 3a0f 50bd ddd7 123e 5bb5 5fbd
000000a0: 5a25 bcbd 1eec e83d 2ded e83d 7072 b4bd
000000b0: e7d0 8ebd 2f8c b8bc 1e0f 4cbd 965d 45be
000000c0: 8cdc 733d 554e 123d e018 36be cdc9 05be
000000d0: c346 f6bd f7a6 503e 0e7b a83d 4c42 cf3d
000000e0: 4781 0dbd 1c4d 243d 0565 e6bc 4e40 86bd
000000f0: 56fc 9a39 ec30 823d 7b94 123d 7476 ccbd
00000100: 06a2 89bc 1199 01be 2509 09be b5db 0a3e
00000110: 4386 2f3e 7e1f 40be 90bf b7bc e733 9fbd
00000120: 9d6d 74bc cf77 1ebe edbb 08be 67fc 47bd
00000130: 169d 41bc d721 2fbe 6753 173d 3511 673c
00000140: 263a 9abe 2a53 1b3d 3b18 20be 7a16 84bd
00000150: 44c9 acbd 2ca6 f7bd c0a5 e4bc 8793 6abb
00000160: ca16 edbd 8b94 273c f889 adbc d021 2b3d
00000170: 6bc3 a43c 026e d8bd f0ec 2bbe 3ee4 08bc
00000180: 0c69 c03d c03a ed3b 76da 69be 4bed 173b
00000190: 8f7d 45be b50e d3be 5d85 493c 95e5 0dbe
000001a0: ed36 1d3e 3ece f13d 8e44 cfba 0fc7 cc3d
000001b0: 7a95 9dbe 2b6d c1be bbba 503d 1cb3 b2bd
000001c0: d2bd 63be 22ca 6cbe 36fc 903d 0b5f 62be
000001d0: fafc 97be d5c3 0bbe 2eec 553d fc31 79bd
000001e0: 72ae 6fbd 43f1 b23b f7df ecbd 8c76 f8bd
000001f0: cd73 43bd 74d5 68bd 14a6 043c 2ad0 23bd
00000200: ef6a e03d 78d9 33bc fa66 793d 7415 57bd
00000210: 3b59 cb3d edab ebbd f815 d7bd f9f2 d23d
00000220: a554 0bbb 10e8 dbbd 0177 bd3d 0b67 953d
00000230: fb18 0f3c 80f9 393e c28a e4bd 68f0 d8bd
00000240: 5bf1 4d3e 1fee 5dbc 3ba1 b23d c6c4 2dbc
00000250: 972d 4a3d 3c75 acbc c00d eabc c256 503d
00000260: a9e6 7e3b 1aff 15be ecb3 093e 1a50 a53c
00000270: e072 02bf 409d 6f3d f2d6 e33d 74f4 c83d
00000280: c07d 613d 10b1 0c3c 5027 8bbe 7e2b 2a3d
00000290: 4c1c 15be 7af9 82be b0e2 fabc afdc c33e
000002a0: 4caa 11bd ec7e 26bd f371 0b3e 7c38 c53b
000002b0: 6cff 47bc c12e 86be 828b d93d 80ac 623c
000002c0: ba86 0e3e 6163 ceba ad0e 123d 3390 423e
000002d0: a160 efbc b982 e73d 6c5f 10bc 3731 7cbe
000002e0: bdcf 58bc 5bbb e93c 4452 283d cdb9 6aba
000002f0: 211a 933c 8056 9e3d d52e c13c b2f6 8ebc
00000300: 8893 c83d ee02 cdbd a2d3 413d b828 883d
00000310: 60df 5bbc 27fd 26be 2878 dcbc ba82 bd3d
00000320: 8d6c a1bd 099c 61bd 3d44 95bd eaea 29bd
00000330: d95f ff3c 89ce b8bb 64a8 bebd 72fd 92bd
00000340: 9c3f 2fbd da55 9a3d f97a 90bd 84bf aa3d
00000350: 70f5 b0bd 58cd d03d 2214 dabd 4d23 563b
00000360: ce5f aebd 4c39 a7bd a06f 973b 0d1c ccbd
00000370: a8a8 19be 0066 0bba 5894 ca3d be24 0ebc
00000380: 948c 72bd 582a 9bbc 3267 603d f578 b1bd
00000390: f811 fabd f34b 853c e77f cb3d 40cf f03b
000003a0: 9897 f7bc 6046 dfbc ce70 37bd 745e c0bd
000003b0: 0ec5 c8ba e5c5 2f3d f43d 043d 694c abbd
000003c0: 1492 5bbd fdff 12be e7d6 3cbd 5010 9cbd
000003d0: 85b0 35be 68ea 513d eead 983d 7c07 37bb
000003e0: d654 913b e674 5cbd f00e 47bd 68c4 fdbc
000003f0: 345e f63d 0044 633d 375d 9c3c 7087 51bc

weight_log_sigma f4 [64, 64]
-3.5228786 -3.5228786 -3.5228786 -3.5228786 -3.5228786 -3.5228786 -3.5228786 -3.5228786
-3.5228786 -3.5228786 -3.5228786 -3.5228786 -3.5228786 -3.5228786 -3.5228786 -3.5228786
-3.5228786 -3.5228786 -3.5228786 -3.5228786 -3.5228786 -3.5228786 -3.5228786 -3.5228786
-3.5228786 -3.5228786 -3.5228786 -3.5228786 -3.5228786 -3.5228786 -3.5228786 -3.5228786
-3.5228786 -3.5228786 -3.5228786 -3.5228786 -3.5228786 -3.5228786 -3.5228786 -3.5228786
-3.5228786 -3.5228786 -3.5228786 -3.5228786 -3.5228786 -3.5228786 -3.5228786 -3.5228786
-3.5228786 -3.5228786 -3.5228786 -3.5228786 -3.5228786 -3.5228786 -3.5228786 -3.5228786
-3.5228786 -3.5228786 -3.5228786 -3.5228786 -3.5228786 -3.5228786 -3.5228786 -3.5228786
-3.5228786 -3.5228786 -3.5452209 -3.515148 -3.4773872 -3.5228786 -3.5228786 -3.5228786
-3.5228786 -3.6244426 -3.5228786 -3.5211666 -3.5228786 -3.5228786 -3.5228786 -3.5384524
-3.5848339 -3.519827 -3.5228786 -3.552045 -3.5773506 -3.5228786 -3.5228786 -3.6082025
-3.5228786 -3.6278174 -3.5228786 -3.5479727 -3.6916437 -3.5228786 -3.4759347 -3.5228786
-3.5228786 -3.5228786 -3.5372021 -3.5228786 -3.5878792 -3.602101 -3.5228786 -3.5345192
-3.52073 -3.5228786 -3.5228786 -3.5541248 -3.5350323 -3.578789 -3.5228786 -3.5228786
-3.5384512 -3.6247654 -3.615613 -3.4653437 -3.5823748 -3.5236535 -3.5674045 -3.47358
-3.5749302 -3.6000938 -3.4498065 -3.5228786 -3.493245 -3.5228786 -3.5228786 -3.508703
-3.5228786 -3.5228786 -3.5228786 -3.5470152 -3.5171635 -3.5228786 -3.5228786 -3.5228786
-3.5228786 -3.5228786 -3.5228786 -3.528492 -3.5228786 -3.5228786 -3.5228834 -3.5844064
-3.5749903 -3.523285 -3.5228786 -3.5154839 -3.4949565 -3.5228786 -3.5228786 -3.5923162
-3.5228786 -3.5248961 -3.5228786 -3.5510042 -3.5071595 -3.5228786 -3.5964391 -3.5228786
-3.5228786 -3.5228786 -3.5228786 -3.5228786 -3.5228786 -3.5228786 -3.5228786 -3.5916808
-3.513124 -3.5228786 -3.5228786 -3.507576 -3.4876378 -3.5228786 -3.5228786 -3.5228786
-3.5250676 -3.5228786 -3.5772355 -3.6099572 -3.5228786 -3.5196152 -3.4952235 -3.5862184
-3.538852 -3.5241396 -3.6300466 -3.517494 -3.528026 -3.5228786 -3.5228786 -3.5309837
-3.5228786 -3.5228786 -3.5228786 -3.5228786 -3.5228786 -3.5228786 -3.5228786 -3.5228786
-3.5228786 -3.5228786 -3.5228786 -3.5228786 -3.5228786 -3.5228786 -3.5228786 -3.5228786
-3.5228786 -3.5228786 -3.5228786 -3.5228786 -3.5228786 -3.5228786 -3.5228786 -3.5228786
-3.5228786 -3.5228786 -3.5228786 -3.5228786 -3.5228786 -3.5228786 -3.5228786 -3.5228786
-3.5228786 -3.5228786 -3.5228786 -3.5228786 -3.5228786 -3.5228786 -3.5228786 -3.5228786
-3.5228786 -3.5228786 -3.5228786 -3.5228786 -3.5228786 -3.5228786 -3.5228786 -3.5228786
-3.5228786 -3.5228786 -3.5228786 -3.5228786 -3.5228786 -3.5228786 -3.5228786 -3.5228786
-3.5228786 -3.5228786 -3.5228786 -3.5228786 -3.5228786 -3.5228786 -3.5228786 -3.5228786
00000000: d876 61c0 d876 61c0 d876 61c0 d876 61c0
00000010: d876 61c0 d876 61c0 d876 61c0 d876 61c0
00000020: d876 61c0 d876 61c0 d876 61c0 d876 61c0
00000030: d876 61c0 d876 61c0 d876 61c0 d876 61c0
00000040: d876 61c0 d876 61c0 d876 61c0 d876 61c0
00000050: d876 61c0 d876 61c0 d876 61c0 d876 61c0
00000060: d876 61c0 d876 61c0 d876 61c0 d876 61c0
00000070: d876 61c0 d876 61c0 d876 61c0 d876 61c0
00000080: d876 61c0 d876 61c0 d876 61c0 d876 61c0
00000090: d876 61c0 d876 61c0 d876 61c0 d876 61c0
000000a0: d876 61c0 d876 61c0 d876 61c0 d876 61c0
000000b0: d876 61c0 d876 61c0 d876 61c0 d876 61c0
000000c0: d876 61c0 d876 61c0 d876 61c0 d876 61c0
000000d0: d876 61c0 d876 61c0 d876 61c0 d876 61c0
000000e0: d876 61c0 d876 61c0 d876 61c0 d876 61c0
000000f0: d876 61c0 d876 61c0 d876 61c0 d876 61c0
00000100: d876 61c0 d876 61c0 e6e4 62c0 2ff8 60c0
00000110: 838d 5ec0 d876 61c0 d876 61c0 d876 61c0
00000120: d876 61c0 def6 67c0 d876 61c0 cb5a 61c0
00000130: d876 61c0 d876 61c0 d876 61c0 0176 62c0
00000140: eb6d 65c0 d844 61c0 d876 61c0 b554 63c0
00000150: 50f3 64c0 d876 61c0 d876 61c0 caec 66c0
00000160: d876 61c0 292e 68c0 d876 61c0 fc11 63c0
00000170: e443 6cc0 d876 61c0 b775 5ec0 d876 61c0
00000180: d876 61c0 d876 61c0 8561 62c0 d876 61c0
00000190: d09f 65c0 d388 66c0 d876 61c0 9035 62c0
000001a0: a453 61c0 d876 61c0 d876 61c0 c876 63c0
000001b0: f83d 62c0 e10a 65c0 d876 61c0 d876 61c0
000001c0: fc75 62c0 28fc 67c0 3466 67c0 31c8 5dc0
000001d0: a145 65c0 8a83 61c0 5b50 64c0 224f 5ec0
000001e0: a8cb 64c0 f067 66c0 a1c9 5cc0 d876 61c0
000001f0: 5391 5fc0 d876 61c0 d876 61c0 978e 60c0
00000200: d876 61c0 d876 61c0 d876 61c0 4c02 63c0
00000210: 3519 61c0 d876 61c0 d876 61c0 d876 61c0
00000220: d876 61c0 d876 61c0 d876 61c0 d0d2 61c0
00000230: d876 61c0 d876 61c0 ec76 61c0 ea66 65c0
00000240: a4cc 64c0 807d 61c0 d876 61c0 b0fd 60c0
00000250: 5ead 5fc0 d876 61c0 d876 61c0 82e8 65c0
00000260: d876 61c0 e697 61c0 d876 61c0 a743 63c0
00000270: 4d75 60c0 d876 61c0 0f2c 66c0 d876 61c0
00000280: d876 61c0 d876 61c0 d876 61c0 d876 61c0
00000290: d876 61c0 d876 61c0 d876 61c0 19de 65c0
000002a0: 06d7 60c0 d876 61c0 d876 61c0 207c 60c0
000002b0: 7535 5fc0 d876 61c0 d876 61c0 d876 61c0
000002c0: b59a 61c0 d876 61c0 6df1 64c0 8a09 67c0
000002d0: d876 61c0 6041 61c0 beb1 5fc0 9a84 65c0
000002e0: 8d7c 62c0 818b 61c0 af52 68c0 9f1e 61c0
000002f0: 2ecb 61c0 d876 61c0 d876 61c0 a3fb 61c0
00000300: d876 61c0 d876 61c0 d876 61c0 d876 61c0
00000310: d876 61c0 d876 61c0 d876 61c0 d876 61c0
00000320: d876 61c0 d876 61c0 d876 61c0 d876 61c0
00000330: d876 61c0 d876 61c0 d876 61c0 d876 61c0
00000340: d876 61c0 d876 61c0 d876 61c0 d876 61c0
00000350: d876 61c0 d876 61c0 d876 61c0 d876 61c0
00000360: d876 61c0 d876 61c0 d876 61c0 d876 61c0
00000370: d876 61c0 d876 61c0 d876 61c0 d876 61c0
00000380: d876 61c0 d876 61c0 d876 61c0 d876 61c0
00000390: d876 61c0 d876 61c0 d876 61c0 d876 61c0
000003a0: d876 61c0 d876 61c0 d876 61c0 d876 61c0
000003b0: d876 61c0 d876 61c0 d876 61c0 d876 61c0
000003c0: d876 61c0 d876 61c0 d876 61c0 d876 61c0
000003d0: d876 61c0 d876 61c0 d876 61c0 d876 61c0
000003e0: d876 61c0 d876 61c0 d876 61c0 d876 61c0
000003f0: d876 61c0 d876 61c0 d876 61c0 d876 61c0

bias_mu f4 [64]
-0.12681337 0.12737903 -0.014977731 -0.13970801 -0.17996857 -0.16147232 -0.057760347 -0.0802047
0.0071753813 -0.14677297 -0.20975773 -0.1539489 0.0069109225 -0.03763106 0.09356486 0.14912598
0.01748346 -0.042183682 0.13101646 -0.034657188 0.07898623 0.079176255 -0.060849205 -0.026001811
0.10479318 -0.04589149 -0.12231073 -0.20847213 -0.047973007 0.11015492 -0.09484493 -0.113499
-0.18769094 -0.116092 -0.043009844 0.14309356 -0.079197824 0.22813138 -0.03375218 -0.025133643
0.07824269 0.11391284 -0.21899469 -0.050510377 -0.007199674 -0.24833325 0.024778245 -0.16204157
0.021572957 -0.09347201 -0.13503279 -0.166975 -0.22210921 -0.01750907 -0.07936602 -0.016106566
0.048847415 0.16789246 0.04012705 0.0008164996 -0.014174898 -0.14889826 -0.1798774 -0.07327775
00000000: 5ddb 01be a66f 023e 2865 75bc 9e0f 0fbe
00000010: ae49 38be 0059 25be 1d96 6cbd 5d42 a4bd
00000020: 761f eb3b a74b 16be bbca 56be c8a4 1dbe
00000030: 0575 e23b 0723 1abd ef9e bf3d 7bb4 183e
00000040: 7939 8f3c ccc8 2cbd 2e29 063e b2f4 0dbd
00000050: 88c3 a13d 2927 a23d 043d 79bd c001 d5bc
00000060: cf9d d63d b7f8 3bbd 0c7e fabd b879 55be
00000070: 587f 44bd e798 e13d 0f3e c2bd 2a72 e8bd
00000080: 0e32 40be a4c1 edbd 172b 30bd 1e87 123e
00000090: 7832 a2bd 469b 693e ba3f 0abd 12e5 cdbc
000000a0: b43d a03d 234b e93d 2540 60be f8e3 4ebd
000000b0: 3eeb ebbb 124b 7ebe bffb ca3c 3aee 25be
000000c0: c5b9 b03c 416e bfbd 0946 0abe 7ffb 2abe
000000d0: 9970 63be 2e6f 8fbc a78a a2bd ebf1 83bc
000000e0: 3a14 483d 00ec 2b3e 435c 243d 5c0a 563a
000000f0: d53d 68bc c978 18be c831 38be a512 96bd

bias_log_sigma f4 [64]
-7.0 -6.861511 -6.967015 -7.0 -6.999291 -7.0 -7.0224633 -7.0476103
-7.098028 -7.0 -7.0 -6.989918 -6.938751 -6.99943 -7.0122614 -6.893056
-7.0194016 -7.0 -7.0690117 -7.0451503 -7.0958605 -7.000348 -6.996457 -6.973081
-6.9232645 -7.079373 -7.0 -7.0645676 -7.076986 -7.0404177 -7.0 -7.0
-7.0 -6.999936 -7.0 -6.9714074 -7.0 -7.0064597 -7.019433 -7.009292
-6.942321 -7.0156484 -7.0005345 -7.0361013 -7.0 -7.0 -7.0154667 -7.068341
-7.0764985 -7.0 -7.0 -7.0 -7.0139036 -7.081358 -7.048599 -7.079522
-6.977992 -7.013544 -6.9934883 -6.9699535 -7.006391 -7.017034 -7.082953 -7.0039487
00000000: 0000 e0c0 8091 dbc0 c9f1 dec0 0000 e0c0
00000010: 31fa dfc0 0000 e0c0 05b8 e0c0 0686 e1c0
00000020: 0c23 e3c0 0000 e0c0 0000 e0c0 69ad dfc0
00000030: 400a dec0 55fb dfc0 7264 e0c0 ea93 dcc0
00000040: f09e e0c0 0000 e0c0 5835 e2c0 df71 e1c0
00000050: 4a11 e3c0 da02 e0c0 fae2 dfc0 7b23 dfc0
00000060: 628b ddc0 398a e2c0 0000 e0c0 f010 e2c0
00000070: ab76 e2c0 1a4b e1c0 0000 e0c0 0000 e0c0
00000080: 0000 e0c0 7aff dfc0 0000 e0c0 c515 dfc0
00000090: 0000 e0c0 eb34 e0c0 329f e0c0 1f4c e0c0
000000a0: 7e27 dec0 3180 e0c0 6104 e0c0 be27 e1c0
000000b0: 0000 e0c0 0000 e0c0 b47e e0c0 d92f e2c0
000000c0: ad72 e2c0 0000 e0c0 0000 e0c0 0000 e0c0
000000d0: e671 e0c0 7c9a e2c0 1f8e e1c0 728b e2c0
000000e0: b64b dfc0 f46e e0c0 a8ca dfc0 dc09 dfc0
000000f0: 5b34 e0c0 8b8b e0c0 8da7 e2c0 5920 e0c0

weight_mu f4 [64, 64]
-0.06711574 0.0009179321 0.058157556 -0.06403844 0.067781955 0.0147729125 -0.049307734 -0.09748614
-0.071140304 0.13901469 -0.0032960265 -0.2624906 0.022883615 0.08843365 0.18931079 -0.2508974
0.24898732 -0.062301096 0.021396477 -0.06440079 0.23850772 -0.0060426802 -0.0125847915 0.0024242543
-0.010621286 0.10034815 -0.015241113 -0.3349024 -0.15810251 -0.34076124 0.10481955 -0.04001957
-0.014295853 -0.017794186 0.017726852 0.16679452 0.010566995 0.11599328 0.028628297 -0.073624976
0.002230545 0.21493094 0.035858974 -0.07170384 0.14468014 0.14127919 0.10604918 0.14908955
0.11971715 0.12448755 0.12710741 0.15017511 -0.3488219 0.08704888 0.05288541 0.019158337
0.16247803 -0.27252477 0.16265976 -0.014685097 0.14825632 0.00953318 -0.083797835 -0.007732345
-0.18081778 -0.07595366 -0.15530968 0.022899771 -0.06333378 0.074867085 0.14505534 -0.19484657
-0.01834636 0.07490901 -0.029875662 0.016326493 0.08869675 0.055780612 0.12949128 -0.11187097
0.16356698 -0.08693614 -0.13213342 -0.1351182 0.061121963 -0.056559965 -0.0003055483 0.12442848
0.063164964 -0.06408072 -0.11365157 -0.06035044 0.0502685 0.07611928 -0.15400143 -0.039277744
-0.14323664 0.010949212 -0.033731516 -0.17741942 0.06645253 -0.061916266 0.14138308 -0.1776337
-0.06467627 -0.031214682 0.019127406 -0.01682357 -0.04846218 -0.033488914 -0.030783042 -0.017681792
0.022047272 0.110879496 0.026011111 -0.10728294 -0.04222027 0.0038342113 0.16488124 -0.05385583
-0.11192628 -0.09379921 -0.059623223 -0.035488404 0.0046502845 -0.0061818063 0.056890056 -0.04737541
0.094144024 0.0078122607 0.123856 0.15028813 0.064053245 0.040786244 0.041730005 -0.06796171
0.07904131 -0.036705106 0.060422592 -0.31385803 0.14353858 -0.018878413 0.12645212 -0.2449931
-0.008527543 0.06681801 -0.15528528 -0.025282595 0.15409482 0.08766526 -0.10805732 0.08928994
0.1607159 -0.098812215 0.15240762 -0.13799384 -0.17534229 0.034559738 0.17456584 0.00023959039
0.008401616 -0.0688417 0.072821505 0.11244572 0.043714732 0.14644563 0.13270503 -0.047274105
0.15075883 0.19724815 -0.016826155 0.024906589 0.122368805 0.25282133 0.007229117 0.1924089
0.047141865 0.18411267 0.002811979 0.05929997 -0.18875453 0.026207041 0.06995474 -0.091828346
0.1570611 -0.23983803 0.07430274 0.015273647 -0.047501884 -0.06581342 -0.041832827 0.031838812
-0.099476494 0.08861286 -0.28113762 0.113380365 -0.015020153 0.038817596 -0.0879461 0.046818145
0.046590142 -0.0887646 -0.024977675 -0.20552737 -0.0841815 -0.088282265 -0.18238848 0.15247123
-0.06518216 0.17361048 0.13672797 -0.094796985 -0.60706544 0.19964814 0.15275532 -0.20020638
-0.3392511 0.03970131 -0.099992946 -0.26335552 -0.21771549 0.10163904 -0.041899864 0.06684341
0.08253366 0.14566475 0.050581254 -0.1638932 -0.107758656 -0.07655884 0.032194134 -0.004571549
0.10743187 -0.4699392 -0.12134063 -0.23886487 -0.09870575 0.012303037 0.08993718 0.042481508
-0.26561373 -0.055428967 0.007958505 -0.1634389 -0.3106144 -0.24794301 -0.31024763 -0.06200293
-0.24709134 0.14263421 -0.16736384 -0.07195719 -0.24156818 -0.040741183 0.014978674 0.049732763
00000000: fa73 89bd 61a1 703a 9e36 6e3d 9626 83bd
00000010: 44d1 8a3d 160a 723c e8f6 49bd d0a6 c7bd
00000020: 02b2 91bd de59 0e3e 2602 58bb 2b65 86be
00000030: 6b76 bb3c b41c b53d b0da 413e a075 80be
00000040: 88f6 7e3e 6f2f 7fbd aa47 af3c 90e4 83bd
00000050: 5e3b 743e ad01 c6bb 7130 4ebc 3de0 1e3b
00000060: e704 2ebc 5583 cd3d dcb5 79bc 5478 abbe
00000070: a0e5 21be 4278 aebe a2ab d63d 90eb 23bd
00000080: 2739 6abc 1dc5 91bc e737 913c 2fcc 2a3e
00000090: 3021 2d3c e38d ed3d e485 ea3c b1c8 96bd
000000a0: 562e 123b db16 5c3e dce0 123d 76d9 92bd
000000b0: 0827 143e 7eab 103e 5030 d93d eeaa 183e
000000c0: 442e f53d 54f3 fe3d 7228 023e 81c7 193e
000000d0: c998 b2be af46 b23d 5f9e 583d f2f1 9c3c
000000e0: a460 263e 5e88 8bbe 4890 263e c399 70bc
000000f0: 81d0 173e 0e31 1c3c 339e abbd 9c5f fdbb
00000100: 4c28 39be 988d 9bbd 8009 1fbe 4d98 bb3c
00000110: 24b5 81bd ea53 993d 6389 143e dc85 47be
00000120: 1b4b 96bc e569 993d cebd f4bc 23bf 853c
00000130: a4a6 b53d 367a 643d 5d99 043e 9b1c e5bd
00000140: 1a7e 273e 930b b2bd fc4d 07be 6d5c 0abe
00000150: 065b 7a3d 6cab 67bd 0032 a0b9 5cd4 fe3d
00000160: a25c 813d c13c 83bd 28c2 e8bd 0632 77bd
00000170: 58e6 4d3d 6de4 9b3d 8db2 1dbe b3e1 20bd
00000180: a0ac 12be 5364 333c 0f2a 0abd 70ad 35be
00000190: 4418 883d e99b 7dbd bac6 103e 9ce5 35be
000001a0: fe74 84bd efb5 ffbc 14b1 9c3c 95d1 89bc
000001b0: 4780 46bd ac2b 09bd b82c fcbc 68d9 90bc
000001c0: 7b9c b43c ca14 e33d 4115 d53c 28b7 dbbd
000001d0: 29ef 2cbd 6447 7b3b a1d6 283e ee97 5cbd
000001e0: 9b39 e5bd cd19 c0bd 7b37 74bd 4a5c 11bd
000001f0: 6a61 983b c090 cabb 8c05 693d b80c 42bd
00000200: 95ce c03d fefd ff3b 37a8 fd3d 22e5 193e
00000210: 592e 833d 7a0f 273d 15ed 2a3d 822f 8bbd
00000220: 69e0 a13d 1858 16bd ae7d 773d 00b2 a0be
00000230: c7fb 123e e7a6 9abc aa7c 013e 79df 7abe
00000240: 1cb7 0bbc e1d7 883d 1b03 1fbe 721d cfbc
00000250: 08cb 1d3e d889 b33d 284d ddbd a5dd b63d
00000260: b592 243e 0f5e cabd be10 1c3e 424e 0dbe
00000270: ee8c 33be 838e 0d3d 63c1 323e 8e3a 7b39
00000280: eea6 093c e1fc 8cbd 7123 953d f149 e63d
00000290: 380e 333d d8f5 153e d4e3 073e 7ea2 41bd
000002a0: 8660 1a3e 6bfb 493e 01d7 89bc e708 cc3c
000002b0: 7f9c fa3d cc71 813e 3be2 ec3b d706 453e
000002c0: d417 413d 0888 3c3e 2e49 383b 86e4 723d
000002d0: de48 41be 26b0 d63c 6e44 8f3d 8010 bcbd
000002e0: a0d4 203e 1a98 75be 092c 983d 523e 7a3c
000002f0: 5691 42bd 30c9 86bd e658 2bbd 6a69 023d
00000300: 55ba cbbd a97a b53d 45f1 8fbe f733 e83d
00000310: 1617 76bc 33ff 1e3d 161d b4bd 62c4 3f3d
00000320: 4ed5 3e3d 37ca b5bd fb9d ccbc c475 52be
00000330: 5a67 acbd 55cd b4bd 0cc4 3abe 6b21 1c3e
00000340: 397e 85bd f2c6 313e 6b02 0c3e ec24 c2bd
00000350: a468 1bbf 9070 4c3e e46b 1c3e e702 4dbe
00000360: 52b2 adbe d79d 223d 1ac9 ccbd 89d6 86be
00000370: cff0 5ebe 2128 d03d 319f 2bbd 33e5 883d
00000380: 6807 a93d 2429 153e 4a2e 4f3d 9ed3 27be
00000390: 92b0 dcbd e2ca 9cbd ffdd 033d efcc 95bb
000003a0: 3e05 dc3d df9b f0be 7081 f8bd fe98 74be
000003b0: 3e26 cabd ad92 493c fc30 b83d 1701 2e3d
000003c0: 86fe 87be 7c09 63bd 6464 023c 875c 27be
000003d0: da08 9fbe c6e4 7dbe c7d8 9ebe c9f6 7dbd
000003e0: 8305 7dbe b40e 123e 6d61 2bbe 4b5e 93bd
000003f0: a65d 77be 3ae0 26bd 1d69 753c 95b4 4b3d

weight_log_sigma f4 [64, 64]
-3.5228786 -3.5431023 -3.616413 -3.5228786 -3.5228786 -3.5228786 -3.5880296 -3.4731128
-3.4727178 -3.5228786 -3.5228786 -3.5228786 -3.4688256 -3.5232403 -3.526363 -3.5645785
-3.4954581 -3.5228786 -3.4591231 -3.5379403 -3.6616662 -3.5726385 -3.5228786 -3.4735286
-3.5542777 -3.4785998 -3.5228786 -3.610464 -3.4803276 -3.5641525 -3.5228786 -3.5228786
-3.5228786 -3.5229301 -3.5228786 -3.5424333 -3.5228786 -3.4659128 -3.5228786 -3.5396607
-3.536194 -3.6320662 -3.5227954 -3.495088 -3.5228786 -3.5228786 -3.4942415 -3.5228786
-3.6157925 -3.5228786 -3.5228786 -3.5228786 -3.5228786 -3.4389036 -3.5530002 -3.5464745
-3.6317556 -3.599328 -3.5279996 -3.5139534 -3.5547285 -3.5228786 -3.470499 -3.5228786
-3.5228786 -3.489916 -3.522936 -3.5228786 -3.5228786 -3.5228786 -3.5228786 -3.543791
-3.410824 -3.5228786 -3.5228786 -3.5632844 -3.5228786 -3.5228786 -3.5296435 -3.5242364
-3.5228786 -3.5228786 -3.5333586 -3.5228786 -3.517764 -3.5720553 -3.5228786 -3.5207436
-3.5199058 -3.5228786 -3.5228786 -3.5080209 -3.4738958 -3.4696157 -3.5228786 -3.5228786
-3.5228786 -3.5228786 -3.5228786 -3.521797 -3.5228786 -3.5194247 -3.5228786 -3.5228786
-3.5120497 -3.5162919 -3.5228786 -3.5230563 -3.5228786 -3.5228786 -3.5366616 -3.5279408
-3.5233526 -3.5228786 -3.5228786 -3.5228786 -3.4861188 -3.5228786 -3.5163677 -3.5072756
-3.5228794 -3.4949598 -3.5228786 -3.5228786 -3.5228786 -3.5228786 -3.5446005 -3.5228786
-3.5228786 -3.5789278 -3.576423 -3.5228786 -3.5228786 -3.5228786 -3.5470905 -3.578316
-3.5216048 -3.5228786 -3.5228786 -3.5228786 -3.569714 -3.522201 -3.6262562 -3.5574272
-3.5228786 -3.5228786 -3.5850782 -3.503219 -3.4580152 -3.5469394 -3.5228786 -3.4831185
-3.517817 -3.5533333 -3.5228786 -3.482222 -3.4905062 -3.5926442 -3.5228786 -3.5228786
-3.5228786 -3.5229423 -3.5228786 -3.5801227 -3.5228786 -3.5210702 -3.5234382 -3.474143
-3.549932 -3.543138 -3.5226002 -3.5660992 -3.5228786 -3.5228786 -3.5401378 -3.5228786
-3.6038585 -3.5228786 -3.5228786 -3.5228786 -3.5228786 -3.5666575 -3.5395415 -3.524415
-3.561884 -3.614647 -3.5193524 -3.541518 -3.5489328 -3.5228786 -3.544678 -3.5228786
-3.5228786 -3.523095 -3.4631968 -3.5228786 -3.5228786 -3.5228786 -3.5465066 -3.5505342
-3.5838249 -3.5228786 -3.5228786 -3.5044513 -3.5306292 -3.5228553 -3.552649 -3.6625085
-3.4796648 -3.5228786 -3.5065393 -3.5193174 -3.6042302 -3.5135014 -3.5322645 -3.6273198
-3.538586 -3.5280898 -3.5228786 -3.6554492 -3.7002382 -3.6060746 -3.5228786 -3.5228786
-3.5228786 -3.5228984 -3.5228786 -3.5700247 -3.5228786 -3.5169342 -3.5466044 -3.5228786
-3.591921 -3.5184743 -3.5228786 -3.5292366 -3.5228786 -3.5228786 -3.5200582 -3.5318832
-3.5355704 -3.5228786 -3.5228786 -3.5228786 -3.5354207 -3.5229225 -3.5553594 -3.5344741
-3.5568233 -3.6681564 -3.5209594 -3.516822 -3.5166886 -3.5405896 -3.5364556 -3.5228786
00000000: d876 61c0 30c2 62c0 5073 67c0 d876 61c0
00000010: d876 61c0 d876 61c0 47a2 65c0 7b47 5ec0
00000020: 0241 5ec0 d876 61c0 d876 61c0 d876 61c0
00000030: 3d01 5ec0 c57c 61c0 eeaf 61c0 0e22 64c0
00000040: 96b5 5fc0 d876 61c0 4662 5dc0 9d6d 62c0
00000050: bd58 6ac0 1ca6 64c0 d876 61c0 4b4e 5ec0
00000060: 4979 63c0 61a1 5ec0 d876 61c0 d811 67c0
00000070: b0bd 5ec0 131b 64c0 d876 61c0 d876 61c0
00000080: d876 61c0 b077 61c0 d876 61c0 3ab7 62c0
00000090: d876 61c0 84d1 5dc0 d876 61c0 cd89 62c0
000000a0: 0151 62c0 c673 68c0 7b75 61c0 86af 5fc0
000000b0: d876 61c0 d876 61c0 a7a1 5fc0 d876 61c0
000000c0: 2569 67c0 d876 61c0 d876 61c0 d876 61c0
000000d0: d876 61c0 ff16 5cc0 5b64 63c0 70f9 62c0
000000e0: af6e 68c0 645b 66c0 bfca 61c0 9de4 60c0
000000f0: ac80 63c0 d876 61c0 a81c 5ec0 d876 61c0
00000100: d876 61c0 c95a 5fc0 c977 61c0 d876 61c0
00000110: d876 61c0 d876 61c0 d876 61c0 79cd 62c0
00000120: f14a 5ac0 d876 61c0 d876 61c0 da0c 64c0
00000130: d876 61c0 d876 61c0 aee5 61c0 178d 61c0
00000140: d876 61c0 d876 61c0 8c22 62c0 d876 61c0
00000150: 0c23 61c0 8e9c 64c0 d876 61c0 dd53 61c0
00000160: 2346 61c0 d876 61c0 d876 61c0 6a83 60c0
00000170: 4f54 5ec0 2f0e 5ec0 d876 61c0 d876 61c0
00000180: d876 61c0 d876 61c0 d876 61c0 1f65 61c0
00000190: d876 61c0 413e 61c0 d876 61c0 d876 61c0
000001a0: 6cc5 60c0 ed0a 61c0 d876 61c0 c179 61c0
000001b0: d876 61c0 d876 61c0 aa58 62c0 c8c9 61c0
000001c0: 9c7e 61c0 d876 61c0 d876 61c0 d876 61c0
000001d0: 921c 5fc0 d876 61c0 2b0c 61c0 3477 60c0
000001e0: db76 61c0 6cad 5fc0 d876 61c0 d876 61c0
000001f0: d876 61c0 d876 61c0 bcda 62c0 d876 61c0
00000200: d876 61c0 270d 65c0 1de4 64c0 d876 61c0
00000210: d876 61c0 d876 61c0 8803 63c0 2103 65c0
00000220: f961 61c0 d876 61c0 d876 61c0 d876 61c0
00000230: 3276 64c0 be6b 61c0 9514 68c0 e3ac 63c0
00000240: d876 61c0 d876 61c0 ec71 65c0 bd34 60c0
00000250: 1f50 5dc0 0e01 63c0 d876 61c0 6aeb 5ec0
00000260: ea23 61c0 d069 63c0 d876 61c0 badc 5ec0
00000270: 7464 5fc0 e2ed 65c0 d876 61c0 d876 61c0
00000280: d876 61c0 e377 61c0 d876 61c0 bb20 65c0
00000290: d876 61c0 3759 61c0 0380 61c0 5c58 5ec0
000002a0: 1632 63c0 c6c2 62c0 4872 61c0 f83a 64c0
000002b0: d876 61c0 d876 61c0 9e91 62c0 d876 61c0
000002c0: 9ea5 66c0 d876 61c0 d876 61c0 d876 61c0
000002d0: d876 61c0 1e44 64c0 d987 62c0 0490 61c0
000002e0: e8f5 63c0 6056 67c0 123d 61c0 3ba8 62c0
000002f0: b721 63c0 d876 61c0 01dc 62c0 d876 61c0
00000300: d876 61c0 637a 61c0 04a5 5dc0 d876 61c0
00000310: d876 61c0 d876 61c0 f7f9 62c0 f43b 63c0
00000320: 635d 65c0 d876 61c0 d876 61c0 ee48 60c0
00000330: d4f5 61c0 7676 61c0 9a5e 63c0 8a66 6ac0
00000340: d4b2 5ec0 d876 61c0 246b 60c0 7f3c 61c0
00000350: b5ab 66c0 35dd 60c0 9f10 62c0 0226 68c0
00000360: 3178 62c0 39cc 61c0 d876 61c0 e1f2 69c0
00000370: b4d0 6cc0 edc9 66c0 d876 61c0 d876 61c0
00000380: d876 61c0 2b77 61c0 d876 61c0 497b 64c0
00000390: d876 61c0 7315 61c0 91fb 62c0 d876 61c0
000003a0: 09e2 65c0 af2e 61c0 d876 61c0 03df 61c0
000003b0: d876 61c0 d876 61c0 a248 61c0 600a 62c0
000003c0: c946 62c0 d876 61c0 d876 61c0 d876 61c0
000003d0: 5544 62c0 9077 61c0 028b 63c0 d334 62c0
000003e0: fea2 63c0 13c3 6ac0 6657 61c0 9d13 61c0
000003f0: 6d11 61c0 0599 62c0 4a55 62c0 d876 61c0

bias_mu f4 [64]
0.16894998 -0.026438182 0.061443083 0.2523301 -0.11645551 0.0009160583 -0.0558832 -0.07836117
-0.31868494 -0.04797976 -0.0290522 -0.11191461 -0.08895716 -0.10287826 -0.13482356 0.2298403
-0.016648147 -0.09245299 0.07670322 0.079104275 0.051414758 0.12027358 0.23766394 -0.1301063
0.023359546 -0.3872982 0.5000672 -0.05212333 -0.086482756 0.053115673 -0.10095801 0.19474748
0.015198415 -0.085793346 -0.1285585 -0.036729913 0.049793966 0.07313472 0.0950515 -0.19411895
-0.1363521 -0.06914508 0.05279779 -0.2083304 -0.1617277 -0.032477222 -0.10763403 -0.117146194
0.14906827 -0.018760726 0.20991313 -0.031655055 -0.090154566 -0.03661222 -0.25214228 -0.06776701
-0.106936544 -0.12512136 0.24173488 -0.10421565 -0.28304097 0.08412589 0.30968305 -0.12631331
00000000: 3901 2d3e e394 d8bc beab 7b3d 6931 813e
00000010: 3a80 eebd a223 703a c8e5 64bd d27b a0bd
00000020: ac2a a3be 6d86 44bd e1fe edbc 7d33 e5bd
00000030: 2c2f b6bd d6b1 d2bd 300f 0abe 415b 6b3e
00000040: b261 88bc fe57 bdbd 9416 9d3d 6c01 a23d
00000050: 4898 523d ff51 f63d 2d5e 733e 963a 05be
00000060: 855c bf3c f34b c6be 6704 003f 467f 55bd
00000070: df1d b1bd d28f 593d 13c3 cebd e26b 473e
00000080: c602 793c 6cb4 afbd d7a4 03be 1b72 16bd
00000090: c2f4 4b3d a8c7 953d 5caa c23d 1ec7 46be
000000a0: e39f 0bbe f09b 8dbd 7f42 583d 9054 55be
000000b0: f29b 25be d606 05bd 3b6f dcbd 58ea efbd
000000c0: 5aa5 183e 18b0 99bc 78f3 563e bba8 01bd
000000d0: f5a2 b8bd b2f6 15bd cb18 81be 6ec9 8abd
000000e0: 8c01 dbbd d01f 00be 5989 773e 046f d5bd
000000f0: bfea 90be 324a ac3d c78e 9e3e 4758 01be

bias_log_sigma f4 [64]
-6.9901185 -7.0287123 -6.897892 -6.908567 -7.0285068 -7.035325 -7.011697 -7.0
-7.0 -6.9998856 -7.0 -7.05864 -7.0 -7.043627 -6.995643 -7.0757647
-6.969282 -6.9607496 -7.043323 -7.012965 -6.90176 -7.016403 -7.1193814 -7.01348
-7.028178 -7.0 -6.9787736 -7.1672573 -6.951405 -7.0269265 -7.0 -7.105961
-7.0132704 -6.9972754 -7.0092626 -7.0340996 -6.9534397 -7.0091214 -7.0071316 -6.9812837
-7.0 -7.0 -6.9754043 -6.991691 -7.001694 -7.0 -7.01441 -6.9908414
-7.1002517 -7.0 -6.9332647 -7.0466447 -7.0 -7.0235467 -6.8565145 -6.963166
-7.073668 -7.025425 -7.035024 -7.0078845 -7.0751762 -6.9820375 -6.995575 -7.0001726
00000000: 0daf dfc0 36eb e0c0 88bb dcc0 fb12 ddc0
00000010: 87e9 e0c0 6221 e1c0 d25f e0c0 0000 e0c0
00000020: 0000 e0c0 10ff dfc0 0000 e0c0 61e0 e1c0
00000030: 0000 e0c0 6465 e1c0 4fdc dfc0 aa6c e2c0
00000040: 5c04 dfc0 76be dec0 e762 e1c0 366a e0c0
00000050: 38db dcc0 6086 e0c0 f9d1 e3c0 6e6e e0c0
00000060: d6e6 e0c0 0000 e0c0 1d52 dfc0 2c5a e5c0
00000070: e971 dec0 95dc e0c0 0000 e0c0 0864 e3c0
00000080: b66c e0c0 aee9 dfc0 e14b e0c0 5817 e1c0
00000090: 9482 dec0 b94a e0c0 6c3a e0c0 ad66 dfc0
000000a0: 0000 e0c0 0000 e0c0 8336 dfc0 efbb dfc0
000000b0: e10d e0c0 0000 e0c0 0c76 e0c0 f9b4 dfc0
000000c0: 4335 e3c0 0000 e0c0 4edd ddc0 1d7e e1c0
000000d0: 0000 e0c0 e5c0 e0c0 9168 dbc0 42d2 dec0
000000e0: 7d5b e2c0 48d0 e0c0 eb1e e1c0 9740 e0c0
000000f0: d867 e2c0 da6c dfc0 c0db dfc0 6a01 e0c0
