UQ_assessment_1D/models_old/DEN_MCD/i1_nn64_nl4_o1_tr1_ep400_b50000_ne10_dr0.01_ns100_s36/model.pth (torch, 797690 bytes, 130 tensors)

weight f4 [32, 1]
0	0xbbf55400	-0.00748682
1	0x3fc54bfa	1.5413811
2	0xbf9333d1	-1.1500188
3	0xbf3c6680	-0.735939
4	0xbec532f4	-0.38515437
5	0x3ec70d78	0.38877463
6	0xbd0fca57	-0.035105076
7	0x3f6cb2f7	0.9246058
8	0xbe21acfb	-0.15788643
9	0x3e877b4c	0.26461256
10	0xbe900fae	-0.28136963
11	0xbe494870	-0.19656539
12	0xbf944965	-1.1584898
13	0xbfab83ad	-1.3399559
14	0xbeaf0848	-0.34186006
15	0xbc7a151a	-0.01526382
16	0x3eca6960	0.3953352
17	0x3f33e814	0.70276
18	0xbf39692b	-0.724261
19	0xbe96f6ba	-0.29485112
20	0x3e9febdd	0.31234637
21	0x3f459770	0.771842
22	0xbe8011a8	-0.2501347
23	0x3fa22b09	1.2669383
24	0xbe0b09b2	-0.13577917
25	0x3dd8b510	0.1058141
26	0x3f7c7069	0.98609024
27	0xbf635a18	-0.8880935
28	0xbf139672	-0.57651436
29	0xbea1088a	-0.31451827
30	0xbec793dc	-0.38979995
31	0x3f5675b7	0.8377337

bias f4 [32]
0	0xbf25ef1a	-0.64817965
1	0xbf2dc86f	-0.6788396
2	0xbf52fc09	-0.82415825
3	0xbf6fc276	-0.936561
4	0xbf157004	-0.5837405
5	0x3f719e96	0.9438261
6	0x3f082995	0.5318845
7	0x3f106185	0.56398803
8	0x3e067109	0.13129057
9	0xbf033f3a	-0.5126835
10	0x3d91f3e9	0.071266
11	0xbf6f069e	-0.9336947
12	0xbf447466	-0.7674011
13	0xbe92acbb	-0.28647408
14	0x3f3225ac	0.6958873
15	0x3f060bf7	0.52362007
16	0xbee311c8	-0.44349504
17	0x3db59d90	0.08867943
18	0x3f37fef6	0.71873415
19	0x3f889910	1.0671711
20	0x3ea5a8b4	0.32355273
21	0x3dafe937	0.08589404
22	0x3f237cff	0.63862604
23	0xbf28ece9	-0.65986496
24	0x3e80a7cd	0.25128022
25	0xbf467a6c	-0.7753055
26	0xbf340dca	-0.7033354
27	0xbf164eeb	-0.5871417
28	0x3f03915b	0.5139367
29	0x3eac7708	0.33684564
30	0xbf17a46a	-0.5923525
31	0x3ea37291	0.31923345

weight f4 [64, 32]
0	0x3dc6bfc5	0.09704546
1	0xbcb6c843	-0.02231229
2	0xbd93c4cd	-0.07215271
3	0x3d27c5aa	0.04095999
4	0x3de099ae	0.10966812
5	0x3dc23825	0.09483365
6	0xbe560660	-0.2090087
7	0xbe062956	-0.13101706
8	0xbc1b7a34	-0.009489585
9	0x3e15fbc4	0.14646822
10	0x3da284d5	0.07935492
11	0x3e1fb940	0.15598011
12	0xbd166b02	-0.036723144
13	0xbe7018b9	-0.23446931
14	0xbd7d4e60	-0.061842322
15	0xbe3e515c	-0.18585724
16	0xbe28b3a4	-0.16474777
17	0x3db774f6	0.089578554
18	0x3d5f681c	0.054542646
19	0xbe820ac4	-0.2539884
20	0xbd1e2637	-0.038610663
21	0xbdb8f330	-0.09030759
22	0xbdd97978	-0.106188715
23	0xbda5b9c7	-0.08092075
24	0xbc400e39	-0.011722141
25	0xbdd66fd0	-0.10470545
26	0x3d84b861	0.0648048
27	0x3c120203	0.008911612
28	0x3d3c81f1	0.04602236
29	0xbc8b2b3e	-0.016988393
30	0xbe332945	-0.17496212
31	0xbe33d11d	-0.17560239
32	0x3db4c577	0.08826726
33	0x3eb740b8	0.35791564
34	0x3ef0d9de	0.4704122
35	0xbdd0780b	-0.101791464
36	0x3e2a4b37	0.16630255
37	0x3d9b23fa	0.07575221
38	0xbd8304bd	-0.06397388
39	0xbdb48f05	-0.08816341
40	0xbde28db8	-0.11062187
41	0xbb503c12	-0.0031774086
42	0xbd8fd00a	-0.07022102
43	0xbe0ba167	-0.13635789
44	0x3e2959c5	0.1653815
45	0x3e471714	0.19442397
46	0xbde16e1f	-0.11007332
47	0x3d796e01	0.060895924
48	0xbddc508f	-0.10757553
49	0x3df3f4c2	0.11911918
50	0x3dad387a	0.08458038
51	0xbe456167	-0.19275437
52	0xbdb7ed6b	-0.08980831
53	0xbd1d7c86	-0.038448833
54	0xbc99f479	-0.018793331
55	0x3c9678ef	0.018368213
56	0x3ce52b4b	0.027974745
57	0x3c2d7d4a	0.010588953
58	0xbdfc51fd	-0.123203255
59	0x3e05b41a	0.13056985
60	0xbe12d911	-0.14340617
61	0xbe1e9a78	-0.15488613
62	0xbd354218	-0.044252485
63	0xbe004272	-0.12525347
64	0xbd7d4e71	-0.061842386
65	0x3d67d701	0.056601528
66	0xbe5e911b	-0.21735041
67	0x3d1ac6b5	0.037787158
68	0xbdebdb16	-0.11516397
69	0x3d361686	0.044455074
70	0x3e397dfb	0.18114464
71	0x3d3ddbcc	0.046352193
72	0x3d534027	0.051574852
73	0xbc79dc86	-0.015250331
74	0x3db35e64	0.08758238
75	0x3de632cf	0.1124016
76	0x3e450b1c	0.19242519
77	0xbec1567d	-0.37761298
78	0x3e638b9b	0.22221224
79	0x3d342622	0.04398168
80	0xbe229d12	-0.1588023
81	0xbda3903d	-0.07986496
82	0x3e2a9387	0.1665784
83	0x3d64f25d	0.055895198
84	0xbce9174d	-0.028453493
85	0xbd8e8268	-0.06958467
86	0xbddfd618	-0.10929507
87	0xbfdd940e	-1.7310808
88	0x3c99c6f4	0.018771626
89	0x3dc68b4f	0.0969454
90	0x3d4ec92b	0.050484817
91	0xbdeb2402	-0.11481477
92	0x3e2af030	0.16693187
93	0xbda8a84d	-0.08235226
94	0xbd1913d0	-0.03737241
95	0x3c196802	0.009363176
96	0xbd0b77e6	-0.03404989
97	0x3f8bc34e	1.0918977
98	0xbfaa4a25	-1.3303877
99	0xbe1c4c88	-0.1526357
100	0xbce29b43	-0.027661925
101	0x3d53db1c	0.05172263
102	0xbd20c2dc	-0.039248332
103	0x3decc625	0.115612306
104	0xbe8e7663	-0.27824697
105	0xbc4376c4	-0.011930171
106	0x3d82789e	0.06370662
107	0xbd93ac34	-0.072105795
108	0xbea8ed84	-0.3299371
109	0x3c89e0ef	0.01683089
110	0xbe0b6684	-0.13613325
111	0x3e1c1c32	0.1524513
112	0xbca71bea	-0.020399053
113	0xbd107531	-0.035268012
114	0x3e002aca	0.12516323
115	0xbde102b2	-0.10986842
116	0x3d8447d9	0.06459016
117	0x3c84c2df	0.016206203
118	0x3e24a978	0.16080272
119	0x3e9ebb61	0.31002334
120	0x3dc1edfe	0.094692215
121	0x3d7fb6e2	0.06243027
122	0xbda5271c	-0.080641
123	0xbe1061d0	-0.14099813
124	0xbe90e106	-0.2829668
125	0x3dd6a569	0.10480768
126	0x3e0fb9b3	0.14035682
127	0x3e3304cc	0.17482299
128	0xbdff5fcd	-0.124694444
129	0xbd55b0de	-0.052170627
130	0xbdff36a2	-0.12461592
131	0xbdc74beb	-0.09731277
132	0xbdd2f640	-0.10300875
133	0x39bb6b80	0.00035747513
134	0xbdd7be5d	-0.10534356
135	0xbd82e430	-0.063911796
136	0x3bf3af42	0.007436664
137	0x3de960e3	0.11395433
138	0xbe08d60e	-0.13362905
139	0xbdf88b42	-0.12135936
140	0xbdd238d0	-0.102647424
141	0x3dfd6728	0.12373191
142	0xbdfd2206	-0.12360005
143	0x3db66202	0.08905412
144	0x3d82ea79	0.06392378
145	0xbd1a4c66	-0.037670515
146	0xbd7b6018	-0.06137094
147	0xbdc28fa1	-0.09500051
148	0xbd1b235b	-0.037875514
149	0xbdcda98a	-0.10042103
150	0xbd7b12ba	-0.061297156
151	0xbd199922	-0.037499554
152	0xbe4b172f	-0.19833063
153	0xbdbdc17f	-0.09265422
154	0x3da959d9	0.0826909
155	0xbe12e7d8	-0.14346254
156	0xbc4ff913	-0.012693661
157	0x3deb2667	0.11481934
158	0x3d82c823	0.06385829
159	0xbd617c0e	-0.05504995
160	0xbe1cdf87	-0.15319644
161	0x3f9735f1	1.1813337
162	0xbe316bbd	-0.17326255
163	0xbd4d8a28	-0.050180584
164	0xbd72f095	-0.05931147
165	0xbcb94a87	-0.022618545
166	0xbd6f491e	-0.05841934
167	0x3e5b58be	0.21420571
168	0xbd731bfb	-0.059352856
169	0x3e222341	0.15833761
170	0x3d29f978	0.041497678
171	0xbde4e2ca	-0.11176069
172	0x3c050e6d	0.008121115
173	0xbb6ff695	-0.003661548
174	0xbdb41762	-0.087935224
175	0x3de862e9	0.113469906
176	0x3d6f15a9	0.058370266
177	0x3e545bff	0.20738219
178	0xbdef8907	-0.11696058
179	0x3d66968c	0.056295916
180	0x3e21be19	0.15795173
181	0xbda5c1d1	-0.08093608
182	0x3e3a7e27	0.18212186
183	0x3ed5c061	0.41748336
184	0x3c610163	0.013733241
185	0xbcf635e8	-0.030055001
186	0xbe0df7bc	-0.13864034
187	0xbd199a94	-0.037500933
188	0x3c837fb3	0.016052103
189	0x3bce7c06	0.006301406
190	0xbdd6f0b2	-0.10495128
191	0xbcc336c4	-0.023829825
192	0xbe336ac1	-0.17521192
193	0x3eadcb70	0.33944273
194	0x3f8ec584	1.1154027
195	0xbdf19a5d	-0.117970206
196	0xbdd0922c	-0.1018413
197	0x3e38a14f	0.18030284
198	0x3e253f42	0.16137412
199	0x3e549339	0.20759286
200	0x3e073916	0.1320537
201	0xbd71d00a	-0.059036292
202	0x3d00a1f3	0.031404447
203	0x3d55ea04	0.052225128
204	0x3e0f3763	0.13985972
205	0xbd6eb7bf	-0.058280703
206	0xbac43dd3	-0.0014972038
207	0xbc032955	-0.00800546
208	0xbe2b25ef	-0.1671369
209	0x3ddccbeb	0.10781082
210	0xbc9488bc	-0.018131606
211	0xbda2ba0f	-0.07945644
212	0x3e6a687d	0.22891422
213	0xbd3c3fb7	-0.0459592
214	0x3d675902	0.05648137
215	0x3e10fe6e	0.14159557
216	0x3db0131f	0.08597397
217	0xbdf39bf5	-0.11894981
218	0xbda4b267	-0.0804184
219	0x3e1277ab	0.14303462
220	0x3dcc7a9b	0.09984323
221	0x3e67ab0d	0.22623844
222	0xbd72bd79	-0.059262726
223	0x3dff4cae	0.12465797
224	0xbd25944a	-0.040424623
225	0xbc00cd5c	-0.0078614615
226	0xbe328c56	-0.17436346
227	0x3d74e235	0.05978604
228	0x3d64edb7	0.055890765
229	0xbd4245d6	-0.047429882
230	0xbda9acfb	-0.082849465
231	0xbe1c2009	-0.15246595
232	0x3da28664	0.07935789
233	0xbe06c152	-0.13159683
234	0x3ceedd7b	0.029158344
235	0xbd73793b	-0.059441786
236	0xbe1f78c9	-0.1557342
237	0xbd0fb13d	-0.035081137
238	0xbe165887	-0.14682208
239	0xbb1ed04f	-0.0024233048
240	0x3d0e31e7	0.03471556
241	0xbe3f4ffd	-0.18682857
242	0xbc60e97f	-0.013727545
243	0x3d039eee	0.03213399
244	0x3cdc6a4c	0.026906155
245	0xbd9f6b05	-0.07784084
246	0xbe40b288	-0.18818104
247	0xbcdf3d2a	-0.027250845
248	0x3c95bff8	0.018280014
249	0xbd841981	-0.06450177
250	0x3d896c4c	0.06710109
251	0x3d51be75	0.051207025
252	0xbe0535cb	-0.13008802
253	0xbd29bb1e	-0.041438214
254	0x3d95b3df	0.07309698
255	0xbd2ab3b3	-0.04167528

bias f4 [64]
0	0xbd8cf23a	-0.068821386
1	0x3de99e52	0.1140715
2	0x3d9abc46	0.075554416
3	0x3bb258b8	0.005442705
4	0xbe56c1de	-0.20972392
5	0xbd1526b6	-0.03641387
6	0x3e50423e	0.2033777
7	0xbd4a3746	-0.04936912
8	0xbd876a89	-0.06612117
9	0x3e062836	0.13101277
10	0xbd42a9ae	-0.0475251
11	0xbd1f7c94	-0.038937166
12	0xbde8f324	-0.113745004
13	0x3e338dc8	0.17534554
14	0x3e2bc53d	0.16774459
15	0x3d9dd709	0.0770703
16	0x3dc23baf	0.0948404
17	0xbe5f460e	-0.21804067
18	0x3b8da685	0.004322829
19	0x3dd95dd6	0.10613601
20	0xbde726be	-0.11286686
21	0xbc41ba40	-0.011824191
22	0xbe33db57	-0.1756414
23	0x3e1542ba	0.14576235
24	0x3e564528	0.20924819
25	0xbe54ccee	-0.207813
26	0x3e68d21d	0.22736402
27	0x3e1e8a21	0.1548238
28	0xbd477265	-0.04869308
29	0x3de12ca8	0.10994846
30	0xbd7bb2ee	-0.061449938
31	0xbd19419f	-0.037416097
32	0xbe13dfe0	-0.1444087
33	0xbd964edd	-0.07339261
34	0x3ddf2fad	0.10897765
35	0xbdd2f733	-0.10301056
36	0xbe691333	-0.2276123
37	0x3d44057c	0.047856793
38	0x3d97b11c	0.07406828
39	0x3d6531bf	0.055955645
40	0x3e2e0c36	0.16996846
41	0x3db30d75	0.08742801
42	0x3dd93bfb	0.106071435
43	0xbe492e6b	-0.19646613
44	0x3e0a3368	0.13496172
45	0xbe71b002	-0.23602298
46	0xbe1b6605	-0.15175636
47	0xbe38ecec	-0.18059129
48	0xbd68b69e	-0.056814782
49	0x3d9c830c	0.07642183
50	0xbdd9dcf9	-0.1063785
51	0xbce806ce	-0.028323557
52	0x3d24c014	0.040222242
53	0xbddce53c	-0.107859105
54	0x3de61ce4	0.11235979
55	0x3cda6156	0.026657742
56	0x3a95b3f5	0.0011421429
57	0x3d447e80	0.047972202
58	0xbe4700eb	-0.19433944
59	0xbdb6cd77	-0.08925908
60	0x3e6095d4	0.21932155
61	0xbca7766d	-0.020442212
62	0xbe71c67b	-0.2361087
63	0x3e1c0d16	0.15239367

weight f4 [64, 64]
0	0x3d1c3991	0.038140837
1	0x3d1c5c2e	0.038173847
2	0x3cabf6c4	0.02099169
3	0x3d789708	0.06069091
4	0xbc704ba2	-0.01466647
5	0x3daa9b9c	0.083304614
6	0x3e190c8b	0.14946191
7	0xbd8a706f	-0.06759726
8	0x3c1eb5e7	0.009686924
9	0x3e32902a	0.17437807
10	0x3dcc07bc	0.09962413
11	0x3c5621fa	0.013069624
12	0xbc83897e	-0.016056772
13	0x3d191a13	0.037378382
14	0x3d1d9c33	0.03847904
15	0x3de61b7e	0.112357125
16	0xbde26aa4	-0.11055496
17	0x3c09eadc	0.008417811
18	0x3dcfe00f	0.10150158
19	0x3dcd6387	0.10028749
20	0x3ca73028	0.020408705
21	0xbcab9a47	-0.020947589
22	0xbda10550	-0.078623414
23	0x3bd93151	0.0066281934
24	0x3e196cb6	0.14982876
25	0xbc91ac28	-0.017782286
26	0x3e306b05	0.17228325
27	0x3df64aa9	0.12025959
28	0xbd637bb7	-0.055537906
29	0x3e083a88	0.13303578
30	0xbd5689a2	-0.05237735
31	0x3d97f240	0.074192524
32	0xbe0d717c	-0.13812822
33	0xbe3a81e3	-0.1821361
34	0x3dbba2fb	0.091619454
35	0xbde4d767	-0.11173897
36	0x3e1a04e8	0.15040934
37	0xbccd1eca	-0.025039095
38	0x3e27bd3f	0.16380785
39	0x3e0d3ed3	0.13793497
40	0x3e3b149f	0.18269585
41	0x3cdc9a55	0.02692906
42	0xbb80b64c	-0.0039279815
43	0xbcbb5ac5	-0.02287043
44	0x3e39f14e	0.18158457
45	0xbb0b86f4	-0.0021290155
46	0xbf83f1ea	-1.0308201
47	0xbd82c35b	-0.06384917
48	0xbdaa64fb	-0.08320042
49	0xbceb73c7	-0.02874173
50	0x3e47223b	0.19446652
51	0xbc3e8374	-0.011628021
52	0x3eb8149c	0.35953224
53	0x3c8e7364	0.017389007
54	0x3c67c65a	0.014146412
55	0x3d806276	0.0626878
56	0x3dd94d3c	0.106104344
57	0xbdaa6e1f	-0.08321785
58	0xbd84891e	-0.064714655
59	0x3db410f4	0.08792296
60	0x3e5194cb	0.20466916
61	0x3e0712bb	0.13190739
62	0x3dbdacca	0.092614725
63	0x3df55405	0.11978916
64	0x3d0362b9	0.03207657
65	0xbc9b2569	-0.018938737
66	0xbd38a61c	-0.04508029
67	0xbdb813f3	-0.0898818
68	0xbd01e7fc	-0.03171538
69	0x3e2f5b0d	0.17124577
70	0xbd5123f5	-0.051059682
71	0x3d466771	0.048438493
72	0xbb0e7dcc	-0.0021742461
73	0xbdbfcc06	-0.09365086
74	0x3d94e388	0.07269961
75	0x3dec694e	0.11543523
76	0x3d979b38	0.074026525
77	0x3e053d19	0.13011588
78	0x3dc8675d	0.0978534
79	0xbcef457b	-0.029207936
80	0x3e092d87	0.13396274
81	0xbd2a4e08	-0.041578323
82	0xbd296932	-0.041360088
83	0x3e01c13f	0.12671374
84	0xbb7af21a	-0.0038291276
85	0xbdc89ba3	-0.0979531
86	0x3d3ab75c	0.04558502
87	0x3d668624	0.05628027
88	0x3e1d6218	0.15369451
89	0xbe0e1881	-0.13876535
90	0x3da25ef8	0.0792827
91	0x3d7e2d85	0.06205513
92	0xbca4a1bf	-0.020096658
93	0xbc8be485	-0.01707674
94	0x3ddf56cc	0.10905227
95	0x3d8d65fe	0.06904219
96	0xbcc9e77e	-0.024646517
97	0xbd35d4dc	-0.04439245
98	0x3db4fa7a	0.08836837
99	0x3ca85bd0	0.020551592
100	0xbdb2f4b9	-0.087380834
101	0x3c943108	0.018089786
102	0xbc49e84d	-0.012323451
103	0xbc44f5c6	-0.012021488
104	0x3d663665	0.05620422
105	0x3d1baa1c	0.038004026
106	0xbcc4e82e	-0.024036493
107	0x3d3afeb5	0.045653064
108	0x3dd96a4e	0.10615979
109	0xbe1fb38c	-0.15595835
110	0xbfa027ea	-1.2512181
111	0x3cadf5d3	0.021235382
112	0xc00276b5	-2.0384953
113	0xbc5c0d25	-0.013430868
114	0x3d096751	0.033545796
115	0x3db80737	0.08985751
116	0x3e76b4f3	0.24092464
117	0x3d7f51cc	0.062333867
118	0x3d86d83f	0.065842144
119	0x3d0e533b	0.034747344
120	0x3cb36180	0.021897078
121	0x3dd904e4	0.10596636
122	0x3e14cad6	0.14530501
123	0xbdf29026	-0.118439004
124	0xbd189ff8	-0.037261933
125	0xbd1b7a86	-0.037958644
126	0xbd4c21a8	-0.049836785
127	0x3e060029	0.13085999
128	0xbe300065	-0.1718765
129	0xbde56172	-0.11200227
130	0x3c9ae391	0.01890734
131	0xbd972d70	-0.073817134
132	0x3dbb1a0a	0.09135826
133	0xbc6ded45	-0.0145219015
134	0xbcb4fd5b	-0.022093466
135	0x3d3bccba	0.04584954
136	0xbe2d51c8	-0.16925728
137	0x3d1beb7c	0.038066372
138	0xbc53e656	-0.012933334
139	0xbdab8c4e	-0.0837637
140	0x3cf926c8	0.030414
141	0x3c98a46e	0.018633094
142	0xbdd44374	-0.10364428
143	0xbd893bb5	-0.06700841
144	0xbd7163dc	-0.058933124
145	0x3ddfdb16	0.10930459
146	0x3d5daa0a	0.05411724
147	0xbd88d129	-0.06680519
148	0xbe2842d7	-0.16431747
149	0xbd79d81b	-0.06099711
150	0x3c074ff0	0.008258805
151	0x3cf66eb7	0.03008209
152	0xbd4a8ac8	-0.04944876
153	0x3d1503fc	0.036380753
154	0xbca653ca	-0.020303626
155	0xbd91413a	-0.07092519
156	0xbd9ecb1c	-0.07753584
157	0xbde4ce1e	-0.11172126
158	0xbd5f0930	-0.05445212
159	0xbc71bc43	-0.014754358
160	0xbc119f60	-0.008888096
161	0x3df87d94	0.12133327
162	0xbd9e57c1	-0.077315815
163	0xbda70c02	-0.08156587
164	0x3caaaaf8	0.020833477
165	0xbdb5999a	-0.08867188
166	0xbc8c6128	-0.017136171
167	0x3df80d1a	0.12111874
168	0xbd69b4b0	-0.057057083
169	0x3d643cf4	0.055722192
170	0xbd16a3d4	-0.036777332
171	0xbd3e79a4	-0.046502724
172	0x3d1c5cc0	0.03817439
173	0xbd91d332	-0.071203604
174	0x3b878620	0.004135862
175	0x3ce62b28	0.02809675
176	0x3d65cd98	0.056104273
177	0xbe2cdaa6	-0.16880283
178	0x3bc8eea0	0.006131962
179	0xbdafca7f	-0.08583545
180	0x3da5fb56	0.08104579
181	0xbc3b002a	-0.011413613
182	0xbb5cea92	-0.003370915
183	0x3cb1a8d5	0.02168695
184	0xbda6d234	-0.08145562
185	0xbc0336e0	-0.008008689
186	0x3dcd607e	0.1002817
187	0xbdce554e	-0.10074864
188	0xbe0f3ad5	-0.13987286
189	0xbd358f54	-0.04432614
190	0xbd4ad13c	-0.049515948
191	0xbd3db148	-0.046311647
192	0x3e26fe98	0.16308057
193	0xbcb7084f	-0.022342829
194	0xbd53773b	-0.05162738
195	0xbcc78f77	-0.024360402
196	0x3deb1a16	0.11479585
197	0x3cc9859f	0.024599848
198	0xbe0db220	-0.1383748
199	0x3dce6961	0.10078693
200	0x3db4a989	0.08821399
201	0xbdbb8f2a	-0.09158166
202	0x3e33f8fd	0.1757545
203	0x3f3958c8	0.72401094
204	0x3dde82ea	0.108648136
205	0x3df718e2	0.12065293
206	0x3c9a2c7c	0.01882004
207	0x3d17475d	0.03693329
208	0x3e150c95	0.14555581
209	0x3d12bb75	0.035823304
210	0xbce43a34	-0.027859785
211	0xbd96363d	-0.07334564
212	0xbcf09244	-0.02936662
213	0x3dfcbf9b	0.12341233
214	0xbd86eb3e	-0.06587838
215	0xbd25f7f6	-0.040519677
216	0xbd1b4033	-0.037903022
217	0x3d222a18	0.039590925
218	0x3d3dc7bc	0.04633306
219	0xbe86fa2a	-0.26362735
220	0xbe4361e1	-0.19080307
221	0x3e14efb8	0.1454457
222	0xbe18efc2	-0.1493521
223	0xbcfc3ba4	-0.030790158
224	0x3df76046	0.120789096
225	0xbd974398	-0.07385939
226	0xbe3d0989	-0.18460669
227	0x3dfc07f9	0.12306208
228	0xbcd54c58	-0.02603738
229	0x3db6a26f	0.089177005
230	0xbd855be8	-0.0651167
231	0xbd446764	-0.047950163
232	0xbd4db556	-0.050221764
233	0x3d020fe6	0.031753443
234	0xbda38bd5	-0.07985655
235	0x3e3b86bd	0.18313117
236	0x3d7f8909	0.062386546
237	0xbd440288	-0.047853976
238	0x3f1f556c	0.6223972
239	0xbe0e8924	-0.13919502
240	0xbdaf25c4	-0.08552125
241	0x3d380457	0.044926014
242	0xbd071996	-0.032983385
243	0x3e12acf8	0.14323795
244	0xbeef56b2	-0.4674583
245	0xbd67c229	-0.05658165
246	0xbd85de93	-0.06536593
247	0x3e01c927	0.1267439
248	0xbd841b3c	-0.06450507
249	0x3d0fd62e	0.035116367
250	0xbde25e90	-0.110531926
251	0xbd938b70	-0.0720433
252	0x3d4a9dee	0.04946702
253	0x3da8423d	0.08215759
254	0xbda12180	-0.07867718
255	0x3d9be94b	0.076128565

bias f4 [64]
0	0x3dfcac46	0.12337546
1	0xbd62e039	-0.055389617
2	0xbe32aa16	-0.17447695
3	0x3e1a603c	0.15075773
4	0xbd38fd50	-0.045163453
5	0xbda5e692	-0.081006184
6	0x3db5839b	0.088629924
7	0x3e20cacd	0.15702362
8	0xbcb3a237	-0.021927936
9	0xbd3d19bf	-0.04616713
10	0xbb1883e4	-0.0023271972
11	0x3e10de6a	0.14147344
12	0xbd5c0a1b	-0.053720575
13	0xbda6d94d	-0.081469156
14	0x3e19d142	0.15021232
15	0xbd1a6021	-0.037689332
16	0x3e2d9b96	0.16953883
17	0xbe134643	-0.14382271
18	0xbdbfb660	-0.09360957
19	0xbe0f7c72	-0.14012316
20	0xbd3ede8c	-0.046598956
21	0x3d3d1bfb	0.046169262
22	0xbd14ab64	-0.036296263
23	0x3d3d9b2c	0.04629056
24	0x3e24ec90	0.16105866
25	0x3c796839	0.0152226025
26	0x3df59d4a	0.11992891
27	0xbd56aad3	-0.052409004
28	0x3e0e91d2	0.13922814
29	0xbd12d770	-0.03584999
30	0xbc884d39	-0.016638385
31	0x3e4c08bd	0.19925208
32	0xbe144e72	-0.1448305
33	0x3d7b6e33	0.06138439
34	0xbe663559	-0.22481288
35	0xbd5c3f97	-0.05377158
36	0x3d409697	0.047018614
37	0x3e285802	0.16439822
38	0x3d3a2015	0.045440752
39	0x3d930ec3	0.0718055
40	0x3df61f03	0.12017634
41	0x3d5d3d65	0.05401363
42	0x3d381a50	0.04494697
43	0xbe2b2346	-0.16712674
44	0xbdef7b2b	-0.11693414
45	0xbd36c0e9	-0.044617567
46	0xbe160ef5	-0.14654143
47	0xbe27fe4e	-0.16405603
48	0x3d7a439b	0.06109963
49	0x3e42f4ed	0.19038744
50	0xbd5bf284	-0.053698078
51	0x3e0b2bfa	0.13590994
52	0xbdd222a8	-0.102605164
53	0x3d146f65	0.036239047
54	0x3e29b912	0.16574505
55	0xbb016f14	-0.0019750046
56	0x3e49881e	0.19680831
57	0xbcadb96a	-0.021206576
58	0xbe2a2f89	-0.16619696
59	0xbde022f8	-0.1094417
60	0x3db443fd	0.0880203
61	0x3e3d2cc8	0.18474114
62	0x3e0e2637	0.13881765
63	0xbc9fc924	-0.019505091

weight f4 [64, 64]
0	0x3d214398	0.039371103
1	0xbe70f313	-0.23530225
2	0x3e360d03	0.17778401
3	0x3d952c6b	0.07283863
4	0xbe406068	-0.18786776
5	0xbd96ec96	-0.07369344
6	0x3e22253f	0.15834521
7	0x3dc36c72	0.09542169
8	0x3d6d0a70	0.057871282
9	0x3d39277f	0.045203682
10	0x3d9c55f7	0.07633584
11	0xbaf9cf96	-0.0019059058
12	0x3e3d38da	0.18478718
13	0x3e35411b	0.17700617
14	0x3c4f4965	0.012651776
15	0x3e0db95d	0.13840242
16	0x3cfddf76	0.030990344
17	0xbcfad90d	-0.030621076
18	0x3da66f96	0.08126752
19	0x3d146afb	0.036234837
20	0x3e29e7ca	0.16592327
21	0x3d8cbbc8	0.06871754
22	0x3d05af00	0.032637596
23	0xbd20aacc	-0.039225385
24	0x3e1188a4	0.1421228
25	0x3e0906d1	0.13381507
26	0x3d9f4fc2	0.077788845
27	0x3d493893	0.04912622
28	0x3c962078	0.01832603
29	0x3db6549f	0.08902859
30	0x3e2e3778	0.17013347
31	0x3d23be3e	0.03997635
32	0x3cc1dede	0.023665842
33	0xbd4c0470	-0.04980892
34	0x3e7564ec	0.2396428
35	0x3bd50411	0.006500729
36	0x3cf749a0	0.030186474
37	0xbb18a4d9	-0.0023291616
38	0x3e375b35	0.17905886
39	0x3e148fae	0.14507934
40	0x3c04052f	0.0080578765
41	0x3cf0d809	0.029399889
42	0x3d1bf2f4	0.038073495
43	0xbe11478f	-0.14187454
44	0xbd82276b	-0.06355175
45	0x3dff19e3	0.124561094
46	0x3e02cbc0	0.12773037
47	0x3e070cff	0.13188551
48	0x3e05137e	0.12995717
49	0x3c30d1de	0.010792224
50	0x3dd772d5	0.10519949
51	0x3d58f087	0.05296376
52	0xbd65cbb4	-0.05610247
53	0x3e22a115	0.1588176
54	0x3d3aa58c	0.045568034
55	0xbcbfe5c8	-0.023424998
56	0x3d30a668	0.043127447
57	0xba18e6f3	-0.0005832754
58	0x3c8a3702	0.016871933
59	0xbd18d3e9	-0.03731147
60	0x3e24f148	0.16107666
61	0x3e2f4cbf	0.1711912
62	0xbd29fffb	-0.041503888
63	0x3e0de5d1	0.13857199
64	0x3de81777	0.113326006
65	0xbb56da66	-0.0032783984
66	0x3c89b212	0.016808543
67	0x3c85b380	0.016320944
68	0x3e03c402	0.1286774
69	0xbd35debe	-0.044401877
70	0x3e4a0f68	0.1973244
71	0x3dd5e4bb	0.104440175
72	0x3d6b9e64	0.0575241
73	0xbc634866	-0.013872242
74	0x3d7a51d8	0.06111321
75	0xbc864997	-0.016392512
76	0x3df7e83f	0.12104844
77	0x3cfd3b51	0.030912073
78	0x3c92ea15	0.017933885
79	0xbd334300	-0.043765068
80	0x3d8cc595	0.06873623
81	0xbddbaf00	-0.10726738
82	0x3c123103	0.008922818
83	0xbe2cf36e	-0.16889736
84	0xbc4618aa	-0.012090841
85	0x3d32f69f	0.043692227
86	0xbdf8e6aa	-0.12153371
87	0x3de5287d	0.11189363
88	0x3d9f660b	0.07783135
89	0xbdd5d02d	-0.10440097
90	0x3de33672	0.11094369
91	0x3e1dc323	0.1540647
92	0x3df78553	0.120859765
93	0xbd3e7b61	-0.046504382
94	0x3e4ccdab	0.20000331
95	0x3dc89f93	0.09796061
96	0x3dd0bb0b	0.101919256
97	0x3e6033fa	0.21894827
98	0x3defcc54	0.11708894
99	0x3e223a8a	0.15842643
100	0x3ce7d5ed	0.02830025
101	0x3dbe003f	0.09277391
102	0x3c952c5b	0.018209627
103	0x3c90f011	0.017692598
104	0xbcc5e19d	-0.024155432
105	0x3b99951a	0.0046869637
106	0x3cb0ed80	0.021597624
107	0xbde87907	-0.11351209
108	0x3bf4d3c5	0.007471534
109	0x3e3a6043	0.18200783
110	0xbc2222ea	-0.0098960195
111	0xbcad63b4	-0.021165706
112	0x3ca7fa6f	0.020505158
113	0x3e587d6f	0.21141599
114	0x3d93b114	0.07211509
115	0xbd26fe6c	-0.04076998
116	0xbde32ad5	-0.11092154
117	0x3e2567bb	0.16152851
118	0x3e4f2120	0.2022748
119	0xbe0af392	-0.13569477
120	0x3dfc7377	0.12326711
121	0x3d3916fc	0.045187935
122	0x3c66fbb6	0.0140980985
123	0xbb8e68ea	-0.004346003
124	0x3e32c06a	0.17456213
125	0x3e5b9c56	0.21446356
126	0x3bbde262	0.005794809
127	0x3d21b9a3	0.039483678
128	0xbc66808e	-0.014068736
129	0x3d69cd97	0.05708083
130	0xbd93973a	-0.072065786
131	0xbeaf17bb	-0.34197792
132	0xbeb33a25	-0.35005298
133	0x3db4d250	0.088291764
134	0xbd6de524	-0.058079854
135	0xbe44e8fa	-0.19229499
136	0xbcc8d8b0	-0.024517387
137	0xbd3d2b94	-0.046184137
138	0x3d82571e	0.063642725
139	0xbea05302	-0.3131333
140	0xbdad8dae	-0.08474289
141	0xbdc5d2de	-0.0965936
142	0xbeb7abf0	-0.35873365
143	0xbdb94304	-0.09045985
144	0xbeaf083b	-0.34185967
145	0x3d31b380	0.043384075
146	0x3c2c5dc0	0.010520399
147	0xbd4f8320	-0.05066216
148	0x3d36c2d0	0.04461938
149	0xbd2045e8	-0.039129168
150	0xbdc59564	-0.096476346
151	0x3d2fd67c	0.042929158
152	0xbdb9e242	-0.090763584
153	0xbdbd339f	-0.092383616
154	0x3d0d5669	0.034506235
155	0x3dbf5974	0.09343234
156	0xbed96047	-0.42456266
157	0x3ddb8efc	0.107206315
158	0xbe34a39b	-0.17640536
159	0xbec3068e	-0.38090938
160	0xbdff3bcc	-0.12462577
161	0xbecc0b9e	-0.39852613
162	0xbd07ed80	-0.033185482
163	0xbbb82880	-0.0056200624
164	0xbe8694ee	-0.262855
165	0xbe1acbcf	-0.1511681
166	0xbe8b9476	-0.27261704
167	0xbdc7daf2	-0.097585574
168	0x3d850d7c	0.064967126
169	0x3ddc864e	0.10767804
170	0x3d797304	0.060900703
171	0xbe161d20	-0.14659548
172	0xbd8ef336	-0.069799826
173	0xbe90e61a	-0.28300554
174	0xbdb6b0b4	-0.08920422
175	0x3deb4c5a	0.11489172
176	0xbecb82b3	-0.39748153
177	0xbe38893e	-0.18021104
178	0xbe2f9cb6	-0.17149624
179	0xbe1c6c7d	-0.1527576
180	0xbde46ec6	-0.11153941
181	0x3d34a034	0.044098094
182	0xbecbdaff	-0.39815518
183	0xbdec31d0	-0.115329385
184	0xbea2e02e	-0.3181166
185	0xbe3ccb06	-0.18436822
186	0xbda074b6	-0.07834761
187	0xbd4ce920	-0.050027013
188	0xbe8a6ca2	-0.27036005
189	0xbe5982a7	-0.21241246
190	0xbbe25d14	-0.0069080684
191	0x3d92bd30	0.07164991
192	0x3cc3e9f3	0.023915267
193	0xbe1d9c7f	-0.1539173
194	0x3dc9c5bc	0.09852168
195	0x3de5ebc5	0.1122661
196	0x3c2b2ec8	0.010448165
197	0xbdefe13c	-0.11712882
198	0xbd115ed2	-0.03549082
199	0x3de27401	0.11057282
200	0xbce318c9	-0.02772178
201	0x3e12799d	0.14304204
202	0xbd01787c	-0.031609043
203	0x3e0eefd7	0.13958679
204	0x3df2de09	0.11858756
205	0xbdd3cbc1	-0.10341597
206	0xbe16d796	-0.14730677
207	0x3dacf719	0.08445568
208	0x3d0be6dc	0.03415571
209	0xbd782524	-0.060582295
210	0x3b8f2e77	0.0043695527
211	0x3dc3c3da	0.0955884
212	0x3d7a0153	0.06103642
213	0x3d71a447	0.058994558
214	0xbd580f18	-0.05274877
215	0xbc61230c	-0.013741266
216	0xbd076276	-0.033052884
217	0xbe2dc9d7	-0.16971527
218	0x3e0ac099	0.13550033
219	0x3a13bcc4	0.0005635733
220	0xbdb653ba	-0.08902688
221	0x3dbbd012	0.09170546
222	0xbdf08c26	-0.11745481
223	0xbe054376	-0.13014016
224	0xbd7c475c	-0.06159149
225	0x3cd00e34	0.025397398
226	0x3c9c9a18	0.019116446
227	0xbcbd8d77	-0.023138745
228	0xbe11c1d1	-0.14234091
229	0xbdb43de0	-0.08800864
230	0x3d93a257	0.07208698
231	0xbd79015c	-0.060792312
232	0xbd8ef7fb	-0.06980892
233	0x3e3bbacb	0.18332975
234	0x3d6a9ce8	0.057278544
235	0xbe010bec	-0.12602204
236	0x3ca366a8	0.019946411
237	0x3ce90e0d	0.028449083
238	0xbb04ccad	-0.0020263598
239	0xbdec85e8	-0.11548978
240	0x3e006d4c	0.12541693
241	0xbda6c1c3	-0.08142426
242	0xbe60be11	-0.21947505
243	0x3da019a3	0.0781739
244	0xbda139d4	-0.07872358
245	0x3ca3a13b	0.019974342
246	0xbbef9b8c	-0.007312244
247	0xbd81cfef	-0.06338488
248	0xbe2c2ca0	-0.16813898
249	0xbe0b2a90	-0.13590455
250	0xbc9a5d08	-0.018843189
251	0x3c299116	0.010349533
252	0x3e02cbbc	0.12773031
253	0x3dd39403	0.10330965
254	0x3e463e18	0.19359624
255	0xbe20b566	-0.15694198

bias f4 [64]
0	0x3d8891a3	0.06668403
1	0x3e2eca55	0.17069371
2	0xbec98632	-0.39360195
3	0x3d0dae19	0.03458986
4	0xba3040f2	-0.0006723545
5	0xbeccce44	-0.40001118
6	0x3c35344d	0.011059833
7	0x3ba5d06d	0.0050602467
8	0xbe0671dc	-0.13129371
9	0x3e4238bf	0.1896696
10	0x3e2cadde	0.168632
11	0x3d9bf26a	0.07614596
12	0xbd235f3f	-0.039885756
13	0xbde9cc9d	-0.1141598
14	0xbd0e1d4b	-0.034695905
15	0xbe158f38	-0.14605415
16	0x3cdf3cf8	0.027250752
17	0x3e25dd25	0.16197641
18	0x3dd81dea	0.10552581
19	0x3cfa0086	0.030517828
20	0x3da8ef4e	0.08248769
21	0x3e2d24cf	0.16908573
22	0x3de722e8	0.11285955
23	0xbe077367	-0.13227616
24	0xbe3dc934	-0.18533784
25	0x3e088b56	0.13334402
26	0x3e21cd19	0.15800895
27	0x3e3e9e1c	0.18615001
28	0xbc83685b	-0.016040972
29	0x3e398b69	0.18119587
30	0x3ce14067	0.02749653
31	0xbcf2cd6c	-0.029638968
32	0x3e2287cf	0.1587212
33	0xbe6f167b	-0.2334842
34	0xbe331ae9	-0.17490734
35	0x3cb17321	0.021661343
36	0xbd7aec42	-0.06126047
37	0x3e03f3e5	0.12886007
38	0x3d72ec76	0.059307538
39	0x3d5bc82d	0.0536577
40	0x3d8a0af6	0.06740372
41	0xbdb6563e	-0.08903168
42	0xbd767649	-0.0601714
43	0x3d4ec534	0.050481036
44	0xbe01e36d	-0.12684412
45	0x3dad0581	0.084483154
46	0x3c27a391	0.010231868
47	0x3e1f6e06	0.15569314
48	0xbe69e8a8	-0.22842658
49	0x3d2e1185	0.042497177
50	0xbe0fccd3	-0.14042978
51	0x3e37ac52	0.17936829
52	0x3e01d898	0.1268028
53	0x3e3393ef	0.17536901
54	0x3d08ef70	0.03343147
55	0xbdcc9f7c	-0.09991357
56	0x3e3d72e5	0.1850086
57	0xbda0da46	-0.07854132
58	0x3e357649	0.17720903
59	0x3c998501	0.018740179
60	0x3cb3d7fa	0.021953572
61	0x3c842b2a	0.016133863
62	0x3ddb9b01	0.10722924
63	0xbd6e5d6e	-0.05819457

weight f4 [64, 64]
0	0xbe23a9d9	-0.1598276
1	0x3d16983c	0.036766276
2	0xbd8b5c88	-0.06804758
3	0xbe125049	-0.14288439
4	0x3d24b2f2	0.040209718
5	0xbdeaddf8	-0.114681184
6	0xbc8a5cb4	-0.016889907
7	0x3d2a6328	0.04159847
8	0xbca31968	-0.019909576
9	0xbe369722	-0.1783109
10	0xbe253cbf	-0.16136454
11	0x3d589ec9	0.052885804
12	0xbda39e9b	-0.07989236
13	0x3db1c61a	0.08680363
14	0x3d234ab0	0.03986615
15	0xbd9e5114	-0.07730308
16	0xbdbea461	-0.093086965
17	0xbe221599	-0.15828551
18	0xbd04025f	-0.032228824
19	0x3d012e82	0.031538494
20	0xbd2f0f2c	-0.04273908
21	0xbd6523be	-0.05594229
22	0xbd8ee088	-0.0697642
23	0xbe2ef2ae	-0.17084762
24	0x3df9874a	0.121840075
25	0xbd07822d	-0.03308313
26	0x3d6a4feb	0.057205122
27	0xbe2cc89f	-0.16873406
28	0xbdc5d1c6	-0.09659152
29	0xbdbe7fbd	-0.09301708
30	0xbc9b012f	-0.018921463
31	0xbdbbd512	-0.09171499
32	0xbe072247	-0.1319667
33	0x3dd1a6a6	0.10236864
34	0x3d1bf841	0.03807855
35	0x3d839614	0.064251095
36	0x3db277f0	0.087142825
37	0x3cb5a545	0.022173533
38	0xbe1210be	-0.14264199
39	0xbd4fc205	-0.05072214
40	0xbdcb4323	-0.09924915
41	0xbd91e0a2	-0.071229234
42	0xbd4c4a92	-0.049875803
43	0xbcf6270c	-0.030047916
44	0xbd975394	-0.07388988
45	0xbda49919	-0.080370136
46	0xbdf156eb	-0.117841564
47	0xbdbcde4d	-0.09222088
48	0xbda4d790	-0.08048928
49	0xbe005c53	-0.12535219
50	0xbdb2da3e	-0.08733033
51	0xbe175d73	-0.14781742
52	0xbd8bdb2d	-0.06828914
53	0xbe2a51a1	-0.16632701
54	0xbe378a2d	-0.17923804
55	0x3e6bc517	0.23024403
56	0xbe19aa88	-0.15006459
57	0x3ce0ecb6	0.027456623
58	0xbd52894a	-0.05140046
59	0xbda1e19f	-0.07904362
60	0x3d162adb	0.036661964
61	0xbe21713a	-0.15765849
62	0xb9344c1f	-0.00017194495
63	0x3cbf7e86	0.02337576
64	0x3cb452d7	0.022012157
65	0xbe4251ce	-0.18976519
66	0x3d8164ce	0.06318055
67	0x3d6081d0	0.0548113
68	0xbe22478d	-0.15847607
69	0x3daed768	0.08537179
70	0xbdaab9dc	-0.08336231
71	0x3d03af05	0.032149334
72	0xbd89d870	-0.06730735
73	0xbe047055	-0.12933476
74	0xbce624f9	-0.028093802
75	0x3dcb5c24	0.09929684
76	0x3c3dccf2	0.011584507
77	0x3d5a6ab8	0.05332443
78	0x3cf2d69e	0.029643353
79	0xbdbcb53c	-0.09214255
80	0xbd3cd2a9	-0.04609934
81	0x3c206078	0.009788625
82	0xbe0e3b3b	-0.13889782
83	0xbc93e11d	-0.018051678
84	0x3dfbe59e	0.122996554
85	0xbd908eb3	-0.07058468
86	0xbe27cc40	-0.16386509
87	0xbd46332a	-0.048388638
88	0x3cfd6040	0.030929685
89	0xbd451a10	-0.04812056
90	0xbe375b83	-0.17906003
91	0x3bf8a78b	0.007588332
92	0xbd02d0d5	-0.03193744
93	0xbd15f797	-0.036613073
94	0xbe4b857c	-0.19875139
95	0xbe35bd34	-0.17747957
96	0xbe3eabd9	-0.18620242
97	0xbd521598	-0.051290125
98	0xbe343d97	-0.1760162
99	0xba71a89b	-0.00092185446
100	0xbe8517c4	-0.25994694
101	0xbe03db4a	-0.12876621
102	0x3d45d6a1	0.04830039
103	0xbd45cb1f	-0.048289414
104	0xbd854249	-0.065067835
105	0xbe045b52	-0.12925461
106	0xbdf3c1eb	-0.11902221
107	0xbe383b11	-0.17991282
108	0xbd9ce41c	-0.07660696
109	0x3d549a4f	0.051904973
110	0xbe2155a2	-0.15755323
111	0xba8f6f60	-0.0010943227
112	0x3dafefa2	0.08590628
113	0x3b0fd884	0.0021949122
114	0x3dd19b0a	0.102346495
115	0x3ce8705c	0.02837389
116	0xbc243061	-0.0100213
117	0xbdb947dd	-0.0904691
118	0xbddd52d5	-0.108068146
119	0xbea48ef2	-0.3214031
120	0xbc5a6932	-0.013330745
121	0xbdc45c44	-0.09587911
122	0xbd60744a	-0.054798402
123	0xbdadb23e	-0.084812626
124	0x3cb434a5	0.02199776
125	0xbd90e163	-0.07074239
126	0x3c26f6f3	0.010190713
127	0x3cfdb57d	0.03097033
128	0x3dbf49ef	0.093402736
129	0x3d3ee8a7	0.046608593
130	0x3e76a8de	0.24087855
131	0xbe3343ac	-0.17506284
132	0x3e16ee4b	0.14739339
133	0x3db4a08c	0.088196844
134	0x3da0817b	0.078371964
135	0x3d41781c	0.047233686
136	0xbc7373d1	-0.014859156
137	0x3d2197eb	0.03945152
138	0x3daf8b6a	0.08571513
139	0xbe09766d	-0.13424082
140	0xbdb1c90b	-0.08680924
141	0xbc894350	-0.01675573
142	0x3d64a57f	0.055821892
143	0xbe298d0a	-0.16557708
144	0x3db48738	0.088148534
145	0x3d9389ba	0.07204004
146	0x3e33bebb	0.17553227
147	0xbdc76e3a	-0.09737821
148	0xbbd6d9e0	-0.0065567344
149	0xbd881c30	-0.06646001
150	0x3c573492	0.013135092
151	0xbdd31a1e	-0.10307716
152	0xbd942fdb	-0.0723569
153	0x3b964e21	0.0045869504
154	0x3d9625db	0.07331439
155	0x3dd74a0d	0.10512171
156	0x3dd2d099	0.10293693
157	0x3e2068f6	0.1566504
158	0x3d313936	0.04326745
159	0x3dc40c6b	0.09572681
160	0xbe3fffb6	-0.1874989
161	0x3e0108a6	0.12600955
162	0x3e286981	0.16446497
163	0x3dda0f28	0.10647422
164	0xbe224aae	-0.158488
165	0x3d5ad82a	0.053428806
166	0xbd37f153	-0.04490788
167	0xbd577f89	-0.05261186
168	0x3e174880	0.1477375
169	0x3df139ff	0.1177864
170	0x3dd3a8d2	0.10334934
171	0x3e10a51d	0.14125486
172	0xbda6f023	-0.08151271
173	0x3dedd7ba	0.11613412
174	0x3d26cb5a	0.040721275
175	0xbd510d49	-0.05103806
176	0xbe413073	-0.18866138
177	0xbc6719f5	-0.01410531
178	0x3e1436f9	0.14474095
179	0xbd3ad2d5	-0.04561122
180	0x3e32d4d9	0.17464007
181	0x3ca1cd2c	0.019751154
182	0x3d82c427	0.06385069
183	0x3d815ac5	0.06316141
184	0xba57ff63	-0.00082396547
185	0x3c455a71	0.012045489
186	0x3de1e993	0.11030879
187	0xbe330b21	-0.17484714
188	0x3d9aa7b4	0.07551518
189	0x3e18c839	0.14920129
190	0x3d852e80	0.0650301
191	0x3e14bbdf	0.14524792
192	0xbdb35134	-0.08755723
193	0x3d16a508	0.03677848
194	0xbe619708	-0.2203027
195	0xbd488c76	-0.04896208
196	0xbc648e40	-0.013949931
197	0x3d481348	0.048846513
198	0xbeee9d02	-0.46604162
199	0x3dd945b2	0.106089965
200	0xbd8fa848	-0.07014519
201	0x3d7d1981	0.0617919
202	0x3c5a5baf	0.013327523
203	0xbdb2517a	-0.08706947
204	0x3dc102be	0.09424351
205	0xbdb8cafc	-0.09023091
206	0xbc9ef6e8	-0.019404843
207	0xbd132814	-0.035926893
208	0xbe102431	-0.14076306
209	0x3d8079ac	0.06273207
210	0xbdcb69db	-0.099323
211	0xbe79c476	-0.2439135
212	0x3d738264	0.059450522
213	0x3e0b5152	0.1360524
214	0x3d199db3	0.03750391
215	0x3d3f4fa4	0.04670681
216	0xbdd7dc3a	-0.10540052
217	0x3cabb03c	0.020958059
218	0xbd8fc96f	-0.07020842
219	0x3dbeb237	0.093113355
220	0x3d18159f	0.037129994
221	0x3ca48d4b	0.020086905
222	0xbe1a0891	-0.1504233
223	0xbe1abf29	-0.15111984
224	0xbdefa9a5	-0.11702279
225	0x3db187ae	0.08668457
226	0x3d3d9e55	0.046293575
227	0xbde2cea4	-0.1107457
228	0xbf174e01	-0.591034
229	0x3dcbb3f3	0.09946432
230	0x3e791df5	0.24327834
231	0xbdeea164	-0.116518766
232	0xbc076f1d	-0.008266238
233	0x3d9dd464	0.07706526
234	0x3d8742fe	0.066045746
235	0xbcf7ccfe	-0.030249115
236	0x3d28c735	0.041205604
237	0xbca3508c	-0.019935869
238	0xbd34e9f4	-0.044168428
239	0xbdbc36f6	-0.091901705
240	0x3db170d5	0.08664099
241	0x3da57198	0.08078307
242	0x3ca9edc8	0.020743266
243	0x3d129535	0.035786826
244	0xbdf013a9	-0.117225
245	0x3d26e9db	0.040750366
246	0xbe7456ea	-0.2386128
247	0xbd154216	-0.036439978
248	0xbc10816e	-0.008819921
249	0xbd93e918	-0.072221935
250	0x3df703ef	0.12061297
251	0xbb9b27a1	-0.0047349487
252	0xbd113640	-0.035452127
253	0xbcc48f98	-0.023994252
254	0xbd22cb08	-0.039744407
255	0xbba16f60	-0.004926607

bias f4 [64]
0	0xbd96d29d	-0.0736439
1	0x3c06e935	0.008234312
2	0x3db4a22b	0.088199936
3	0xbdb2eff1	-0.087371714
4	0xbd863d04	-0.065546066
5	0xbe0106e1	-0.1260028
6	0x3da3e7b4	0.08003178
7	0x3dd676d0	0.104718804
8	0xbdb4cecc	-0.08828506
9	0x3d8aa2cd	0.06769333
10	0x3c02cf96	0.007984063
11	0xbe3c7617	-0.18404423
12	0xbdc7cab2	-0.09755458
13	0x3e303de5	0.17211111
14	0xbe062cef	-0.13103078
15	0xbeed419d	-0.4633912
16	0xbded268c	-0.11579618
17	0xbe92db63	-0.28683004
18	0xbcb5bbeb	-0.022184333
19	0xbd256d0d	-0.040387202
20	0x3e3b4e5f	0.18291615
21	0xbd9197af	-0.071090095
22	0xbded9a28	-0.116016686
23	0x3e0e228c	0.13880366
24	0xbd287294	-0.041124895
25	0xbe0538d8	-0.13009965
26	0xbe1c8480	-0.1528492
27	0x3c4736ac	0.012159031
28	0x3d01031b	0.031497102
29	0x3dc6d596	0.09708707
30	0xbdf257a4	-0.118331224
31	0x3c231e22	0.009955915
32	0xbdad0aa2	-0.08449294
33	0xbe1e977a	-0.15487471
34	0x3e3715a8	0.17879355
35	0xbe273250	-0.16327786
36	0xbd98a75c	-0.07453796
37	0x3daeb353	0.08530297
38	0x3d10d31a	0.035357572
39	0x3d81ba24	0.06334332
40	0xbe2b93cb	-0.16755597
41	0xbde22053	-0.110413216
42	0xbcab5fe5	-0.02091975
43	0x3e35067d	0.17678256
44	0xbe53106d	-0.20611735
45	0xbe7f90eb	-0.24957626
46	0xbe0db62b	-0.13839023
47	0xbe496dc4	-0.19670779
48	0xbda8a80f	-0.0823518
49	0xbe33aee5	-0.17547186
50	0xbd85168d	-0.06498442
51	0xbdc37f83	-0.09545805
52	0x3e21f592	0.15816334
53	0xbe89cb1f	-0.26912782
54	0xbd7638ef	-0.06011289
55	0x3e3a1029	0.18170227
56	0x3e158d4c	0.14604682
57	0xbcf60c59	-0.030035185
58	0xbbf9ed18	-0.0076271407
59	0x3ca032f0	0.019555539
60	0xbe5ba978	-0.21451366
61	0xbcc4ea63	-0.024037546
62	0xbe70023d	-0.23438354
63	0x3e213a88	0.15744984

weight f4 [32, 64]
0	0x3d7a5650	0.06111747
1	0xbe2544bb	-0.161395
2	0xbc9b3369	-0.018945413
3	0x3c3091e3	0.01077697
4	0x3e043606	0.12911233
5	0xbd18e2fd	-0.037325848
6	0xbcd19440	-0.025583386
7	0xbda9cbb4	-0.082908064
8	0x3d80c042	0.0628667
9	0x3e23a7e5	0.15982015
10	0xbc9f54d1	-0.019449623
11	0xbdd04c32	-0.10170783
12	0x3d838691	0.06422151
13	0x3e216d36	0.15764317
14	0x3e6d57c2	0.23178008
15	0xbce944c2	-0.02847517
16	0x3ce686b1	0.028140398
17	0x3e1fd473	0.15608387
18	0x3da541de	0.08069204
19	0xbd831d23	-0.06402042
20	0xbdc4005a	-0.095703796
21	0x3e75ecaf	0.24016069
22	0xbb9e0e5d	-0.0048234896
23	0x3e5648b2	0.20926169
24	0x3be7f205	0.0070784115
25	0xbd0c447c	-0.034245
26	0xbd8c9d76	-0.06865971
27	0x3e23fc2b	0.16014163
28	0x3b8b9ba8	0.004260499
29	0xbda22562	-0.079172865
30	0x3e0f94d3	0.14021616
31	0xbe27c4a1	-0.16383602
32	0x3d83fa3f	0.06444215
33	0x3c83b779	0.016078698
34	0x3de0b50b	0.10972031
35	0xbd55bf90	-0.05218464
36	0x3e08b1e6	0.13349113
37	0xbdc97ba2	-0.09838034
38	0x3c8aae6c	0.016928874
39	0x3e390d9f	0.18071602
40	0xbd95be77	-0.07311719
41	0xbc2c78b0	-0.010526821
42	0x3e224922	0.1584821
43	0x3da6120a	0.081089094
44	0x3ec616f0	0.38689375
45	0x3e3a4daf	0.18193696
46	0xbd9fa9d7	-0.07796066
47	0xbe56aeda	-0.20965138
48	0x3d801204	0.06253436
49	0xbdf1e140	-0.11810541
50	0xbd36fdaa	-0.044675507
51	0x3d4b08de	0.049569003
52	0xbdaeffd9	-0.08544893
53	0xbd62186a	-0.055199064
54	0xbcea4607	-0.028597845
55	0x3d3bd9d9	0.045862053
56	0x3d244d9f	0.040113088
57	0x3d00d3e8	0.03145209
58	0x3e192ed1	0.14959265
59	0x3d95ba5f	0.07310938
60	0xbd95f27b	-0.0732164
61	0x3e0ef901	0.13962175
62	0xbd863f23	-0.06555011
63	0xbdeca08f	-0.115540616
64	0x3d78e1dd	0.060762275
65	0xbd9044a2	-0.07044341
66	0xbc2ca1e7	-0.010536647
67	0xbd930624	-0.071789056
68	0x3d7af6c8	0.061270505
69	0x3a63e76f	0.0008693849
70	0xbd192f52	-0.037398644
71	0xbdb444dd	-0.08802197
72	0x3c5605e8	0.013062932
73	0xbd8b27eb	-0.06794723
74	0x3d6e42fc	0.05816935
75	0xbd444d54	-0.04792531
76	0x3c74bade	0.014937131
77	0x3b3fddd7	0.0029276514
78	0x3c148610	0.009065166
79	0x3ae8de36	0.0017766419
80	0x3c9d17b8	0.019176349
81	0xbdece366	-0.1156681
82	0xbc1f08d0	-0.009706691
83	0x3dad1ec5	0.084531344
84	0xbb15c4cb	-0.0022852893
85	0xbb76fe40	-0.0037688166
86	0xbe09f9c4	-0.13474184
87	0xbd28aa9a	-0.041178323
88	0x3de0f1f2	0.109836474
89	0x3c165000	0.009174347
90	0x3b1c4cc0	0.0023849458
91	0xbce55f08	-0.027999416
92	0xbd6dd1c3	-0.058061372
93	0xbdbafd54	-0.0913035
94	0xbe14ba58	-0.1452421
95	0xbd75b313	-0.05998523
96	0xba6c6a58	-0.0009018532
97	0xbd959978	-0.073046625
98	0x3d60368a	0.054739513
99	0xbd5e471c	-0.054267034
100	0x3bd12e40	0.0063836873
101	0xbd695fda	-0.056976177
102	0xbdfee820	-0.12446618
103	0xbda00872	-0.07814111
104	0x3d3ad6dc	0.045615062
105	0xbc97f45d	-0.018549139
106	0xbcd18c5c	-0.025579624
107	0xbd9b9c0b	-0.07598122
108	0xbd78b4d4	-0.060719326
109	0xbdc4e910	-0.09614766
110	0xbc472e40	-0.012157023
111	0xbd6f91d0	-0.058488667
112	0x3d3095d4	0.043111637
113	0xbdfd799c	-0.12376711
114	0x3e27492a	0.16336504
115	0x3d881fc4	0.06646684
116	0xbd589e16	-0.052885137
117	0xbdae5bb6	-0.08513586
118	0xbd72de70	-0.059294164
119	0xbbaf9fcc	-0.0053596254
120	0xbcad770e	-0.021174934
121	0x3dd4a280	0.10382557
122	0xbd882218	-0.06647128
123	0x3bb99f2f	0.005664728
124	0xbd4fb9b4	-0.05071421
125	0xbe28fecd	-0.16503449
126	0x3c297b30	0.010344312
127	0xbdd648ca	-0.10463102
128	0x3d681a34	0.056665614
129	0xbdf67794	-0.120345265
130	0x3c1cb664	0.00956497
131	0xbdb9a1dc	-0.09064075
132	0x3d029124	0.031876698
133	0x3daa6a78	0.083210886
134	0xbde5a7b8	-0.112136304
135	0xbe40d081	-0.18829538
136	0xbc8257c7	-0.015910996
137	0xbe36a9ed	-0.17838259
138	0xbd86e494	-0.065865666
139	0xbd66fa24	-0.056390896
140	0xbdbb0ca5	-0.09133271
141	0x3d35c45e	0.044376723
142	0xbdbf57f4	-0.093429476
143	0x3dc3a19c	0.09552309
144	0xbcd3730f	-0.0258117
145	0x3dcdd492	0.1005031
146	0xbd2913bc	-0.041278586
147	0xbda31661	-0.07963253
148	0xbe261544	-0.1621905
149	0x3c6c3690	0.014417306
150	0xbdf8d348	-0.12149674
151	0xbe488893	-0.19583349
152	0x3d7b5d54	0.0613683
153	0xbc69876e	-0.01425348
154	0xbda9303c	-0.08261153
155	0x3d359883	0.0443349
156	0xbdb5c137	-0.088747434
157	0x3db9c83a	0.09071393
158	0xbdccdb28	-0.10002738
159	0xbdfdab46	-0.123861834
160	0xbd751a1c	-0.059839353
161	0xbdc611d4	-0.09671369
162	0x3d2f93c4	0.04286553
163	0x3dd129d0	0.10213053
164	0xbcc184f8	-0.023622975
165	0xbe3f169b	-0.18660967
166	0x3c595485	0.01326478
167	0xbcdd5e83	-0.027022606
168	0x3da3fb06	0.08006863
169	0x3da4e24c	0.08050975
170	0xbc9c86ca	-0.019107241
171	0xbd9a9f43	-0.07549908
172	0x3dfc81ca	0.12329443
173	0xbcbd59e0	-0.023114145
174	0x3d6ed5e0	0.058309436
175	0xbdf8ba9a	-0.121449664
176	0xbd96a1b3	-0.073550604
177	0x3c58ddf0	0.013236508
178	0x3dd13030	0.10214269
179	0x3c66581a	0.014059091
180	0x3d54d856	0.051964127
181	0x3c8170b8	0.015800819
182	0x3c4bcb06	0.012438541
183	0xbd85aab6	-0.06526701
184	0xbd9d609b	-0.07684442
185	0x3d18ee58	0.037336677
186	0x3cc155b8	0.023600444
187	0xbe0433b2	-0.12910345
188	0x3d5daf5c	0.054122314
189	0xbd439d86	-0.047757648
190	0xbdb5ad5c	-0.08870956
191	0xbd839192	-0.0642425
192	0xbce90323	-0.028443879
193	0xbdb45c58	-0.08806676
194	0x3dc64d9a	0.0968277
195	0xbdb990d4	-0.09060827
196	0x3e15ac77	0.14616571
197	0xbddf2ae5	-0.10896853
198	0xbda2e79c	-0.07954332
199	0xbdb7751b	-0.08957883
200	0x3e3f9b44	0.18711573
201	0xbc870cf6	-0.016485672
202	0xbd82c08e	-0.06384383
203	0xbe334507	-0.175068
204	0xbcb124eb	-0.02162405
205	0x3c977513	0.018488443
206	0x3e53a495	0.20668252
207	0xbcb6b12f	-0.022301285
208	0xbd59fab1	-0.053217594
209	0x3e99409d	0.2993211
210	0x3de1189c	0.10991022
211	0xbda7fd21	-0.082025774
212	0xbd771add	-0.060328353
213	0xbe6a58d1	-0.22885443
214	0xbc81b784	-0.015834577
215	0x3d0b96d7	0.0340794
216	0x3d37c77b	0.044867974
217	0xbd937733	-0.0720047
218	0x3a896b21	0.0010484197
219	0x3db9b56e	0.09067808
220	0x3d3930fe	0.04521274
221	0xbc9ad645	-0.018901
222	0x3ced2cfe	0.028952118
223	0xbcb53c2a	-0.022123415
224	0xbdd600e6	-0.1044939
225	0x3cd4f4f7	0.025995715
226	0x3e25839f	0.1616349
227	0xbced13c3	-0.028940087
228	0x3e24f47a	0.16108885
229	0xbba7f555	-0.0051256814
230	0x3cc7f37b	0.024408093
231	0x3e35b3ac	0.1774432
232	0x3cb560f6	0.022140961
233	0x3bf7068a	0.0075386213
234	0x3dda92ee	0.10672556
235	0x3e27bd95	0.16380914
236	0x3da64fe3	0.08120706
237	0x3de5fe35	0.11230127
238	0xbe0306ee	-0.12795612
239	0xbe3d2ada	-0.18473378
240	0x3dfed490	0.12442887
241	0xbe369afc	-0.1783256
242	0xbd9ad3f7	-0.0755996
243	0x3e21ced1	0.1580155
244	0x3dfdcecf	0.12392961
245	0xbe1cd8a2	-0.15317014
246	0x3d404e52	0.046949692
247	0x3c813f17	0.015777154
248	0x3e22cbf9	0.15898122
249	0x3d613b6b	0.054988306
250	0xbd7bc487	-0.06146672
251	0x3e123c97	0.14280926
252	0x3cc9eac9	0.024648087
253	0x3dc018f2	0.09379758
254	0xbcfca208	-0.030838981
255	0x3e527fee	0.20556614

bias f4 [32]
0	0x3d5be7eb	0.05368797
1	0xbe304616	-0.17214236
2	0xbdbc92c4	-0.09207681
3	0x3e002ff5	0.12518294
4	0xbb8a6db0	-0.0042245016
5	0xbdb49bc6	-0.08818774
6	0x3ca100be	0.019653674
7	0xbe95db88	-0.29269052
8	0x3d2b8910	0.04187876
9	0x3d7ca7c3	0.061683428
10	0x3d78c789	0.060737167
11	0x3d0e8e78	0.034803838
12	0x3c8d2c12	0.017232928
13	0xbe38f314	-0.18061477
14	0x3dac5b91	0.084159024
15	0xbe103f42	-0.14086631
16	0x3da0d3cd	0.07852898
17	0x3d865940	0.06559992
18	0xbcd8cd18	-0.026464984
19	0xbd2757c2	-0.040855177
20	0xbc54f6ad	-0.012998265
21	0x3db994dc	0.09061596
22	0x3db01ab7	0.085988455
23	0x3d16d6c1	0.0368259
24	0x3e20a65f	0.15688466
25	0xbdc548f1	-0.09633053
26	0x3d9897c1	0.0745082
27	0xbe5555a9	-0.20833458
28	0x3e04eba8	0.1298052
29	0xbca0f564	-0.019648261
30	0xbd3bfcea	-0.045895495
31	0xbdf790d2	-0.12088169

weight f4 [1, 32]
0	0xbe4b37ea	-0.19845548
1	0xbd0e3428	-0.03471771
2	0x3db40bc9	0.0879131
3	0xbe249623	-0.16072898
4	0x3e091e48	0.13390458
5	0x3d00a99c	0.031411752
6	0x3dc19523	0.09452274
7	0xbe290ab8	-0.16507995
8	0x3df9e30e	0.1220151
9	0x3e2253fd	0.15852351
10	0x3d95fcfd	0.07323644
11	0x3982079b	0.000248012
12	0x3e39fd78	0.18163097
13	0x3df589e3	0.119891904
14	0x3dac2cd3	0.08406987
15	0xba12cbdf	-0.0005599837
16	0xbe5690b9	-0.20953645
17	0xbdb1da0d	-0.08684168
18	0xbd9b7dd5	-0.0759236
19	0xbba31535	-0.0049768933
20	0x3d5c7b2d	0.053828407
21	0xbe05c992	-0.13065174
22	0xbe2bdae7	-0.16782723
23	0xbd708678	-0.05872199
24	0xbe1c32cf	-0.15253757
25	0x3dcd4f4c	0.1002489
26	0x3e61fb57	0.22068535
27	0xbd0b1d8d	-0.03396373
28	0x3de50ebf	0.11184453
29	0xbc897372	-0.016778681
30	0xbe704d27	-0.23466931
31	0xbb84e5df	-0.004055723

weight f4 [32, 1]
0	0x3f1d2bd1	0.61394984
1	0xbee1fc54	-0.44137824
2	0xbe4683a0	-0.19386148
3	0x3ef05120	0.46936893
4	0xbf8f2315	-1.1182581
5	0x3f6db233	0.92850035
6	0xbe7589b4	-0.23978311
7	0x3ee65427	0.44986078
8	0x3e4ca4e5	0.19984777
9	0xbdfac400	-0.12244415
10	0x3e95eb6b	0.29281172
11	0x3e17e980	0.14835167
12	0x3ebaff30	0.36522818
13	0xbeadf5a6	-0.33976477
14	0xbd955130	-0.07290876
15	0xbe2974a8	-0.16548407
16	0x3e146c30	0.14494395
17	0xbb82e700	-0.0039948225
18	0x3f5fc964	0.8741667
19	0x3e9f5450	0.31119013
20	0xbe9e16ea	-0.30876857
21	0xbf997d76	-1.1991413
22	0xbdb19030	-0.0867008
23	0xbebe8f6c	-0.37218797
24	0xbf8c7d52	-1.0975745
25	0x3d441f80	0.047881603
26	0x3f05cb81	0.5226365
27	0x3ef3dd60	0.47629833
28	0xbf98407a	-1.1894677
29	0x3f0753ed	0.52862436
30	0x3eb36787	0.35039923
31	0x3f80cf01	1.0063173

bias f4 [32]
0	0x3f2e42a8	0.6807046
1	0xbf694052	-0.9111377
2	0xbf73682e	-0.9508084
3	0xbef6f43c	-0.4823321
4	0x3f51909b	0.81861275
5	0xbec480d7	-0.38379547
6	0x3ef15da3	0.47141752
7	0xbf060ce8	-0.52363443
8	0x3f8666c1	1.0500108
9	0xbed8a05c	-0.42309844
10	0x3f3a79e7	0.7284226
11	0x3da3d1c0	0.07998991
12	0xbf06dd82	-0.52681744
13	0x3f0642c7	0.52445644
14	0xbf07e3d4	-0.53082013
15	0x3e532006	0.20617685
16	0xbe93d7fc	-0.2887572
17	0xbde08800	-0.1096344
18	0xbf761d88	-0.9613881
19	0xbef41cbc	-0.47678173
20	0x3f14ccd7	0.5812506
21	0xbe7f67f5	-0.24942
22	0x3f86d3ce	1.0533388
23	0x3f4d70ed	0.80250436
24	0xbe4546dc	-0.19265312
25	0xbf2ae02c	-0.6674831
26	0x3f07824a	0.5293318
27	0x3e96a90a	0.29425842
28	0xbf27d147	-0.65553707
29	0x3eff2262	0.4983092
30	0x3f2bb05a	0.67065966
31	0x3f73b3d6	0.9519628
