UQ_assessment_1D/models_old/MCD_NLL/i1_nn64_nl4_o1_tr1_ep400_b50000_dr0.02_ns100_s36/model.pth (torch, 80584 bytes, 13 tensors)

weight f4 [32, 1]
00000000: ec9d c53c 8f2d 77be 3e9f 67bf 6f9d 253e
00000010: 5a2a 1d3f 0707 c5bf 3f88 ba3e fc7c 753f
00000020: df50 e63e 6c7b 94be 1e5a a13f 0c6f 4d3f
00000030: 026f 263f 5336 70bf 9ed9 b0be 639c 95bf
00000040: 65f9 1bbf 7ad1 27bf 707a f3be 30a5 39bf
00000050: c0bf 8cbc 8790 4cbf 004b 333c 5b12 52bf
00000060: 5aa6 3f3f 00a9 d93c a107 85be 3d0b cd3e
00000070: 68f8 4bbe 582d aabf c873 583e c946 12bb
0.024123155 -0.24138473 -0.9047736 0.16173337 0.6139275 -1.539277 0.36432073 0.95893836
0.44983575 -0.29000413 1.2605627 0.8024757 0.65013134 -0.9383289 -0.3454103 -1.168835
-0.6092742 -0.6555401 -0.4755435 -0.7251768 -0.017181277 -0.7990803 0.010943174 -0.8205926
0.7486321 0.026569843 -0.25982383 0.40047637 -0.19918978 -1.3295088 0.21137917 -0.0022320023

bias f4 [32]
00000000: e7f5 4c3f 8e60 4e3f d888 64bf a5aa 2a3e
00000010: 7b88 593f eda5 66bf 8898 863f cfae aa3e
00000020: c193 263f 1072 15bf 2209 253f d04f 4fbf
00000030: ea9b 963e 5c7b f73e a013 9a3e 7573 82be
00000040: d3d8 033f f545 0c3f 294f cf3e c57e 4abf
00000050: 043e a2be dadb d9be 5c83 1abf e477 2f3f
00000060: 6471 6d3f b8a7 18bf b39d 003f 340e fe3e
00000070: 0eac 6abf 9b35 6abe 1a9e 6abf 7c42 2b3f
0.8006272 0.8061608 -0.89271307 0.16666658 0.8497388 -0.9009693 1.0515299 0.33336493
0.65069205 -0.5837717 0.6446706 -0.8098116 0.29415828 0.48336303 0.30093098 -0.25478712
0.5150272 0.54794246 0.40490082 -0.79099685 -0.3168794 -0.42550546 -0.6035669 0.68542314
0.92751145 -0.5963092 0.5024063 0.4962021 -0.91668785 -0.22872011 -0.91647494 0.6689832

weight f4 [64, 32]
00000000: 0918 d5b9 9592 523c 76ba 07be e8ee ee3d
00000010: 9076 c73d 66d0 e5bf e57c a13d 8db7 523e
00000020: a499 953d ac57 c3bd 8751 7f3d e1a3 abbd
00000030: 9e7b 873d 6ca9 b33d db14 fe3d 2b13 2cc0
00000040: 7051 2d3e 0d28 433d 91e0 c73d 52de cebd
00000050: d068 cb3d 7fec bbbe b2a0 3cbd fa67 1f3d
00000060: 7670 443e 0bea 913d 80d7 afbd 3eb0 623d
00000070: 73a5 85bc 7459 11bf db66 86bd da87 6abd
00000080: f13d 22be 55c1 c23c eb30 cdbd 0a66 f0bd
00000090: d742 a2bc 576f 99bd 2695 b5bd 3606 11be
000000a0: f5a3 8f3d d094 f8bd d977 11be 81a1 943d
000000b0: 8acf 6f3c a426 c53d 504c 28be f6e2 a3bc
000000c0: 853d 35be 34a6 2bbe d8d0 12bd ac1f 413e
000000d0: 81d8 643c 7722 ef3d 1b4c 163e 5556 173e
000000e0: c602 04bd 0c8d d6bc b451 ac3d 6663 42be
000000f0: e9a8 0cbe 741b 38be c153 f73b 9fce e53d
00000100: 0fc2 5ebd 40a6 9bbd a131 84bd 776f 20be
00000110: 6667 2fbe 0fc2 34bd bd58 3dbe f0f4 dfbd
00000120: be41 bcbd f7ce bdbc 4f94 91bc 5a7e 97bd
00000130: 0c9b b1bd c3fc f33d 5a24 19be 68f7 4fbe
00000140: 9590 c53d d3c3 3bbe c4b0 853d 9e52 05bd
00000150: 53b9 53bc 0b03 52be c64a 29bd b353 2abd
00000160: f9e9 9abd c2ec 0e3e 88f1 71bd 0c77 c5bd
00000170: 54f2 5dbd 8813 fb3d 5f53 343e 1210 a7bd
00000180: 7f61 debc 1034 b7bd 6495 ea3d eb14 adbc
00000190: 82cf 9bbd b10b cf3d 7f43 773d 7cfe 51be
000001a0: b2ff 0fbe d165 43bd 6998 a33d 73d4 98bd
000001b0: 2b06 c83d 3bd2 1ebe 6e8a b13b 3f97 19bb
000001c0: cbde 43bd ca3d 153e 9f29 74bd 64ae a93d
000001d0: bfab fd3d bbf5 4b3e b42a 913c 542d afbd
000001e0: d9d3 7dbd 7ce2 343e e8e1 41be 539c 49be
000001f0: f916 173e ea70 d43d 6500 13be 9036 b7bd
00000200: 898c 403d d9c6 f9bc baf5 46bd 3ccb 833d
00000210: df20 3dbe f22c 74bc d02d 31be de76 c4bd
00000220: dd46 1b3e ac6e 7fbc e995 273d 2464 c2bc
00000230: 5981 d8bc 68ec 9bbd cf52 0a3e e03a a7bd
00000240: 459f e4bc ecb9 1dbd 6cc1 063e 3315 dcbd
00000250: 5c84 313e 5978 80bd 8065 13be ef6a 84bd
00000260: baad 42be 9f30 a93d c3a5 433a b026 0c3e
00000270: 007b b83d f9cd fcbd 79a6 f5bd 625b 41be
00000280: 3a8d cf3d b0d4 89bd ae06 bfbd 62bd 9cbd
00000290: 34f2 ddbd 460e d6bc 8616 30bd 70fe 02be
000002a0: a29e 813c 0228 fabb 8fb4 46be 55de 263d
000002b0: 7836 22be d296 5fbe fc98 22bd d04f d0bd
000002c0: 9436 06bd 31e8 223d 03b1 15be c2da 84bd
000002d0: d65b 80bd 3278 15bd 83ef 02bd e392 603d
000002e0: 34d7 e33d 9221 a53d 7d55 49bd 9a1c 09bd
000002f0: 58b3 d6bd fc0d 02be 070f d43d b96b 2abe
00000300: 2d6c 5a3e b5c5 273e a9bb 83be 2444 013d
00000310: 9212 623d 464a 1d41 704d d63d c2ed e7be
00000320: 2c09 4d3d 1d2f 2fbe f75a 5d3c ee86 f5bd
00000330: 1d08 2cbe e94b 673e db3c 573f e087 4c40
00000340: d12c 523f a1a9 243f 927f 593f 0da8 6e3d
00000350: 02e0 eebc 3ffc e040 3cd7 48bc dc12 363f
00000360: 1530 0b3e b498 913c 7d29 9f3e 819f 103d
00000370: 2a6e 1cbe f6cd 0e40 e22b 1bbe 3ee2 283e
00000380: 1788 f63c 76ed 2e3e a174 723d 5b42 c63d
00000390: 5f90 b13d cffb 8abd e046 0ebd 9234 bb3d
000003a0: 187d a8bd 5c05 113e 320a 233e 5ad7 ac3d
000003b0: 9ea6 203e fac1 c53d e86c 6b3e 159b 7bbf
000003c0: f068 cd3b bde1 23be b44a ed3c 7fab d8bc
000003d0: be78 09be 7481 0b3e 5efe 023e b62f 623e
000003e0: 8414 903d 69a1 2abe e569 ab3b f90e 663c
000003f0: 419e c7bb 475a c7be 3c86 cd3d 19c2 273e
-0.00040644433 0.012852331 -0.13254723 0.116666615 0.09739411 -1.7954223 0.0788515 0.20577832
0.07304695 -0.095382065 0.06233361 -0.08380867 0.06615375 0.08772549 0.124063216 -2.68867
0.16925597 0.047645617 0.097596295 -0.10100998 0.09932101 -0.3670387 -0.04605169 0.03891752
0.19183525 0.07124718 -0.08586025 0.05534386 -0.016314244 -0.5677712 -0.06562587 -0.057258464
-0.15843941 0.023773829 -0.10019096 -0.117382124 -0.019807262 -0.074919395 -0.088663384 -0.14162526
0.07013694 -0.12137759 -0.14205875 0.07257367 0.0146368835 0.09626511 -0.16435361 -0.020005684
-0.17699249 -0.1676262 -0.0358437 0.18859738 0.013967634 0.116764955 0.1467747 0.14779027
-0.032229207 -0.026190303 0.08414021 -0.1898323 -0.13736309 -0.17979223 0.007547826 0.112210505
-0.054384287 -0.07600069 -0.064547785 -0.1566752 -0.17129287 -0.04413038 -0.18490882 -0.1093539
-0.09192227 -0.023169978 -0.017770914 -0.073971465 -0.08672151 0.11913445 -0.14955273 -0.20309222
0.096467175 -0.1833642 0.06527856 -0.032549493 -0.012922603 -0.20508973 -0.041331075 -0.041583728
-0.07564158 0.13957503 -0.059068233 -0.09641847 -0.05418618 0.12259585 0.17609929 -0.08157362
-0.0271461 -0.08945477 0.11454275 -0.021128139 -0.07607938 0.10109652 0.060367104 -0.20507234
-0.14062384 -0.04770452 0.07988054 -0.074623965 0.097668014 -0.15509884 0.0054181134 -0.0023436097
-0.047819894 0.14574352 -0.059610005 0.082852155 0.123862736 0.19917957 0.017720558 -0.085535675
-0.06196961 0.17664522 -0.18933833 -0.19688539 0.14754857 0.10373099 -0.14355619 -0.08945954
0.047009025 -0.030490326 -0.048574187 0.06435248 -0.1846957 -0.014903294 -0.17302632 -0.095929846
0.15163751 -0.015590351 0.04091445 -0.023729391 -0.026428865 -0.0761345 0.13508151 -0.081655264
-0.027907977 -0.038507387 0.13159722 -0.10746231 0.17335647 -0.062729545 -0.14394188 -0.064657085
-0.19011584 0.08261227 0.000746336 0.13686633 0.090078354 -0.12343974 -0.11994643 -0.18882516
0.10134359 -0.0673002 -0.09327446 -0.076533094 -0.10837212 -0.026129853 -0.04299023 -0.12792373
0.015822712 -0.007634164 -0.19404815 0.040739376 -0.1584109 -0.21834877 -0.03969668 -0.10171473
-0.032766894 0.039772216 -0.14618306 -0.06487037 -0.06267516 -0.03649158 -0.031966697 0.054827582
0.11125031 0.08063044 -0.049153794 -0.033474542 -0.10483426 -0.12700647 0.10354429 -0.16642655
0.21330328 0.16384013 -0.2572911 0.031559125 0.05519349 9.830633 0.10463989 -0.45298582
0.050057575 -0.17107816 0.013510457 -0.119886264 -0.1679997 0.22587551 0.84077233 3.1957932
0.82099634 0.64321333 0.8496028 0.058265734 -0.02915955 7.0307918 -0.012258347 0.7112253
0.1359256 0.01777301 0.3108634 0.035308365 -0.15276399 2.2313209 -0.15153459 0.16492555
0.03009419 0.17082772 0.059193257 0.09680625 0.08670115 -0.0678631 -0.03473556 0.09140886
-0.08226985 0.141622 0.15921858 0.084395126 0.1568856 0.09656139 0.22990763 -0.9828351
0.006268613 -0.16004081 0.028966285 -0.026448963 -0.13424966 0.13623601 0.12792346 0.22088513
0.07035163 -0.16663136 0.0052311295 0.014041656 -0.0060918634 -0.38936064 0.10035369 0.16382636

bias f4 [64]
00000000: 2a4c b63c 5575 283d 4832 e6bd adfa 0dbe
00000010: b44d 8f3d e86e ebbd 343d bb3e e9b3 acbd
00000020: b6b7 f43c 1e4c bd3d a705 3d3e bfb5 91bd
00000030: 5b32 7a3d 1e10 28be df43 01be 4075 603e
00000040: 8021 f23d a921 f13d 220c 45be be44 c63d
00000050: c69e 16bd fc2a 8ebd 4e35 36be d56d 51bd
00000060: db31 153c fc77 57be 517c 2b3e 3944 d53d
00000070: 0911 4e3d afa0 cc3d 0f7a 093e 691d 703d
00000080: f42b b5bd 3586 0abe a941 0e3e f51b 19bd
00000090: d213 dc3d 48bb 74bd 30ba d83c 098e 13be
000000a0: 6e31 6cbe d6c7 2bbe 6025 693e df0e 94bd
000000b0: d198 f5bd 9713 cdb9 29b8 2dbe 3d29 9b3d
000000c0: bc6f d13d 9832 febd 1e45 adbc d645 c63d
000000d0: b493 d53d e421 693e 6c45 8f3c d5d0 393e
000000e0: 1146 ad3d 76e0 26bd 555d 5fbd 0ed5 00be
000000f0: cc64 8fbd 89e0 24bd bcc9 333e d7ee 863d
0.022253115 0.04112752 -0.11240059 -0.13865156 0.069972426 -0.11495763 0.36570132 -0.08432753
0.029872756 0.09243034 0.18459187 -0.071147434 0.06108318 -0.16412398 -0.12623547 0.21919727
0.11822796 0.11773998 -0.1924291 0.0968108 -0.036772512 -0.06941792 -0.17793772 -0.051130135
0.009106125 -0.21041864 0.16746642 0.10413403 0.050309215 0.099915855 0.13425468 0.058621798
-0.08846274 -0.13527758 0.13892235 -0.037380178 0.10745968 -0.059748918 0.026455969 -0.14409651
-0.23065731 -0.1677545 0.22768164 -0.07229399 -0.11992038 -0.00039115243 -0.16964783 0.07576225
0.1022639 -0.12411994 -0.021151122 0.09681289 0.10428563 0.22766834 0.017489158 0.1814607
0.0846063 -0.040741406 -0.054532368 -0.12581274 -0.07001647 -0.040253196 0.17557424 0.06588524

weight f4 [64, 64]
00000000: a503 103e 0e84 1fbe 3c1f bfbd c6d3 0f3e
00000010: 3a02 f2bd 50d4 09bc b55c b8bf 1844 03be
00000020: 682b 323d 44de 353e 1aab 30be 96d0 993d
00000030: 45d7 253e c851 803d 8081 833d edaf fbbe
00000040: b0a7 23bd 4125 f53d d99d febd 1b4e 3c3d
00000050: e97f b23d 97e9 3b3c 166c 9cbd 7b00 2e3e
00000060: 23a1 a1bd 4f67 0ebe a1a5 4dbd d1f6 8b3d
00000070: b556 26bd ce23 ab3d cacc 383d 3f97 84bd
00000080: 85a4 f33d 1c7d fd3d 4fdd a33c 96bc 95bd
00000090: 230a f0bc 7c2c fd3d 8a73 183e e0d7 823d
000000a0: 3360 823d eed5 a6bb fd52 ca3d 47b8 17be
000000b0: 0001 d33d 297f 023e 4f32 2fbe 3512 33bd
000000c0: 72e1 093e 11da 3d3e 3cc4 2bbc de3d 413d
000000d0: 6c30 383d 60b0 e83d b262 953d 3d0d 0dbc
000000e0: ab0b 863b 6aa1 003e 7b80 5a3c d722 b4bb
000000f0: 5bd9 213b 0181 c7bc 4961 2f3e e367 3f3d
00000100: 862a b73b 4104 cf3b 67f0 fc3c e537 7a3d
00000110: ee07 f33d da50 30be bcfb 0fbf 80de 9f3d
00000120: 6e1e f63d 14d6 e43d 69cf 913c 1f0f eb3b
00000130: 4619 333c 65ac 02bd d444 6cbc 8dbc 0a3e
00000140: 0efe 09be ecfb 553e f6e2 1fbe f6bb f5bd
00000150: 9304 9f3c dfeb f5bd 46ac e4bc 1d29 82bd
00000160: 5c87 96bd db75 053c 8a7b ff3b 47ac a13d
00000170: 479d 0a3e 026e d8bd fe4c cf3c be3c 0d3e
00000180: dc38 a53c c03a ed3b 27ce 813c 5ac5 233e
00000190: a507 243e c8df 99bc 2b66 d23c cb1c 7abc
000001a0: cf67 6a3e 3170 333f b199 cc3d 5009 09bc
000001b0: abc0 0abe 07f5 05bd 7971 4b3e e2f1 a23c
000001c0: a50a abbd 5d9d 9d3d a453 a33d f6cf 68bb
000001d0: 75ff 433d 1f27 09be d5a2 dfbd 9669 a7bc
000001e0: 3db0 8fbd 8012 b9bd 9425 2d3d 55ba 39be
000001f0: 0c92 d83c cfb4 9ebf cd69 353e 2d2b ad3d
00000200: 9762 f83d 99d7 c4bd 9d8f 673b 8f2b b8bb
00000210: 9e0b 4b3c 8ae2 ecbc 74d9 e6be 69e0 f23d
00000220: 3a06 b0bc 06d3 1c3e c484 083e 6276 283e
00000230: 326f bf3d 387f 283e 40b7 e3bd 25c3 e43d
00000240: e444 e03d cffa 18bd d058 b23d 0ef7 2e3d
00000250: 68e4 483e 02c5 a5bc 6d3f e8bc 8553 3e3e
00000260: d888 143d 5283 8d3c 5c3e 083e 7296 453e
00000270: fb1b 77bc 8b45 0d3e 5d3a 1c3e 9593 bf3d
00000280: 5fe3 043e 10b1 0c3c 8b80 243e 60d6 b23d
00000290: f249 283e 8794 78bc 1ffc 94bc 7ef5 c9bc
000002a0: 5e88 63be e1f1 ab3e e501 443e 799c 81bd
000002b0: 6df5 6b3d d908 8fbb 63e1 ef3d 9496 2c3e
000002c0: 213a fd3d 66aa 0a3e 6a45 273e 00ed 3b3e
000002d0: e228 283e 5791 3b3e 741d c73d 5ba0 0a3c
000002e0: 9827 0a3e eca4 e03d f34a 2fbd e4f6 87bd
000002f0: f1ee ff3d d12e a83e 9803 503e b4d0 35bd
00000300: 624c 2c3e fb9a 15bd a855 033e b828 883d
00000310: 253b 003d 8ba1 32bd 0ced 1ebf facb f73d
00000320: 75e1 623d c8e6 b63d 6864 a53d e1b1 cd3d
00000330: ef13 2a3e 6090 063e f9d1 13be 8935 09bf
00000340: 5d94 a43c a017 61be da1f 4a3d 8f6e 003e
00000350: 37c0 4c3d 0b5f 263e e6ad d9bd 275f 273d
00000360: 5228 1dbd b73c 2fbf b781 b53d e2f0 5a3d
00000370: d435 4fbc e4c2 be3d 715c 3e3e 685c 113e
00000380: d3de 6b3c 582a 9bbc 9d47 303e 32d3 a63c
00000390: 72b2 b93c abaf 113e 2d81 043e 1564 903d
000003a0: d769 eabd 2748 38bf 0ab6 a13d a3c0 0abd
000003b0: 571f 193e c521 453e 7986 363e 0749 603d
000003c0: 17ae ba3c a833 dc3b b07a c23d f805 9d3d
000003d0: 5967 1fbd a416 113e 7d62 103e 4e66 173e
000003e0: 81f5 023d ce5e c0bc 6374 b1bc 356f babd
000003f0: 28c8 413e 3b78 143f 6bfc 0b3e 5b06 91bd
0.1406389 -0.15577719 -0.09332129 0.14045629 -0.11816831 -0.008412436 -1.4403292 -0.12818944
0.043498427 0.17760569 -0.1725277 0.07510488 0.161954 0.062655985 0.064211845 -0.49157658
-0.03995484 0.11969996 -0.12432451 0.045972925 0.08715803 0.011469266 -0.07637803 0.16992371
-0.078920625 -0.13906597 -0.050206784 0.06834186 -0.040610034 0.083564386 0.045117177 -0.064741604
0.11896614 0.12377378 0.02000299 -0.073113605 -0.029301709 0.12362 0.14887825 0.06388831
0.06366005 -0.0050914204 0.0987911 -0.1481639 0.10302925 0.1274382 -0.17109035 -0.043718535
0.13464907 0.18540217 -0.010483798 0.04717814 0.044968054 0.11361766 0.07294215 -0.008609113
0.0040907464 0.12561575 0.013336296 -0.0054973173 0.0024696204 -0.024353506 0.17126955 0.046729933
0.005589786 0.006317646 0.030876352 0.06108846 0.11866747 -0.17218342 -0.5624349 0.078061104
0.12017523 0.11173645 0.017799096 0.0071734334 0.010931319 -0.03190269 -0.014420707 0.13548489
-0.1347582 0.20896882 -0.15613922 -0.11998741 0.01941136 -0.120078795 -0.027914178 -0.06355498
-0.073500365 0.008145775 0.0077967094 0.078941874 0.13536559 -0.10567857 0.025305267 0.13792703
0.020168714 0.0072396696 0.015845371 0.15993252 0.16018541 -0.018783465 0.025683483 -0.015265654
0.22891162 0.70093066 0.09990252 -0.008364037 -0.1355006 -0.03270438 0.19867505 0.01989073
-0.0835164 0.0769603 0.079749376 -0.0035524345 0.047851045 -0.1339383 -0.109197296 -0.02043609
-0.07016037 -0.09036732 0.042272165 -0.18137486 0.026436828 -1.2398928 0.17716141 0.08455501
0.121281795 -0.096114345 0.0035333403 -0.005620427 0.0123929065 -0.028916616 -0.4508778 0.11859209
-0.021487344 0.15314874 0.13331896 0.1645141 0.09347381 0.1645478 -0.111189365 0.11170033
0.1095064 -0.037348565 0.08708346 0.04271608 0.1961838 -0.020235542 -0.028350556 0.18586548
0.036263317 0.017274532 0.13305038 0.19295672 -0.015082355 0.1379606 0.15256639 0.09354321
0.1297736 0.008587137 0.1606466 0.08732295 0.16434458 -0.01517213 -0.018186627 -0.024653193
-0.22219989 0.33582976 0.19141348 -0.06328673 0.057607103 -0.0043650684 0.11712911 0.16854316
0.12364603 0.13541564 0.16335073 0.18352127 0.16421846 0.18317162 0.097224146 0.008461083
0.13491666 0.10968956 -0.042796087 -0.066388875 0.12496746 0.32848218 0.20313871 -0.044388488
0.16826013 -0.036524754 0.12825644 0.066483915 0.031306405 -0.04361109 -0.62080455 0.12099452
0.055390794 0.08930737 0.080757916 0.10043693 0.16609167 0.13141012 -0.14435567 -0.53597313
0.020090276 -0.21981668 0.049346782 0.12542175 0.049987998 0.16247194 -0.106288716 0.04086223
-0.03836853 -0.6845202 0.08862632 0.05345238 -0.012647111 0.09314516 0.18589951 0.14195406
0.014396387 -0.01894109 0.17214818 0.020364378 0.022668097 0.14227168 0.12939902 0.07050339
-0.114459686 -0.71985096 0.07896049 -0.03387512 0.14953361 0.19251163 0.17824735 0.054757144
0.02278809 0.006720025 0.09496057 0.07667154 -0.03891692 0.14168793 0.1410007 0.1478512
0.031972412 -0.023482706 -0.021661943 -0.09103242 0.1892401 0.5799596 0.13670509 -0.0708129

bias f4 [64]
00000000: c219 ef3d c25a bd3d 7643 853d 2abd 8e3c
00000010: 3c18 21be a4b9 0dbe 3ab7 203d 73d5 81bd
00000020: 0cd9 023e f339 1cbe f10d 02bd 8b4f 7fbd
00000030: 347e 803d be4e 393d 46e0 eb3d a07b 9c3d
00000040: 3ae0 d83c 8fbb e53d 19d3 2a3e b71d f83d
00000050: 527a 88bd f018 6f3d 5dd0 f6bc 5a3b 3e3e
00000060: d002 1dbd dc81 bbbc d2fd 03be cf3b 27be
00000070: 55ff 143e 5890 a6bd e556 4a3d b9e1 eebc
00000080: 4d75 40be 7262 363d 5508 493c 9e5c 243e
00000090: a0da b3bd 2910 6c3d bd05 053e 4dc7 d63b
000000a0: 6163 133a f7b5 903d 630d 0c3c ecf3 73be
000000b0: a5bd 313d f6d4 4cbe 2d8b a73d 7628 dcbd
000000c0: b684 a73d f7e2 533d 3d82 973b ce88 80bd
000000d0: ae79 e2bd 0cef eebc 7812 27be 33f7 40bd
000000e0: 6399 35be 6720 6b3d ab07 3f3e c79c 593e
000000f0: 06b1 22be 1f5d 12be 9964 39be 9843 96bd
0.11674835 0.09245826 0.06507008 0.017424185 -0.15731901 -0.13840348 0.03923724 -0.0633954
0.1277811 -0.15256481 -0.031751577 -0.062331717 0.06274071 0.04524111 0.11517386 0.07640767
0.026474107 0.112174146 0.1668209 0.12115043 -0.06663956 0.05837339 -0.030128652 0.18577328
-0.03833276 -0.02288907 -0.12889794 -0.16331409 0.14550526 -0.08133 0.049399275 -0.029160367
-0.18794747 0.04452748 0.012270053 0.16050956 -0.08781934 0.0576326 0.1299047 0.00655452
0.00056224136 0.07065957 0.0085481135 -0.23823518 0.04339375 -0.20003113 0.081808425 -0.10749905
0.081796095 0.051730122 0.00462368 -0.062760934 -0.11058365 -0.02916672 -0.16315639 -0.047110748
-0.17734294 0.05740395 0.18655269 0.21251212 -0.15887842 -0.14293335 -0.18104781 -0.07337111

weight f4 [64, 64]
00000000: 3eaf 13bd e328 b93d c965 e93d 1bf7 8dbd
00000010: 0aa1 1fbd aa0f eabc a811 e83c 5768 543d
00000020: 1264 d43d 356b 1f3e 8ba9 f23c c903 efbc
00000030: f230 453d 451c 053e 2523 093e 0258 ebbd
00000040: 625b 373e 34de 51bd 4560 0e3e 5906 a0bc
00000050: 3203 2c3e 0b9c cb3c 68d5 d5bc 0376 103e
00000060: 96c1 60bb b2e9 493e 06f9 08bc 2e95 8e3c
00000070: 5c55 1c3e 66f5 52bc b9ef ae3d f21b 8abd
00000080: fd18 afbb d747 913d 026b 113d 95b7 313e
00000090: ca00 2e3c 2d0c 483c cdcf a03d 5e43 17bd
000000a0: 8edd 24bd fc82 f13d 6861 f83d d194 97be
000000b0: f962 113e 0634 05be 1ad2 413e 0f48 053e
000000c0: ebee 303e a736 84bd 7e81 083e c727 163d
000000d0: 4c4b 6abd 00dc 2c3e dc50 e83d f146 7bbd
000000e0: 5954 c7bd 15db ab3d 6276 463e 3911 7d3b
000000f0: d9d8 fc3c bd2c 8d3c 27e6 403c f84b 43bc
00000100: 2228 00bd 6b0f 613d ecc1 cc3b 876d 183e
00000110: a08d f3bd d826 833d 91b2 483e 2569 23bd
00000120: ca37 013e 1fd7 a7bc 1c2e 493d f3bb 9a3d
00000130: cbb0 493e 4a07 cf3d eccb 053e 8a09 fcbd
00000140: 3799 433e 874e 503d 7e21 863c a633 56bd
00000150: fd07 7a3d ae56 863d 1ded 9c3d 6786 3d3e
00000160: 0d7e c83d 8aed 853d 0b88 5bbd 73c5 62bd
00000170: 4bfd b53d 286c df3d cd6b 72bc c098 1dbe
00000180: 8980 52bd 51d2 283e 255d ea3d e878 1cbd
00000190: 4418 883d 55a9 163d 1f0c 0d3e 4342 2dbd
000001a0: 59df b7bc dd81 193d 54bf 953d 118e 0fbe
000001b0: ed08 543d ac2b 09bd 66d7 f43d 6b63 0b3d
000001c0: 6fbe 243e e1e9 3e3e cb9d 223e 1ebd 53bd
000001d0: daf2 41bd 01af 1c3e 1685 113e 80ad d0bd
000001e0: 44d1 23bf e88b 1c3d 4131 e03d 8d84 f93d
000001f0: 5cb4 8e3c 7929 593d c94d 9f3d b5cd 2ebd
00000200: e0aa 1b3e f304 2c3d 7073 563e 812f 2f3e
00000210: 8fa5 303d 972c 963c 53e4 143e 72b4 a7bc
00000220: e3c3 8c3d 4adb 603b 5210 d83d 8e03 8f3d
00000230: 294d 4e3e 7370 4b3c bae3 d63d 80ba 3ebd
00000240: 2c48 b3bc fcfd cf3d 8dd7 2739 32a2 473d
00000250: f4c3 d83d 8ac0 f23d 5691 d2bd 2b89 1b3e
00000260: 7511 323e 319b 443b d3f8 223e c2ec ec3d
00000270: 76cb a23d 0969 193e 6924 2a3e e12c 9fbc
00000280: c2f0 883c bdcf 653c 3f38 f93d 9e63 1f3e
00000290: 380e 333d 240a 803d c3c5 2b3e bb83 a73b
000002a0: c5c1 083e c3e5 023e 6b16 803d 6425 96be
000002b0: 6bc0 0a3e 1241 a43d bc14 ce3d dc9f 2b3e
000002c0: 068c 0e3e 755b 643d 8abc 033d 3201 5ebd
000002d0: 91f1 a93d 6647 0d3e ecea 3a3d 6c39 f8bd
000002e0: 5030 09bf 78aa 09bd e7c9 153e 93c1 273e
000002f0: 8e62 0bbe 433a 6ebd 06d1 83bd b9ad 113d
00000300: 09f9 523d bbd8 313d 073e 20bd d2eb b03d
00000310: 8126 c93d c24a 143e 4101 063e 2272 84bd
00000320: 1ded c23d 98be 66bd 2f87 b23d dd83 15be
00000330: 0ad0 963d c50f 83bd 61cd 0fbe 208c 2b3d
00000340: 3d0a a63c b140 363e efe7 27bd 9427 c6bc
00000350: 9599 aabd 1384 0b3e 180b c13d d1a1 d03c
00000360: 5ce9 5dbd a5ad 9e3d ec95 23bd ed0c 043e
00000370: a142 ca3d f48c 893d b630 2fbe 7466 d23d
00000380: 061c e13d 4fdd b13d ebc4 ef3d 7e43 2d3d
00000390: 92b0 dcbd 8866 213e b1c5 32bd eca4 83bc
000003a0: 5468 533b 1dcd 4ebd b89a 2cbc 1a92 643d
000003b0: f24a 94bc 286f c73d 06b5 0d3e 1018 f13d
000003c0: f202 e63c cfff 1fbd 35be 043e 20b0 72bd
000003d0: 3f27 243c 51a7 88bd b8af 6abd 4fc7 2fbc
000003e0: 98ec e8be 9a18 493d 8376 e2bc 473d 88bc
000003f0: 010b 1ebe 3b5d 2d3a b424 0b3d 0cc0 2a3e
-0.036055796 0.09041002 0.11396367 -0.06931897 -0.03897194 -0.028571922 0.028328732 0.05185732
0.103706494 0.1556824 0.02962186 -0.02917661 0.04814238 0.12999065 0.13392313 -0.114913955
0.17905954 -0.0512373 0.13903911 -0.019534277 0.16798094 0.02485468 -0.026102737 0.14107518
-0.0034295074 0.19718054 -0.008360153 0.017405119 0.15266937 -0.01287589 0.08541817 -0.067436114
-0.005343555 0.070937805 0.03550244 0.17355187 0.010620305 0.012209934 0.07852135 -0.03692948
-0.040250354 0.117925614 0.12127954 -0.29605725 0.14197911 -0.13008127 0.18927804 0.1301577
0.1727864 -0.064557366 0.13330647 0.03665903 -0.057200715 0.16880798 0.11343548 -0.061346952
-0.09732885 0.08391396 0.19381097 0.0038615002 0.03086512 0.017233247 0.011773623 -0.011919968
-0.031288274 0.054946344 0.006248703 0.14885531 -0.11892247 0.06403893 0.19599368 -0.039895196
0.12618938 -0.02048832 0.04911624 0.0755538 0.19696347 0.10108812 0.13066071 -0.12306507
0.19101416 0.05085614 0.016373392 -0.05229535 0.061042774 0.065595016 0.07662413 0.18508302
0.09789667 0.065394476 -0.053596538 -0.055364083 0.088862024 0.10909301 -0.0147962095 -0.15390301
-0.051392112 0.1648648 0.11443547 -0.038201243 0.06645253 0.03678258 0.13774155 -0.04229952
-0.022445368 0.037477363 0.073118836 -0.14019038 0.051766325 -0.033488914 0.119551465 0.03403036
0.1608827 0.18643905 0.15880506 -0.051694028 -0.047350742 0.15301134 0.14210925 -0.101893425
-0.6399119 0.038219362 0.109468944 0.12183485 0.017419986 0.053018067 0.07778508 -0.042676646
0.15201902 0.041996907 0.20942473 0.17107965 0.04312664 0.018331809 0.14540224 -0.020471785
0.068733 0.0034310394 0.10549988 0.069831 0.20146622 0.012416947 0.10492654 -0.04656458
-0.021885 0.101558656 0.0001600666 0.048738666 0.1058425 0.1185313 -0.10281627 0.15189044
0.17389472 0.0029999728 0.15915231 0.115685955 0.07948963 0.14981474 0.16615452 -0.01943058
0.016716365 0.014026579 0.12168931 0.15565345 0.043714732 0.06251934 0.16774659 0.005112139
0.13355167 0.1278296 0.06254276 -0.29325402 0.13549964 0.08020224 0.100625485 0.167602
0.13920602 0.055751283 0.032162227 -0.05420036 0.08298028 0.13796768 0.045634195 -0.12120327
-0.53589344 -0.033609837 0.14627801 0.16382436 -0.13611814 -0.05816103 -0.064363524 0.035566065
0.05150703 0.04341958 -0.039121654 0.08638729 0.09821797 0.14481643 0.13086416 -0.064670816
0.09517882 -0.056334108 0.087171905 -0.14601083 0.07363899 -0.06399492 -0.1404319 0.04188168
0.020268554 0.17798115 -0.040992673 -0.024188794 -0.08330075 0.13624601 0.09425944 0.025467785
-0.054177627 0.07747964 -0.0399379 0.12895556 0.0987599 0.06716338 -0.17108425 0.10273448
0.10991673 0.086847894 0.11707481 0.042300694 -0.107758656 0.15761769 -0.043645564 -0.016069852
0.003225823 -0.05048858 -0.010534935 0.055803396 -0.018102143 0.09737998 0.13838586 0.11772168
0.028077576 -0.039062317 0.12963183 -0.059249997 0.010019123 -0.06672538 -0.057296485 -0.010728671
-0.45493007 0.049095728 -0.027644401 -0.016630782 -0.15433885 0.00066133187 0.03397055 0.16674823

bias f4 [64]
00000000: 58ff 893d 7659 f13d 3c6f 053d 1cb8 a23d
00000010: ee4d 603c 232d 223d 04da 823c 9b6f f2bb
00000020: c077 dabd 0b8a 013d ff8b b8be 103c dcbe
00000030: b7b8 aebd 8d8e ec3d ba96 6ebe a554 143e
00000040: d123 fe3d ce3f d7bc f9a2 4f3d 6374 cc3d
00000050: 176b 453d 4dbd 013e 73e2 ae3d c83f f7bd
00000060: 8b14 2abd 9395 81be 4482 8b3d b32b 083d
00000070: 48e4 103e 94a7 aa39 c34d 6fbd de94 273e
00000080: 8554 133e cd06 2bbd 8645 3ebe f803 3a3c
00000090: ba97 7f3c fcb7 69bc 2be4 f33d 35a3 a1bd
000000a0: ca82 dfbd 60ac 153e 3c92 353d aacd 85be
000000b0: 4ead 92bd 70ed dbbc 4195 713d 3520 b2bd
000000c0: 25db 2a3e 7227 4e3d 1b7d 093e 63d2 f23d
000000d0: 3506 bb3c 2054 d9bc 4e34 55bd e9de 023e
000000e0: 55bf b8bd 7e60 00be 1930 b93c 2690 30be
000000f0: 5a1f 603d 425f b93c e609 1cbd d4cb c2bd
0.06738156 0.117846414 0.032576784 0.07945272 0.013690455 0.039593827 0.015973099 -0.0073985583
-0.10667372 0.03162579 -0.3604431 -0.43014574 -0.08531325 0.11550627 -0.23299685 0.14485414
0.12409175 -0.026275542 0.050692532 0.099831365 0.048197832 0.12669869 0.085392855 -0.12072712
-0.041523498 -0.2530943 0.068119556 0.0332448 0.14149582 0.00032549782 -0.05842377 0.16365382
0.1438771 -0.041754533 -0.18581209 0.011353485 0.015600139 -0.014265057 0.11908754 -0.078924574
-0.10913618 0.14616537 0.044328913 -0.26133472 -0.071619615 -0.026846617 0.05898023 -0.08697549
0.1668516 0.050330587 0.1342663 0.11856534 0.022830108 -0.026529372 -0.052051835 0.12780346
-0.09020869 -0.12536809 0.022605943 -0.17242488 0.0547174 0.02262843 -0.038095377 -0.095115334

weight f4 [64, 64]
00000000: ac65 45bd 4a84 17bd 00cb 6b3d 22dd 95bd
00000010: 85a5 2c3e cf4f 0a3e 98d6 73bb 4f88 213e
00000020: 0808 753d b8a7 0f3a 153a 213d cd1e 0cbe
00000030: 0462 88bd 458a 163d 4f92 103d 31e5 0ebe
00000040: 6da1 c13d 87c5 b93c 4903 1b3e 678d 093e
00000050: 1376 a93d c951 ae3c 5b6d 373e d473 81bd
00000060: 08d0 8a3d 16d5 07bd afd8 ffbd ad46 99bd
00000070: 96bd ab3c cd2c b93d fcdb 0539 a111 e3bc
00000080: 3fc1 543d ec65 86bb 3cff 23bf 8fb0 c6bd
00000090: b1da b7bd 4536 163e 1ff3 473e 85b4 ae3e
000000a0: 294f 7f3d b1fd 323e e47c 24bd 06da d3bc
000000b0: 4485 af3d c52e df3c 1af2 debd aee7 0b3c
000000c0: 174e 18be 7d87 013e fd05 2d3d 9da9 333b
000000d0: e0b9 063b 6104 33be 5fcd 2b3e 3f48 39bd
000000e0: 290e ff3d 0437 75bd c593 cbbd c2b5 673c
000000f0: 4033 5dbe 6611 a03d 7ea6 0ebe 6872 00bc
00000100: 4ed7 41be 1050 93bd aa55 93bd 00e3 bc3d
00000110: 9803 b93c f094 263c d28a c93d 54ec dcbc
00000120: d4d9 abbd 2b0f 71bd caa8 9bbd cb7f 08be
00000130: 6899 933b baf6 c1bd acca 5b3d 67d7 0cbd
00000140: 926d 343b d8ab cdbd a25e 10be a08f 73bc
00000150: bc47 f3bd 1836 a4bd 2124 7fbd 20ba 953b
00000160: 1a3b f4bd 5054 8e3d 1871 4dbd fcaa 27be
00000170: 0d81 373c d434 3fbd f821 3ebd f6ad 45be
00000180: 4b24 7cbd eea3 96bd a2f8 a13d c4be 20be
00000190: 3149 00be 8019 a03d e424 9c3d 26de c7bd
000001a0: 2c6f 5abd 2cfa 77bd e4e0 953d 8a1b cc3d
000001b0: d0b7 133c 943f f3bd 5d55 0fbe 80b1 f0ba
000001c0: d3d9 33be 773f 34be b80d 21be 349b 2bbd
000001d0: 70ba 2dbe f6f3 dcbd 163c 80bd 9ce0 17bd
000001e0: 8734 52be 2ce1 b33d d909 2abb 9c2e 36bd
000001f0: 243b 43be 0a3d 43be a0dc b33c 0af8 cdbd
00000200: ba40 303e 355c 3e3e 6c23 493e beff 663c
00000210: bd8a 1d3e b2e3 0e3e 1893 d73d b67f b53c
00000220: 88df 09bd 6413 0b3d c417 d53c 0c89 9a3e
00000230: 4529 acbb 558e fb3d 381d d63d 734a 823b
00000240: f884 44bd 0130 383e 0a31 103d a609 593d
00000250: 1b6e 9d3d ab68 f63d b03a 113e 650f 2f3d
00000260: 7bf4 0e3e 074b 1abe 56cd fc3d 8335 eabc
00000270: 7986 163e 4027 cbbc 1e63 f23d 2a9b 493e
00000280: 059c 3b3d 86ee c83c ec63 4abf 3105 da3d
00000290: 3b67 ae3d 247e 3a3e 1d3a 033e 3403 203d
000002a0: 51fa dc3c 762c b7bc eab9 f93c 60de 883b
000002b0: f256 3c3e 1736 d73c b52a 343e f7ec 3b3c
000002c0: 29a8 2e3e f680 863b 9023 663c 4d90 e03d
000002d0: 831d 383e e0df 93bd 851a 043d 44ef e93d
000002e0: 8086 82bc 9526 b839 0864 6fbe b108 c8bb
000002f0: 9364 41be fff0 643d 971e 003e 897b 0b3e
00000300: 8e73 333d 3c1b 14be 6a69 023e d7ea c93d
00000310: 6569 4cbc a8c4 ee3d 1095 ca3f d54d 70bf
00000320: 4a5f 4bbe f47c ae3f 5111 42be 2132 e83d
00000330: a68f a1bf 3ea8 9b3d 04b9 34bd 2b91 75be
00000340: 9153 a43e e331 a13e 05d9 863d 1c91 b6bd
00000350: 6a64 563e 75c6 bf3c 332f a8bc 8087 f23d
00000360: 5db4 68be 75b1 053d d2c5 15bd 2c7c 83bd
00000370: e9a1 98bd 3319 3cbe 0a06 983f a295 33be
00000380: e612 703e f28a cdbe 1215 23bf e2d8 5abf
00000390: d92a b0be 8204 f53d bd8a 1a3e b3e4 b8bd
000003a0: 9c25 e03d c807 273e 3788 7fbd 95ae 3abd
000003b0: 0bee 703e da90 fcbe 4e50 6e3e 391b 273f
000003c0: ecfb 383e 1efa 393f eb54 333e 6807 133e
000003d0: f936 31bd 887f aebd bb6a 9c3e ba04 bb3d
000003e0: 05e8 37bf 4ee6 193e 23cd 683e eef1 2dbe
000003f0: 9af2 093e fd6e ef3e b377 363d 291b 4a3f
-0.048192665 -0.036991395 0.057566643 -0.07317568 0.16860016 0.13507007 -0.0037206765 0.15774654
0.059822112 0.0005480009 0.039362032 -0.13683625 -0.0665932 0.036752958 0.03529578 -0.13954617
0.09454618 0.022677196 0.15137972 0.13432847 0.08274474 0.021279233 0.1791281 -0.063209206
0.0677796 -0.0331622 -0.12492501 -0.074841835 0.020964425 0.09041748 0.00012765819 -0.027718367
0.051942106 -0.0041015055 -0.6406133 -0.09701645 -0.08977259 0.1466914 0.19526337 0.341221
0.062331352 0.17479588 -0.040158167 -0.025860798 0.0857034 0.027243981 -0.10886021 0.008539123
-0.14873539 0.12649341 0.04224204 0.002741433 0.0020557567 -0.17482139 0.16777562 -0.045234915
0.12453873 -0.05986692 -0.09940294 0.0141424555 -0.21601582 0.078158185 -0.13930699 -0.007839777
-0.18929788 -0.07193005 -0.071940735 0.09222984 0.022584721 0.010167345 0.09840931 -0.026968159
-0.08391157 -0.058852356 -0.07600553 -0.13329999 0.0045043714 -0.094708875 0.05366008 -0.03438511
0.002753113 -0.10042542 -0.140986 -0.014865786 -0.118789166 -0.0801813 -0.062290315 0.004569307
-0.11925335 0.06949675 -0.050156683 -0.16373819 0.011200202 -0.04668124 -0.046419114 -0.19304642
-0.06155805 -0.07355486 0.07908751 -0.15697771 -0.1252792 0.07817364 0.07624224 -0.09759168
-0.053328678 -0.060541317 0.07318285 0.0996619 0.009015992 -0.11877361 -0.13997407 -0.0018363446
-0.17563562 -0.17602335 -0.1572789 -0.04189606 -0.16965652 -0.10788719 -0.062614605 -0.03707944
-0.2052785 0.087831825 -0.002594581 -0.044478044 -0.19065529 -0.19066253 0.021955788 -0.10057075
0.17212191 0.18589862 0.19642419 0.01409906 0.15384956 0.13954046 0.10526103 0.022155624
-0.03366044 0.03395404 0.026012309 0.30182683 -0.005253943 0.12283007 0.10454792 0.00397616
-0.04797837 0.17987062 0.035203017 0.052987717 0.076870166 0.120316826 0.14182544 0.04273929
0.1396045 -0.15067683 0.12343852 -0.02858997 0.14699735 -0.02479899 0.11835311 0.19688097
0.04580309 0.0245278 -0.7905872 0.106455214 0.085157834 0.18212181 0.12815137 0.039065555
0.026974829 -0.022360068 0.030484159 0.0041769 0.18392542 0.02627091 0.17594416 0.011470071
0.17056336 0.004104729 0.014046565 0.10965023 0.17980008 -0.07220435 0.032251853 0.114225894
-0.015933275 0.0003512396 -0.23378003 -0.0061045517 -0.18886022 0.055893894 0.12511669 0.13621344
0.043811373 -0.14463514 0.12735525 0.09859245 -0.0124763 0.11658603 1.582674 -0.9386876
-0.19860569 1.3631883 -0.18951918 0.11337686 -1.2621963 0.07600449 -0.044121757 -0.23981158
0.32095006 0.31483373 0.06584362 -0.08914396 0.20936742 0.023410061 -0.020530319 0.11842251
-0.22725053 0.03263994 -0.03656561 -0.06420168 -0.07452757 -0.18368988 1.1876843 -0.17537549
0.23444709 -0.4014507 -0.63704026 -0.85487187 -0.3440769 0.119637504 0.15091987 -0.09027996
0.109446734 0.16311562 -0.062385764 -0.04557665 0.23528306 -0.49329263 0.23272821 0.65275913
0.1806485 0.72647274 0.17512862 0.14358294 -0.043265317 -0.085204184 0.3055018 0.09131761
-0.7183841 0.1502926 0.22734503 -0.1698682 0.13471451 0.46764365 0.044547748 0.78947693

bias f4 [64]
00000000: 1698 b83d 9352 4cbe ca79 243e 0dea a43e
00000010: 537c 173e d2de 743d 4364 8fbd f8ee 643d
00000020: f6e3 14bc 52e1 9a3c 2d3d 1ebe 6324 9a3b
00000030: acfd b9be 175b 1e3e f38b 593d b102 91bd
00000040: 31a7 36be 26bc c13d b67b abbe 2866 23be
00000050: 3deb a63d 9150 1fbd 2f37 033f f0e2 32be
00000060: 333d 85bd d26b c8bc de29 4d3d f762 f5bd
00000070: 5973 2f3f a9b1 4b3d cfb0 473c b02d 92bb
00000080: cb15 b0bd 9245 43be 0dac 96bd 8fe6 1dbe
00000090: 4cc8 5a3d 59df 423e cafe 993d 18db 103d
000000a0: 5ad0 80bd c829 e4bd a0f0 6d3d d1d0 a1bd
000000b0: 64e2 f3bd ac8f e8bd e9ec cbbe 5255 c13d
000000c0: 88f6 d13d 3588 f5bc df71 093d 9c42 f2bd
000000d0: 94ae 49bd f4d2 453d c8ad c93b 17a2 77bd
000000e0: 29fd 023e 23d6 5e3d e259 f3bd a0bc ddbc
000000f0: 81d2 d8bd c11c 203d 0e02 b9bd ca42 913d
0.09013383 -0.19953375 0.16062084 0.32209817 0.1479352 0.05978281 -0.07001545 0.05589196
-0.009087553 0.01890627 -0.15453024 0.0047040447 -0.3632635 0.15464436 0.05311198 -0.070805915
-0.17837216 0.094597146 -0.3349282 -0.15956938 0.08150337 -0.038895193 0.5125608 -0.17469382
-0.065058134 -0.024465475 0.050088756 -0.11981767 0.6853538 0.049729977 0.012188151 -0.004461013
-0.08597907 -0.19069508 -0.07357035 -0.15419982 0.053413674 0.19030513 0.075193 0.035365194
-0.0628974 -0.11140782 0.058090806 -0.07901157 -0.11908415 -0.11355528 -0.39829186 0.09440102
0.102521 -0.029972175 0.03355586 -0.11829111 -0.049238756 0.048296884 0.0061547495 -0.060457315
0.12791885 0.054403435 -0.11882378 -0.027067482 -0.105870254 0.03908992 -0.09033595 0.07092817

weight f4 [32, 64]
00000000: c2e9 36bd 04cd 90bd 69e9 3f3e 3e57 b9bd
00000010: 1af6 9a3c 58af a8bb fc13 11bc d36e 353e
00000020: 7045 9ebc 8548 3c3e a9bc 033d 0205 50bd
00000030: 6aa6 9cbd 691e 2f3e 20e9 43be 0fb7 e23d
00000040: 181c 25be 2c0a 063e 93bf 273d 2d2d 123d
00000050: 5288 7e3a adfb 0abe 8540 88bd 5452 a3bd
00000060: 8d1a 7fbd a7c1 9abb 5688 f83d b510 873c
00000070: 85b3 b5be 2b69 9abd d5b9 073e cb81 063d
00000080: a603 473c 0657 58be 296f 61bc 3fc3 563c
00000090: 709a 2bbe fb6e 233d 7eef 33be 3a11 853d
000000a0: 0675 82bd 7e32 663d bf23 083d 4843 a43c
000000b0: 080b 3cbb c764 33bc 4646 0a3d aa7f 323d
000000c0: ebb6 013e 83ba abbc 76b8 b63d 33e5 ecbd
000000d0: b460 b73c 04df 003d ae5f 043e 9ca2 10bd
000000e0: e565 b83d df73 c1bd 0c5c bd3c a858 b3bc
000000f0: f0c5 f33d cfaf 993d 82cc 36bd 39b4 f83d
00000100: 4cd0 2f3e bc17 193d 05e8 bdbb 39dc 64be
00000110: c629 a03d a9b6 4a3c ecab c83c fde7 2c3c
00000120: 6031 63bd 6882 da3d f5a7 34bd 5206 303e
00000130: fc1c 4d3d 4b55 5abd 0f04 953d 41f2 6f3d
00000140: 4ef9 a6bc cac4 273e 7dcd 93bc 7c62 9abd
00000150: 4d92 8d3d 22bb bc3c b59e d7be 2185 6c3d
00000160: cfd6 97bd 5918 123c c17f f83d 5449 3939
00000170: e186 abbf 8714 b83d f1e6 4f3e 105b 8ebe
00000180: e605 0dbe 5878 bf3c 9330 bc3d 9670 bdbd
00000190: c2fe a9be d9b5 903d 4f5b 4cbd e301 443d
000001a0: 7e54 11bd 806e b03c 5ad7 3c3d 674e 293d
000001b0: 5c5b c73d b201 28bd 6818 573e 3282 293e
000001c0: cdef 413d fe8a a5be 12a8 8abc 4978 cebd
000001d0: dc33 fe3d 9773 dd3d 8922 37bd ee47 85bb
000001e0: 9830 6e3c 2d75 e7bc 711a 3f3d a973 d03d
000001f0: d3f8 33bd 58ac b8bc ce77 2c3e 2a02 363e
00000200: ad47 25bc 5c8e a93d 9bd6 c13a cd10 683d
00000210: ffcc 493e a422 0a3d 1e30 fe3d c262 293e
00000220: a48b 253e 5365 e8ba bf2a 163e 30d1 ec3d
00000230: 847e a2be d08e 383e 88c4 48bc 6063 653e
00000240: dac2 b43d aeac a93d c6e1 943d 9aee 69bb
00000250: 3bcc 38bd 9c60 b13d 0458 0e3e d354 50ba
00000260: d8d0 aebc f8f8 7ebd 18e6 bd3d a675 2b3e
00000270: 6341 0fbe dc36 e33d 6636 85bd 48c2 443d
00000280: 677c 8c3a 3568 603d 04e8 18be 9c69 323e
00000290: d565 6abc 5077 043d 804e 383e 3102 1c3d
000002a0: a677 babd 9d1d 48bd 7eef 62bc 9818 42be
000002b0: 3e54 56bd e244 623e b525 36be 0a38 1a3e
000002c0: ec52 abbc 14df 893c 61af 093d 0f74 743d
000002d0: 1cb4 323e 70b2 e83c 34bb 4dbc e70b 4abc
000002e0: bb98 d63d 64dd 1b3e aa26 273e 1193 ae3d
000002f0: a4df 943d a3f7 17bd 734f 263e 0e45 413d
00000300: be43 d3bd ae30 bcbd de35 00be 54ee 26bd
00000310: ea77 8dbb 2983 a5bd dc24 a73d 52fb f53d
00000320: 7c14 4ebd b7ad 00be 245a 0ebd 4068 b73d
00000330: 7034 a43c 0678 d8bd cc2f c9bd 4904 8bbd
00000340: 7064 39bc fee9 dcbd 38c0 c73d 3204 b0bd
00000350: 4b72 babc 8c83 96bd ad1a b6ba acf0 943d
00000360: bc51 0b3d e43c 303d 785a f3bd 9eac 9dbd
00000370: a0b8 91bb d4a8 153d 6124 2d3d a384 dcbd
00000380: bc1c 133d 4cea ea3d 0018 353c 4432 2a3d
00000390: f913 94bd 1828 31bd bb7c 28be e27f cc3d
000003a0: 4251 d3bc 20d2 743d 20d8 a13b 5ec2 b2bd
000003b0: 800e ebbb 2436 a33d 48d0 8d3c 005e 363d
000003c0: 16e9 9d3d d3df 8bbd 10c2 163c c467 4dbd
000003d0: f028 28bd d0a6 d3bd 9e1a 9b3d 0889 6cbd
000003e0: 866c 833d 2e7b 5dbc 0092 06bd 0648 a43d
000003f0: a6ba 92bd 387b a03c f26f cabd e812 edbd
-0.044656523 -0.070703536 0.18741383 -0.09049843 0.018916178 -0.0051478557 -0.008854862 0.17718057
-0.01932022 0.18387039 0.032162342 -0.050786026 -0.076489285 0.17101444 -0.19131899 0.11070072
-0.16123998 0.13089818 0.040954184 0.035687614 0.00097096444 -0.13572569 -0.06652931 -0.07974687
-0.06228118 -0.004722792 0.12135379 0.016487459 -0.35488525 -0.075395904 0.13254483 0.032838624
0.012146866 -0.21126947 -0.013759413 0.013108074 -0.16758132 0.03990076 -0.17571828 0.06497426
-0.06369977 0.056200497 0.033237215 0.020051613 -0.0028693099 -0.01094932 0.033758424 0.04357878
0.12667434 -0.02096296 0.08921902 -0.11567154 0.022384979 0.031462684 0.12927124 -0.035311326
0.0900381 -0.09445929 0.02311518 -0.02189286 0.11902988 0.07504236 -0.044628628 0.1214375
0.17169303 0.03737615 -0.005795481 -0.22349633 0.07820468 0.012372651 0.024496041 0.010553357
-0.05546701 0.10669404 -0.04410549 0.17189911 0.05007647 -0.053303998 0.07276165 0.05858064
-0.02038255 0.16383663 -0.01804232 -0.07538316 0.0691267 0.02303845 -0.4211327 0.05774415
-0.07414018 0.008916938 0.12133742 0.00017670292 -1.3400537 0.0898829 0.20302941 -0.2780385
-0.13771781 0.023372814 0.09188952 -0.0924999 -0.33202177 0.07065935 -0.049891766 0.04785336
-0.03548097 0.021537066 0.046103813 0.041334536 0.09734222 -0.04101724 0.21005404 0.16553572
0.047347832 -0.32332605 -0.016925845 -0.10081536 0.12412235 0.10813063 -0.04471067 -0.0040674126
0.014537953 -0.028254116 0.046656076 0.101783104 -0.04393847 -0.022543117 0.16842577 0.17774263
-0.01008789 0.08279106 0.0014788689 0.056656647 0.19707106 0.033724442 0.124115214 0.1654158
0.1616655 -0.0017730392 0.14664744 0.11563337 -0.3173715 0.18023229 -0.012253888 0.2240119
0.088262275 0.08284889 0.07269625 -0.0035695196 -0.045116644 0.08661005 0.13900763 -0.000794721
-0.021339819 -0.062249154 0.092724025 0.16744098 -0.13989787 0.11094448 -0.06504516 0.048036844
0.0010718227 0.05478688 -0.14932257 0.174231 -0.014306505 0.032340348 0.17998695 0.038088027
-0.091048524 -0.048856366 -0.013851045 -0.18954694 -0.052326433 0.22096589 -0.17787822 0.1506044
-0.020913564 0.016830005 0.03361452 0.059680995 0.17451519 0.028405398 -0.01255684 -0.012331939
0.1047835 0.15221173 0.16323343 0.085241444 0.072692186 -0.0371014 0.16241245 0.047184996
-0.10315655 -0.091889724 -0.12520549 -0.04075463 -0.0043172734 -0.080816574 0.08161327 0.12010826
-0.050312504 -0.12566267 -0.034753934 0.08955431 0.020044535 -0.10569768 -0.0982357 -0.06787927
-0.01131545 -0.10786818 0.0975346 -0.0859455 -0.022759577 -0.07349309 -0.0013893448 0.07272467
0.034013495 0.04302682 -0.1188249 -0.0769894 -0.004447058 0.03653796 0.04227102 -0.10767486
0.035916075 0.1147047 0.011053085 0.041551843 -0.07230372 -0.043251127 -0.16453831 0.09985329
-0.025795583 0.059770703 0.004939094 -0.08728479 -0.0071733594 0.07969311 0.01731123 0.04452324
0.07710473 -0.068298005 0.009201542 -0.050147787 -0.041054666 -0.10334551 0.07573436 -0.05774787
0.064171836 -0.013518138 -0.03285408 0.0802155 -0.071645066 0.019590005 -0.09884633 -0.11575872

bias f4 [32]
00000000: 0ae9 ed3d 3ad2 2e3e 48b4 da3d 4987 26be
00000010: 263b 363c 4181 21be fdda 5cbd 5b31 253e
00000020: 46f8 213e cdf4 d23d 5e3b d1bc efcb f0bd
00000030: 9937 3f3d 2bd5 cfbb 5190 2abe ce9b 1f3e
00000040: c516 4d3e bf8d c5bd d2ac eeba 549f 2ebe
00000050: 5c67 133e 6783 c1bd 1206 2e3d e730 133e
00000060: 527f a23d 02c7 253e 46d9 b3be 6b76 113d
00000070: 8a90 16be 0a72 183e 3cb3 2b3e a062 05be
0.11616714 0.17072383 0.10678917 -0.16262545 0.0111225005 -0.15771963 -0.05391978 0.16132109
0.15817365 0.10300598 -0.025541004 -0.11757647 0.04668388 -0.0063425503 -0.16656615 0.15586779
0.20028217 -0.096461765 -0.0018209463 -0.17052966 0.14394897 -0.09448891 0.042486258 0.14374124
0.07934441 0.16189197 -0.35126704 0.035513323 -0.14703575 0.14887252 0.16767591 -0.13025904

weight f4 [1, 32]
00000000: f41b 563e ca07 533e da95 1dbe 9e45 cbbc
00000010: 62d4 41be 512f eabc 625f 523e 15bd bc3d
00000020: d17e fabd f06e 9b3d d145 30be 9109 42bd
00000030: 1b68 66bd c714 083e 335e 943d 2172 763e
00000040: e258 0cbd ee69 113e 0dfd 333e 07b2 9c3b
00000050: 91ef 17be 68e9 61be 1516 f5bd fa99 4ebe
00000060: db9e 653e 7b6c 12be 0304 943e c0c2 373e
00000070: 5b3e 823b 6255 b23d 1e06 7c3e 70d9 9c3d
0.20909101 0.2060844 -0.15389195 -0.02481347 -0.18928674 -0.028587015 0.20544198 0.09215752
-0.122312196 0.07589519 -0.17214133 -0.047372404 -0.056251626 0.13289176 0.072445296 0.24066974
-0.034264453 0.14200565 0.17577 0.0047819647 -0.14837481 -0.22061694 -0.119671024 -0.20175925
0.2242388 -0.14299195 0.2890931 0.17945385 0.0039747185 0.08707692 0.24611709 0.076586604
